act_net_done.pth (torch, 687247 bytes, 8 tensors)

fc1.weight f4 [512, 24]
0.10688341 0.2518284 0.3820974 -0.36762297 0.06749183 0.18790162 0.30106828 -0.46061718
0.095765635 -0.20986027 -0.004118428 0.2632948 -0.16768825 -0.33473316 0.09018834 -0.28394917
0.030685363 -0.18590836 0.0878421 0.09384954 0.021020712 0.15111093 -0.009283131 -0.049240578
-0.06266312 0.08660497 -0.18327013 0.08551795 -0.021370228 0.07453366 -0.32347944 0.1909793
-0.11407057 -0.007952798 -0.10585575 -0.06000608 -0.059098553 0.29289433 -0.18036743 0.39130113
-0.25249046 0.032981344 -0.089798726 -0.1291791 0.3851954 -0.44657436 -0.1360661 -0.18260823
0.23431724 -0.40975323 0.42600405 -0.33632052 -0.039297465 -0.19268423 0.3143156 -0.06972522
0.13136467 -0.116590686 0.009479839 -0.26653525 0.018821716 -0.11393436 -0.0023029463 -0.26124328
0.2879136 -0.14856134 -0.020522961 -0.28947288 0.13774422 0.29892552 0.017019674 0.1407742
0.03902937 0.1151028 0.32411382 0.030086517 0.09305161 -0.42692316 0.010054893 0.009390585
-0.08969972 -0.05752482 0.0987847 -0.03336984 -0.052088663 -0.10397035 0.081551716 -0.2327557
-0.17441304 -0.039448846 -0.1803677 0.36033985 0.5798042 -0.48682174 0.14061977 0.20370628
0.68066406 -0.40715298 -0.17070879 -0.34455872 0.10362575 -0.11845771 -0.026142173 -0.0028491481
0.3893992 -0.25150087 -0.005930243 -0.43878043 -0.03111346 -0.019894533 0.013637012 -0.16455849
0.4829618 0.036028218 0.115252905 -0.16904345 0.2550502 -0.28937387 0.09324783 0.1614122
-0.32986492 0.08836265 -0.4276389 0.07531893 -0.2481584 -0.041741658 -0.26800257 0.17340247
0.092108525 -0.21707304 0.07577443 0.0010401652 -0.32071084 -0.03748625 -0.11553252 0.31040162
-0.08662329 -0.017646665 0.14134838 0.018006042 -0.4971886 0.66477543 0.19279124 -0.024468109
-0.20421065 0.22039816 -0.16559556 0.33670813 -0.50284284 0.32494614 -0.057138845 0.24439672
-0.24208975 0.14490399 -0.1057185 0.129782 0.099355645 -0.072643556 -0.17772767 0.3878487
-0.34502986 0.33540303 -0.23392487 0.20915589 -0.3783101 0.33944654 -0.03225833 0.12338216
0.0059093228 0.18307598 -0.10483211 0.16243653 0.10027705 0.07187081 -0.03557745 -0.19236542
0.3135878 0.056424156 -0.19372807 0.36823222 -0.13640612 0.041790154 0.06630092 -0.33456224
-0.022693044 -0.14195424 0.13289225 0.30921346 0.44095072 0.025846984 -0.15203054 0.16429144
-0.2434511 0.036820326 -0.23097067 -0.34083974 0.05250621 -0.34833536 0.12966478 0.24652262
0.20097661 0.0077168494 0.68504214 -0.16468216 0.25979215 -0.16203894 0.17693835 0.016649486
-0.32711032 -0.11776846 -0.015529811 -0.1555323 0.1797036 0.105344914 -0.08972733 -0.14971569
0.5997265 -0.14103477 -0.14311193 0.1912684 0.05423457 0.40555057 -0.10900154 0.23662688
-0.2200572 -0.121292815 -0.10799646 0.42505288 0.013569405 -0.06666271 0.24820137 -0.15237117
0.16808353 -0.064944945 -0.04061905 0.10749623 -0.27438748 0.355238 0.20162942 0.12757453
-0.075403325 -0.22459723 0.14403677 -0.38721144 0.24075533 -0.1824438 -0.17023662 0.2255983
0.21801524 -0.32280076 0.43405497 -0.29372147 -0.019144427 0.27642253 -0.18467298 0.35106927
00000000: b0e5 da3d a7ef 803e 45a2 c33e 1439 bcbe
00000010: 2839 8a3d 4869 403e 9f25 9a3e 04d6 ebbe
00000020: c620 c43d 9ce5 56be e1f3 86bb 93ce 863e
00000030: 78b6 2bbe 2562 abbe aab4 b83d c961 91be
00000040: df5f fb3c c35e 3ebe 8fe6 b33d 3034 c03d
00000050: a133 ac3c d3bc 1a3e 4618 18bc 7db0 49bd
00000060: 8655 80bd f25d b13d 2aab 3bbe 0924 af3d
00000070: 9e10 afbc 1ba5 983d 199f a5be 1490 433e
00000080: d59d e9bd 744c 02bc e6ca d8bd efc8 75bd
00000090: 5311 72bd 3ff6 953e 3db2 38be 9f58 c83e
000000a0: 6e46 81be 7217 073d 65e8 b7bd 8747 04be
000000b0: 5538 c53e 65a5 e4be e954 0bbe a7fd 3abe
000000c0: dcf0 6f3e 2dcb d1be 341d da3e 3432 acbe
000000d0: 61f6 20bd 044f 45be f9ed a03e 19cc 8ebd
000000e0: 7684 063e 19c7 eebd 5451 1b3c 4f77 88be
000000f0: 0030 9a3c 6b56 e9bd 07ed 16bb aec1 85be
00000100: 6969 933e 7720 18be c51f a8bc ca35 94be
00000110: d20c 0d3e c40c 993e d86c 8b3c 1d27 103e
00000120: 43dd 1f3d 04bb eb3d 3ff2 a53e 0078 f63c
00000130: d891 be3d ac95 dabe 47bd 243c f8da 193c
00000140: 7db4 b7bd 259f 6bbd a24f ca3d d0ae 08bd
00000150: ec5a 55bd 68ee d4bd 9604 a73d 8357 6ebe
00000160: 5599 32be 1d95 21bd 4fb2 38be 777e b83e
00000170: 0c6e 143f b340 f9be a1fe 0f3e 6198 503e
00000180: 0040 2e3f 5b76 d0be 49ce 2ebe 006a b0be
00000190: bd39 d43d f599 f2bd 1c28 d6bc c6b8 3abb
000001a0: 555f c73e b9c4 80be 7c52 c2bb d4a7 e0be
000001b0: a8e1 febc dcf9 a2bc c66d 5f3c 0582 28be
000001c0: c546 f73e 5392 133d b709 ec3d ba19 2dbe
000001d0: f195 823e d028 94be b8f8 be3d 3d49 253e
000001e0: 0ee4 a8be 7af7 b43d 7cf3 dabe d040 9a3d
000001f0: 3c1d 7ebe 4df9 2abd a237 89be 6b90 313e
00000200: 65a3 bc3d 6548 5ebe a02f 9b3d 2756 883a
00000210: 3634 a4be 2f8b 19bd 509c ecbd f6ec 9e3e
00000220: 8d67 b1bd bd8f 90bc a1bd 103e 6881 933c
00000230: 818f febe b92e 2a3f 116b 453e 5871 c8bc
00000240: 991c 51be 0eb0 613e e291 29be 0265 ac3e
00000250: 4fba 00bf 575f a63e 6c0a 6abd 2243 7a3e
00000260: 60e6 77be b661 143e f182 d8bd 93e5 043e
00000270: f97a cb3d 25c6 94bd 3efe 35be 1b94 c63e
00000280: c1a7 b0be f2b9 ab3e 008a 6fbe f62c 563e
00000290: ddb1 c1be f0cb ad3e 5021 04bd c9af fc3d
000002a0: fea2 c13b 4578 3b3e 38b2 d6bd c355 263e
000002b0: 0e5e cd3d 0131 933d a9b9 11bd 71fb 44be
000002c0: 958e a03e 041d 673d a760 46be ef88 bc3e
000002d0: 0cae 0bbe 272c 2b3d c7c8 873d be4b abbe
000002e0: c3e6 b9bc 745c 11be e814 083e 3a51 9e3e
000002f0: 4bc4 e13e 0ebd d33c e5ad 1bbe 043c 283e
00000300: 3f4b 79be e9d0 163d 9383 6cbe 8c82 aebe
00000310: c010 573d 0359 b2be d8c6 043e 6d70 7c3e
00000320: d0cc 4d3e a0dd fc3b ec5e 2f3f 71a2 28be
00000330: 7a03 853e 89ed 25be 542f 353e 8164 883c
00000340: 017b a7be 9730 f1bd c070 7ebc dc43 1fbe
00000350: 3804 383e 13bf d73d f6c2 b7bd 124f 19be
00000360: ad87 193f 6b6b 10be ef8b 12be dddb 433e
00000370: 1225 5e3d 53a4 cf3e 333c dfbd 514e 723e
00000380: ad56 61be 5e68 f8bd 3f2d ddbd 88a0 d93e
00000390: 3652 5e3c 7586 88bd 8028 7e3e 3007 1cbe
000003a0: 171e 2c3e db01 85bd 2960 26bd fc26 dc3d
000003b0: 847c 8cbe c1e1 b53e f177 4e3e e6a2 023e
000003c0: 0f6d 9abd d1fc 65be 607e 133e 9440 c6be
000003d0: 9188 763e 8cd2 3abe 8252 2ebe 3e03 673e
000003e0: 633f 5f3e 2446 a5be 743c de3e a962 96be
000003f0: c6d4 9cbc 4187 8d3e ea1a 3dbe 5abf b33e

fc1.bias f4 [512]
0.017492522 0.15016721 -0.29265973 -0.11888483 -0.1292041 0.17975216 -0.020041853 -0.012372396
0.16763088 -0.47534856 0.29179347 -0.16315135 0.68146175 0.22389202 0.37414423 -0.23922402
0.19696578 0.037916355 -0.11401237 -0.038692456 -0.11888651 0.46597356 0.15989532 -0.04941269
-0.29945406 0.018666591 0.25187486 0.28439945 0.37546375 -0.025880152 -0.2669591 0.020207312
-0.049801193 -0.024784446 -0.1091986 0.19202328 -0.13108179 0.6968439 -0.020606607 0.03356331
0.19292694 -0.43833163 -0.3741042 0.0697431 -0.35906374 -0.23272263 -0.088869475 0.17804185
0.03093876 -0.09324081 0.26249465 -0.21129431 -0.2613705 -0.054125436 -0.14682458 -0.104587175
-0.40019438 0.11015655 0.18388307 0.20518465 0.4175121 -0.12727346 0.24085312 0.049441595
0.2046294 0.17745413 0.2394551 0.22513409 -0.45913345 0.15355422 0.010401975 -0.16942132
0.32949132 0.4503631 -0.019912468 -0.19847964 0.28058988 0.17330611 -0.055381354 0.5401819
0.14039834 -0.20111752 -0.3421567 -0.22342624 -0.41508138 -0.22937007 0.483805 -0.2735084
-0.14459144 -0.26718163 -0.10905726 0.49618787 -0.22558896 0.029965473 0.22873218 0.02271245
-0.061715677 0.29525447 -0.25732377 -0.31004846 0.26529276 0.25452486 -0.36617577 -0.10907449
0.19297151 0.41676053 -0.184483 -0.23816177 -0.26585713 -0.22587538 -0.32559338 0.23523904
-0.23446588 -0.39015588 0.12549397 0.532444 0.16015644 -0.13333528 -0.15345292 0.42794988
0.40911603 0.18408754 0.24919778 0.4962293 -0.5066402 -0.14378275 -0.33356762 -0.052584462
0.18495412 0.14395665 -0.1635401 0.19436342 0.064460315 0.53705764 -0.26662257 -0.26400828
-0.06488112 0.27162674 -0.2312973 0.28738934 0.077419184 -0.1805838 0.17397666 -0.3979457
-0.12598242 0.17659488 0.23959425 -0.31836617 0.029151252 0.05422005 0.16709869 -0.4488666
0.4830791 -0.046101578 -0.22162 0.29549238 0.19513136 0.15942965 0.40770814 -0.050884627
-0.4220504 0.409243 0.25911903 -0.24401137 0.18250974 -0.19814739 0.2011117 -0.104232974
-0.021275004 0.3315365 0.33939564 -0.27399755 -0.156814 0.0191786 0.22055322 -0.48352614
-0.16788945 0.51775056 -0.14281383 -0.057740804 0.5731739 0.6939499 -0.34630695 0.41080537
-0.48193577 0.22004704 0.50939894 -0.11144297 0.058947325 0.40055907 -0.18009552 -0.17713277
0.5440356 0.2222689 -0.03755486 -0.0995 -0.15067132 -0.071066454 -0.28082198 0.13430682
-0.37474096 0.04199823 -0.44200575 -0.1842755 -0.008788408 0.11548384 0.5656795 0.45334154
-0.3755839 0.5099507 -0.27237207 0.4730517 -0.4654019 0.16510141 0.2589007 0.34010807
-0.13423741 0.13891974 0.0036542714 -0.08959024 0.20148909 0.12965213 -0.31096137 -0.5284854
-0.19492255 -0.0006256905 0.042452503 0.15314153 0.16671517 0.221796 -0.35743988 0.04560141
0.13037707 -0.022887371 -0.019610686 0.38272426 -0.35843867 -0.0142461015 0.20271024 -0.22291237
-0.26195073 0.33955735 0.14491785 -0.26333022 0.07862786 0.090756156 0.44463643 -0.15623578
-0.3700478 0.4235852 -0.07084904 -0.03897144 -0.008418668 -0.12631933 -0.45665756 0.054492667
00000000: 7a4c 8f3c 6fc5 193e 7fd7 95be e479 f3bd
00000010: 144e 04be f310 383e d02e a4bc 97b5 4abc
00000020: 6ea7 2b3e e360 f3be f465 953e 2611 27be
00000030: 4774 2e3f f343 653e d58f bf3e 24f7 74be
00000040: 66b1 493e 2e4e 1b3d 517f e9bd fb7b 1ebd
00000050: c57a f3bd 1694 ee3e 99bb 233e f664 4abd
00000060: 0b52 99be aeea 983c bef5 803e ce9c 913e
00000070: c93c c03e 9d02 d4bc ddae 88be ce89 a53c
00000080: 56fc 4bbd c008 cbbc 84a3 dfbd c0a1 443e
00000090: 4e3a 06be 5d64 323f 30cf a8bc ae79 093d
000000a0: a48e 453e 016d e0be 968a bfbe 78d5 8e3d
000000b0: 34d7 b7be d74e 6ebe 3301 b6bd 9a50 363e
000000c0: 4873 fd3c 0af5 bebd b365 863e 895d 58be
000000d0: 5bd2 85be a2b2 5dbd 2f59 16be cd31 d6bd
000000e0: 47e6 ccbe c299 e13d d84b 3c3e ed1b 523e
000000f0: 25c4 d53e f953 02be 33a2 763e 4583 4a3d
00000100: 5f8a 513e 89b6 353e b833 753e 8d89 663e
00000110: 8a13 ebbe 513d 1d3e 0c6d 2a3c c87c 2dbe
00000120: 16b3 a83e fe95 e63e 791f a3bc 3f3e 4bbe
00000130: 7aa9 8f3e 2877 313e 8fd7 62bd 5c49 0a3f
00000140: 95c4 0f3e c0f1 4dbe 2a2f afbe d9c9 64be
00000150: 8c85 d4be fddf 6abe 4ab5 f73e 4b09 8cbe
00000160: c70f 14be 08cc 88be 6a59 dfbd 560c fe3e
00000170: cb00 67be 277a f53c c538 6a3e 760f ba3c
00000180: 94c9 7cbd 982b 973e f1bf 83be acbe 9ebe
00000190: 74d4 873e 1551 823e 647b bbbe 7262 dfbd
000001a0: 539a 453e a361 d53e 1de9 3cbe aee0 73be
000001b0: 6d1e 88be e04b 67be 2db4 a6be 81e2 703e
000001c0: d317 70be 83c2 c7be 7e81 003e 404e 083f
000001d0: 0d00 243e 0b89 08be c322 1dbe 3f1c db3e
000001e0: a877 d13e 7281 3c3e b42d 7f3e c411 fe3e
000001f0: 2cb3 01bf c93b 13be 60c9 aabe ce62 57bd
00000200: 9d64 3d3e 5f69 133e 0e77 27be 3407 473e
00000210: c503 843d 9c7c 093f c182 88be 182c 87be
00000220: 65e0 84bd a912 8b3e 33d9 6cbe b224 933e
00000230: f38d 9e3d f6ea 38be f026 323e 8abf cbbe
00000240: 8901 01be 4ad5 343e 3258 753e e400 a3be
00000250: 9bce ee3c d815 5e3d eb1b 2b3e d8d1 e5be
00000260: 2556 f73e 02d5 3cbd 5af0 62be c74a 973e
00000270: 84d0 473e 8741 233e 1fbf d03e 666c 50bd
00000280: fd16 d8be 4c88 d13e 40ab 843e 1ede 79be
00000290: d5e3 3a3e 26e7 4abe 3af0 4d3e 1978 d5bd
000002a0: eb48 aebc 27bf a93e 44c5 ad3e 6849 8cbe
000002b0: d993 20be 701c 9d3c b4d8 613e bd90 f7be
000002c0: 36eb 2bbe 4d8b 043f ca3d 12be 9f81 6cbd
000002d0: 86bb 123f b3a6 313f 254f b1be 1555 d23e
000002e0: 49c0 f6be 0354 613e f867 023f 363c e4bd
000002f0: c072 713d 1416 cd3e f66a 38be 4b62 35be
00000300: eb45 0b3f 759a 633e 20d3 19bd a8c6 cbbd
00000310: 9549 1abe 4a8b 91bd e6c7 8fbe ba87 093e
00000320: 0cde bfbe 5606 2c3d 944e e2be b7b2 3cbe
00000330: 41fd 0fbc cb82 ec3d 5fd0 103f 621c e83e
00000340: 884c c0be 218c 023f 5a74 8bbe d533 f23e
00000350: 2849 eebe 5810 293e a28e 843e a522 ae3e
00000360: 8875 09be fa40 0e3e 807c 6f3b 167b b7bd
00000370: 2853 4e3e 87c3 043e 5436 9fbe d24a 07bf
00000380: c799 47be 6105 24ba ade2 2d3d 22d1 1c3e
00000390: 62b7 2a3e 7e1e 633e 5c02 b7be 8bc8 3a3d
000003a0: 9181 053e 4c7e bbbc 97a6 a0bc 6ff4 c33e
000003b0: 4685 b7be 7b68 69bc 4693 4f3e 2443 64be
000003c0: 681e 86be 76da ad3e 5865 143e 38d3 86be
000003d0: a507 a13d 5dde b93d 63a7 e33e 46fc 1fbe
000003e0: e876 bdbe 29e0 d83e 4d19 91bd 84a0 1fbd
000003f0: 74ee 09bc db59 01be 05cf e9be b433 5f3d

fc2.weight f4 [256, 512]
0.090719946 -0.025874995 0.10338034 0.052961327 0.27130586 -0.12036574 -0.22793041 -0.008629363
0.14004445 -0.046303164 0.006242762 -0.20734067 -0.13241382 0.08395405 -0.11354785 0.15247253
-0.018969549 0.061573215 0.1001301 0.019803705 -0.10145855 0.20685478 -0.031991158 -0.0066265035
-0.012216778 0.22896202 -0.2482698 -0.076327115 -0.13116084 -0.14563806 0.18340096 0.022771915
0.11843768 0.12532324 -0.12096405 -0.15745518 0.08487002 -0.13369341 -0.152882 -0.15567099
-0.23489803 -0.12374919 0.043795425 -0.17058727 0.16681792 0.026807124 0.111416385 -0.17542778
-0.08082149 0.05334533 -0.14975834 0.004788621 0.100817844 -0.06818671 -0.03926774 0.1343362
0.09182274 0.16558303 -0.21536501 0.14653784 -0.13891482 -0.14353603 -0.044320907 -0.079120666
0.0035424603 -0.19708577 0.020330233 -0.0909455 -0.03603001 0.015482797 -0.050386924 -0.022903692
-0.0046143336 0.05613127 0.062191475 0.024468452 -0.12413727 -0.10616115 0.011318857 0.0006943628
0.03305754 -0.004449361 -0.064714506 0.14568439 0.032544192 -0.012432646 -0.17001304 0.23826885
0.057537388 0.21480256 0.06964626 -0.12001312 0.15839374 0.032978058 -0.10983717 -0.13896137
-0.09063066 -0.011152872 0.0072546257 0.07718656 0.08015206 -0.13482825 0.067358054 0.020216359
-0.07235592 -0.13201723 0.07050188 0.12199277 0.10042415 -0.033670284 0.084255666 -0.042196345
-0.012346624 0.04832362 0.15530509 -0.07724539 0.015991505 0.09203684 -0.042714354 -0.18606809
0.0150587745 0.10248227 -0.1066478 -0.014341174 0.1668561 0.12985861 0.0150222685 0.1983322
0.16111284 -0.031072572 -0.14607818 -0.16065729 0.08814222 0.03561137 0.14431415 -0.013134892
0.118528455 -0.030341716 0.13376942 -0.027404351 0.08992805 0.14676203 -0.17236727 0.11731544
-0.10518777 -0.16978762 0.024984121 -0.057681933 0.022855675 -0.12433375 0.08523764 0.17053701
0.02204418 -0.11921055 -0.10072692 0.08012027 -0.018527992 0.11333269 -0.19184808 -0.034575056
0.07385576 -0.0981415 -0.08704154 -0.08991476 -0.060081847 0.21144214 -0.014900018 0.042096015
0.14472441 -0.075367235 -0.027975485 -0.15830706 -0.0707829 -0.057138626 -0.13413817 0.055242416
-0.08028862 0.10861812 0.1793893 0.00983802 -0.19526185 -0.16714859 -0.125426 0.029406387
0.044845138 -0.056170713 0.019332482 -0.07366122 -0.08352205 0.041554134 0.027759278 0.17099456
-0.057183415 0.096996576 0.06293547 -0.07688263 0.19296145 -0.051467452 0.060922753 -0.15424746
-0.05658311 0.13692822 0.111495435 0.039128058 -0.08859766 -0.0070285955 0.001819744 -0.019381681
-0.010672261 -0.1533185 0.114476144 -0.183074 0.11133206 -0.06558694 -0.03077145 -0.104409605
-0.039555088 -0.08536533 -0.09769943 -0.049584907 0.11285751 -0.021190286 -0.0046830997 0.23953578
0.03549694 0.1731782 0.08432353 -0.09187406 -0.11477067 -0.010609055 0.12398359 -0.15703401
-0.0084392065 -0.07046265 0.00803925 -0.01965917 0.02836679 -0.064052515 0.020279277 0.06009906
0.07273151 0.07244572 -0.16954698 0.1072631 0.06294692 -0.06492838 -0.09464411 0.10835471
0.09990685 -0.13814743 -0.04725909 -0.12684178 0.054491814 -0.118406974 0.12674105 0.11873202
00000000: 61cb b93d ccf7 d3bc 12b9 d33d faed 583d
00000010: 9ae8 8a3e 5082 f6bd 9766 69be 2c62 0dbc
00000020: d067 0f3e 63a8 3dbd 1590 cc3b 1d51 54be
00000030: 7d97 07be 1af0 ab3d c68b e8bd c221 1c3e
00000040: 0766 9bbc 3234 7c3d 0311 cd3d 613b a23c
00000050: 80c9 cfbd bdd1 533e 2909 03bd 2423 d9bb
00000060: e128 48bc 0575 6a3e 703a 7ebe 6451 9cbd
00000070: 074f 06be 2522 15be 76cd 3b3e 2b8c ba3c
00000080: 748f f23d bc54 003e 00bc f7bd ee3b 21be
00000090: 55d0 ad3d ede6 08be 198d 1cbe 3768 1fbe
000000a0: 1c89 70be 3770 fdbd d562 333d 6eae 2ebe
000000b0: 51d2 2a3e 9d9a db3c 462e e43d 57a3 33be
000000c0: bd85 a5bd a280 5a3d 405a 19be dde9 9c3b
000000d0: 9679 ce3d 79a5 8bbd 36d7 20bd 6e8f 093e
000000e0: 900d bc3d 998e 293e a588 5cbe 040e 163e
000000f0: b03f 0ebe 1cfb 12be d789 35bd 040a a2bd
00000100: 9f28 683b dad0 49be 978b a63c a241 babd
00000110: 3494 13bd 8fab 7d3c 8562 4ebd 86a0 bbbc
00000120: d633 97bb e7e9 653d 7dbc 7e3d 1072 c83c
00000130: ae3b febd 046b d9bd ba72 393c e605 363a
00000140: 5867 073d f2cb 91bb 0a89 84bd 4a2e 153e
00000150: 0f4d 053d 4cb2 4bbc e617 2ebe c0fc 733e
00000160: 53ac 6b3d 34f5 5b3e b3a2 8e3d 70c9 f5bd
00000170: f831 223e 0014 073d 4ff2 e0bd e44b 0ebe
00000180: 919c b9bd 89ba 36bc 36b8 ed3b fd13 9e3d
00000190: c326 a43d 6b10 0abe 05f3 893d c79c a53c
000001a0: 572f 94bd 862f 07be 4a63 903d 58d7 f93d
000001b0: 2dab cd3d dae9 09bd 3c8e ac3d 13d6 2cbd
000001c0: 7f49 4abc fdee 453d 4c08 1f3e d532 9ebd
000001d0: 9e00 833c d07d bc3d 3ff5 2ebd a288 3ebe
000001e0: 14b9 763c 39e2 d13d 296a dabd 3ef7 6abc
000001f0: 53dc 2a3e a8f9 043e f61f 763c 9917 4b3e
00000200: c4fa 243e e88b febc 8595 15be 5883 24be
00000210: e983 b43d 3add 113d 17c7 133e bb33 57bc
00000220: 0cbf f23d 318f f8bc dafa 083e 177f e0bc
00000230: 332c b83d c948 163e 0c81 30be 1443 f03d
00000240: b06c d7bd cedc 2dbe 80ab cc3c e443 6cbd
00000250: d33b bb3c b1a2 febd 1291 ae3d 41a1 2e3e
00000260: ff95 b43c a924 f4bd ea49 cebd 1916 a43d
00000270: 04c8 97bc f81a e83d d373 44be 939e 0dbd
00000280: b041 973d 69fe c8bd d642 b2bd 3b25 b8bd
00000290: 6218 76bd 4a84 583e 351f 74bc df6c 2c3d
000002a0: a332 143e 235a 9abd d82c e5bc 3f1b 22be
000002b0: a0f6 90bd 310a 6abd 845b 09be df45 623d
000002c0: 5c6e a4bd 2d73 de3d d4b1 373e a62f 213c
000002d0: b9f2 47be 0029 2bbe ac6f 00be aae5 f03c
000002e0: 89af 373d 4313 66bd 275f 9e3c b2db 96bd
000002f0: 9c0d abbd ab34 2a3d 6d67 e33c 3319 2f3e
00000300: 2839 6abd 24a6 c63d 50e4 803d a474 9dbd
00000310: b097 453e 89cf 52bd 238a 793d 0cf3 1dbe
00000320: b1c3 67bd e936 0c3e b857 e43d be44 203d
00000330: b172 b5bd 2250 e6bb 7a84 ee3a 55c6 9ebc
00000340: b5da 2ebc 86ff 1cbe 7872 ea3d c077 3bbe
00000350: 1002 e43d 7252 86bd 6814 fcbc b4d4 d5bd
00000360: 8404 22bd 05d4 aebd a416 c8bd 8b19 4bbd
00000370: d721 e73d 4097 adbc b074 99bb de48 753e
00000380: 3d65 113d a055 313e d1b1 ac3d 7828 bcbd
00000390: e30c ebbd 9ad1 2dbc 1ceb fd3d 86cd 20be
000003a0: 9944 0abc b94e 90bd 0fb7 033c 450c a1bc
000003b0: 7861 e83c f72d 83bd ba20 a63c 6f2a 763d
000003c0: 42f4 943d 6c5e 943d b99d 2dbe c2ac db3d
000003d0: 51ea 803d 2cf9 84bd c5d4 c1bd 13e9 dd3d
000003e0: f69b cc3d 8576 0dbe bf92 41bd d0e2 01be
000003f0: cf32 5f3d 5b7f f2bd 68c8 013e c629 f33d

fc2.bias f4 [256]
-0.16528045 -0.013827386 -0.042486135 -0.20274615 -0.08619258 0.05038991 -0.15364179 -0.19153562
-0.10596294 -0.19525944 -0.11825101 -0.17773956 -0.16594361 -0.08806309 -0.12197872 0.057589855
-0.041065942 -0.15894082 -0.12519954 -0.12729837 -0.15101098 -0.12861341 -0.10166047 -0.09025057
-0.15066183 -0.080862194 0.0708233 -0.10276913 -0.07332677 -0.1020827 -0.13979481 -0.17448877
-0.1385516 -0.115057826 0.10787855 -0.04909731 -0.06774789 -0.0869965 -0.012391152 -0.13785361
-0.18392065 -0.1583069 -0.20458922 -0.025419794 -0.16359116 -0.13756813 -0.091529705 -0.20812471
-0.20618054 -0.05161124 -0.16195635 -0.11586081 -0.108610086 0.06369384 -0.050075665 -0.15904756
-0.14313793 -0.07798929 -0.19739708 0.0338305 -0.15549505 -0.0067199026 -0.12558149 -0.1747469
-0.20548995 -0.15644206 -0.14474025 -0.15594691 -0.19072549 -0.021504592 -0.05995975 0.14311776
-0.16407545 -0.10443773 -0.03865055 -0.09309798 -0.045026172 -0.14993182 -0.102839544 -0.20199455
-0.18414105 -0.11640602 -0.1594562 0.03530149 -0.08796363 0.04239745 -0.12725194 -0.1531618
0.06391295 -0.1495432 -0.21360525 -0.15828007 -0.17211819 -0.1015319 -0.1528403 -0.07847019
-0.12937915 -0.18190975 -0.06893471 -0.008678736 -0.16732246 -0.15046503 -0.1335684 0.03517605
-0.15497085 -0.12498725 -0.12287983 -0.1941367 -0.13020447 -0.24035668 -0.09732348 -0.10751594
-0.021215174 -0.16322792 -0.035743266 -0.0046639023 -0.14862631 -0.067798644 -0.07822698 -0.05318464
-0.052208498 -0.13047159 -0.1700633 -0.13817139 -0.079177625 -0.15915667 -0.10381334 -0.12206258
-0.14041318 -0.15354148 -0.16664563 -0.1933606 -0.11959943 0.050851855 -0.118887335 -0.0517937
-0.16087157 -0.19504766 -0.14268582 -0.07639203 -0.09120537 -0.108612336 0.08566481 0.18009378
-0.13365082 -0.120805405 -0.13020028 -0.13931967 -0.108204864 -0.15121642 -0.074812435 0.07555003
-0.15103786 -0.17574991 -0.118958235 -0.1000219 -0.025349827 0.03656838 0.09201658 -0.14840733
-0.16486035 -0.202913 -0.12985243 -0.10540438 -0.007195292 -0.0952904 -0.08024773 -0.18636778
-0.081059135 -0.08807097 -0.128289 -0.113544285 -0.11417441 -0.14300482 -0.16036004 -0.1740519
-0.13622235 -0.16537814 -0.048833035 -0.15239163 0.116146974 -0.17134573 -0.14775078 -0.1345599
-0.10991779 -0.14982888 -0.035195075 -0.1936776 -0.073080726 -0.10480127 0.028328732 -0.15616256
-0.2001718 -0.09898446 -0.15127835 -0.10470663 0.0018259217 -0.09412228 -0.18856624 -0.16045885
-0.049532477 -0.14488351 -0.11619839 -0.07839955 0.09287876 0.015130533 -0.1824251 -0.16077325
-0.19207767 -0.11931561 -0.14601387 -0.16875671 -0.13178414 -0.12568529 -0.14150329 -0.16437067
-0.029504348 -0.13224685 -0.14273143 0.057550997 2.1208194e-05 -0.16991875 -0.09935771 -0.1801805
-0.1430468 -0.12767668 -0.08716686 -0.14039107 -0.111819156 -0.11302621 -0.14691517 0.10158244
-0.1532056 -0.10509996 -0.0031717862 -0.034284607 -0.15805124 -0.10727305 0.019264832 -0.11969132
-0.152583 -0.17544402 0.044557348 -0.20510568 -0.07553666 -0.10599579 -0.009869723 -0.010971133
0.11641238 -0.13146535 -0.12397854 -0.15778592 -0.13632476 -0.09691804 -0.11541554 0.05434087
00000000: 473f 29be 438c 62bc f105 2ebd b09c 4fbe
00000010: bc85 b0bd a665 4e3d 4654 1dbe ea21 44be
00000020: 1903 d9bd 17f2 47be 962d f2bd 5c01 36be
00000030: 1fed 29be 6c5a b4bd fbcf f9bd 57e3 6b3d
00000040: c334 28bd 62c1 22be 4f34 00be 815a 02be
00000050: 9fa2 1abe 3cb3 03be 5d33 d0bd 4ad5 b8bd
00000060: 1847 1abe 149b a5bd ce0b 913d 9f78 d2bd
00000070: 582c 96bd bc10 d1bd 5f26 0fbe 2fad 32be
00000080: 78e0 0dbe 70a3 ebbd 6eef dc3d 431a 49bd
00000090: 68bf 8abd 392b b2bd 4204 4bbc 7f29 0dbe
000000a0: b255 3cbe 341b 22be d67f 51be 2c3d d0bc
000000b0: 7184 27be a9de 0cbe ed73 bbbd a51e 55be
000000c0: fe20 53be 4f66 53bd e3d7 25be 6f48 edbd
000000d0: f76e debd ea71 823d 241c 4dbd 5ddd 22be
000000e0: c092 12be d9b8 9fbd 7622 4abe da91 0a3d
000000f0: 183a 1fbe a132 dcbb 6f98 00be daf0 32be
00000100: f56b 52be 5932 20be ca36 14be 8cb0 1fbe
00000110: 8b4d 43be 662a b0bc 5b98 75bd 768d 123e
00000120: 6503 28be 73e3 d5bd 0a50 1ebd 27aa bebd
00000130: 5d6d 38bd ba87 19be 8a9d d2bd a9d7 4ebe
00000140: 798f 3cbe 4866 eebd 7c48 23be 4c98 103d
00000150: 4726 b4bd f3a8 2d3d 554e 02be 72d6 1cbe
00000160: cbe4 823d da21 19be 56bb 5abe 2c14 22be
00000170: c03f 30be f5ef cfbd 2b82 1cbe fbb4 a0bd
00000180: f87b 04be 8d46 3abe a42d 8dbd 4231 0ebc
00000190: 9456 2bbe 8113 1abe 28c6 08be c314 103d
000001a0: aeb0 1ebe 51f9 ffbd 6ca8 fbbd c5cb 46be
000001b0: 5254 05be 1020 76be 8851 c7bd 5131 dcbd
000001c0: 72cb adbc 3825 27be 8867 12bd a6d3 98bb
000001d0: 7f31 18be 04da 8abd 7835 a0bd 23d8 59bd
000001e0: 94d8 55bd 589a 05be 1325 2ebe cd7c 0dbe
000001f0: e127 a2bd f7f9 22be 179c d4bd f2fb f9bd
00000200: 79c8 0fbe fa39 1dbe 27a5 2abe 5200 46be
00000210: 8cf0 f4bd 094a 503d 347b f3bd a125 54bd
00000220: 84bb 24be 93ba 47be 3b1c 12be 6d73 9cbd
00000230: e2c9 babd 2570 debd 0871 af3d 816a 383e
00000240: c3db 08be d368 f7bd 3953 05be d1a9 0ebe
00000250: 839a ddbd 7ad8 1abe 4337 99bd f9b9 9a3d
00000260: aba9 1abe c9f7 33be 60a0 f3bd 48d8 ccbd
00000270: 71aa cfbc bac8 153d 3073 bc3d 17f8 17be
00000280: 27d1 28be 6dc8 4fbe 09f8 04be 40de d7bd
00000290: 7cc6 ebbb 9d27 c3bd ec58 a4bd 32d7 3ebe
000002a0: 5502 a6bd 8d5e b4bd 315e 03be e889 e8bd
000002b0: 46d4 e9bd db6f 12be 6c35 24be a93a 32be
000002c0: df7d 0bbe e358 29be 2605 48bd 8d0c 1cbe
000002d0: 77de ed3d 4175 2fbe fb4b 17be 12ca 09be
000002e0: 941c e1bd be6c 19be b628 10bd 6c53 46be
000002f0: 59ab 95bd 0ca2 d6bd a811 e83c 14e9 1fbe
00000300: d6f9 4cbe 5db8 cabd b6e8 1abe 6e70 d6bd
00000310: c453 ef3a 2fc3 c0bd 8217 41be 534f 24be
00000320: 91e2 4abd 585c 14be 6cf9 edbd f18f a0bd
00000330: 3837 be3d 0ee6 773c a5cd 3abe bea1 24be
00000340: 02b0 44be be5b f4bd a984 15be 8fce 2cbe
00000350: 6cf2 06be a5b3 00be 3de6 10be c950 28be
00000360: 1ab3 f1bc b86b 07be 3028 12be 98ba 6b3d
00000370: 40e8 b137 2eff 2dbe 0e7c cbbd 3d81 38be
00000380: dc7a 12be adbd 02be 8a84 b2bd adc2 0fbe
00000390: 7101 e5bd 497a e7bd ee70 16be 740a d03d
000003a0: eee1 1cbe a63e d7bd bedd 4fbb 046e 0cbd
000003b0: 2fd8 21be f9b1 dbbd 48d1 9d3c b920 f5bd
000003c0: b83e 1cbe 99a7 33be c481 363d 3907 52be
000003d0: f7b2 9abd 5214 d9bd 9eb4 21bc 44c0 33bc
000003e0: 9d69 ee3d da9e 06be 76e8 fdbd a292 21be
000003f0: b898 0bbe f77c c6bd fc5e ecbd 8894 5e3d

fc3.weight f4 [100, 256]
-0.05845051 -0.016523104 -0.028453406 -0.0058035916 0.03931625 -0.058368158 -0.053489048 -0.046443235
0.031827856 0.048062965 -0.02086561 -0.05408401 0.037367765 -0.058049213 -0.0279572 -0.04512285
-0.019294776 0.04653848 -0.03549512 0.0395557 0.010728708 -0.009698644 0.029643545 -0.022674402
-0.034199517 -0.031964384 -0.050185442 -0.029524773 -0.0536927 -0.027859848 -0.050230417 -0.082697846
-0.031148754 -0.025836293 -0.03833122 0.021771533 -0.024741983 0.047440104 0.02614207 -0.0044079903
0.029174794 -0.063067675 0.03714819 -0.06903443 0.02081378 -0.053310815 0.016816653 -0.04770425
-0.03265419 -0.0070743235 0.030708674 -0.013317348 0.025422212 -0.03823953 0.032346755 -0.018905954
-0.043245155 -0.055990964 -0.030179296 0.0050756894 -0.05260388 -0.040845368 0.054075602 0.053622276
-0.030604523 -0.04708214 -0.041421726 -0.03286298 0.024834398 -0.028966362 -0.0010805225 0.037489753
0.0224055 -0.009208515 -0.03121322 -0.00742031 -0.038708415 0.024202285 0.04530494 -0.061675437
-0.06589107 0.042185318 -0.020808373 0.0459722 0.037592515 0.018973919 -0.040249866 -0.0624251
-0.026436465 -0.009194081 0.04719573 0.0027000646 -0.016891804 0.045890298 -0.007150176 -0.050311204
-0.046307877 -0.015815761 -0.006578031 -0.0017937243 -0.035728484 -0.0053977463 -0.05271182 -0.05830317
-0.037687805 -0.03873106 -0.038784187 -0.041901883 0.030570585 -0.018748276 -0.0035567961 0.037184816
0.039600924 0.03135751 0.038207088 -0.005191522 -0.084358536 0.00479601 -0.046967722 0.034875695
0.012487819 -0.029597513 0.026013032 -0.048822384 0.004297151 -0.033578355 -0.047084145 -0.045627713
0.010367559 -0.017819507 0.01334095 0.03587755 -0.030417005 0.0036108536 0.0019804125 -0.016353512
0.02704113 -0.051045094 -0.031577364 -0.039026212 -0.08081625 -0.025670636 0.03137541 -0.017843528
-0.060601 -0.023273626 0.017462566 -0.05500776 -0.025893612 -0.051553056 -0.0028792124 -0.023421697
-0.054825682 -0.015966084 -0.0310097 -0.03181147 -0.047235142 -0.015806174 0.017864602 0.040682826
0.037427615 -0.022921594 -0.0038637468 -0.06567197 0.0036772182 0.008051029 -0.0041053356 0.017573273
0.0074357237 -0.059155397 0.04075248 0.012004736 -0.03787921 -0.031166662 0.005580582 -0.039224662
0.019087024 0.025116732 -0.057313975 -0.028067825 0.014809165 -0.007863175 -0.065037094 -0.0017583724
0.016370606 0.019869136 0.03015644 0.013348161 -0.04681343 -0.054414377 -0.05377538 0.0015652396
-0.031213319 -0.058162026 0.008557438 0.02979685 0.010975436 0.019501703 -0.05094716 -0.031542227
-0.06484946 0.05222037 -0.03174582 -0.03150962 0.04513127 0.0046086255 -0.0014172546 -0.060139574
0.039503347 0.009304286 0.018927714 -0.021774407 0.04614744 0.047277093 -0.03363489 0.006739008
-0.052403763 -0.00094835495 -0.025849577 0.035027895 -0.08003319 -0.030140677 0.048815265 -0.010978556
-0.013089482 -0.031080762 0.013872537 0.018904049 0.009229065 0.049606938 -0.017158601 -0.0015505635
-0.062424377 -0.003970757 0.011738684 -0.033879902 -0.016891055 -0.07020796 0.015244231 -0.05245503
0.016246624 -0.011264157 -0.025040865 0.020725984 -0.042286515 0.009145437 0.02261454 -0.017616529
-0.065444864 -0.046307027 -0.017451638 -0.062478222 -0.062030636 -0.046637364 0.05414773 -0.006071687
00000000: cd69 6fbd 765b 87bc 1e17 e9bc 0e2c bebb
00000010: 130a 213d 7313 6fbd 5517 5bbd 433b 3ebd
00000020: ed5d 023d acdd 443d 5bee aabc 3287 5dbd
00000030: f10e 193d 03c5 6dbd 7f06 e5bc bdd2 38bd
00000040: 1410 9ebc 229f 3e3d 5563 11bd 2805 223d
00000050: 76c7 2f3c 10e7 1ebc 05d7 f23c abbf b9bc
00000060: cb14 0cbd 16ed 02bd 408f 4dbd f0dd f1bc
00000070: e0ec 5bbd 563a e4bc 69be 4dbd 7d5d a9bd
00000080: ac2b ffbc a2a6 d3bc 3301 1dbd 375a b23c
00000090: b3af cabc 8e50 423d e527 d63c e770 90bb
000000a0: faff ee3c a029 81bd b328 183d ec61 8dbd
000000b0: a981 aa3c 715c 5abd 14c3 893c 8865 43bd
000000c0: 66c0 05bd bacf e7bb c290 fb3c 0231 5abc
000000d0: 3e42 d03c 0ea1 1cbd 087e 043d a9e0 9abc
000000e0: d521 31bd c856 65bd 923a f7bc f851 a63b
000000f0: 2b77 57bd 794d 27bd 617e 5d3d 08a3 5b3d
00000100: 56b6 fabc 34d9 40bd d4a9 29bd 559b 06bd
00000110: 8271 cb3c dd4a edbc 52a0 8dba db8e 193d
00000120: bd8b b73c 50df 16bc deb2 ffbc 1226 f3bb
00000130: b78c 1ebd df43 c63c ac91 393d 629f 7cbd
00000140: e6f1 86bd 83ca 2c3d 5276 aabc 584d 3c3d
00000150: 9cfa 193d 316f 9b3c 0bdd 24bd 76b1 7fbd
00000160: 4991 d8bc c5a2 16bc 4f50 413d 91f3 303b
00000170: ae60 8abc 77f7 3b3d 064c eabb 1f13 4ebd
00000180: 54ad 3dbd 0e90 81bc 868c d7bb 661b ebba
00000190: 0858 12bd 94df b0bb 59e8 57bd 4ecf 6ebd
000001a0: 875e 1abd 76a4 1ebd 2bdc 1ebd 4fa1 2bbd
000001b0: 2a6f fa3c fc95 99bc 2319 69bb 1b4f 183d
000001c0: 9434 223d bb70 003d 097f 1c3d a51d aabb
000001d0: 2bc4 acbd d927 9d3b 3a61 40bd d1d9 0e3d
000001e0: b699 4c3c 7c76 f2bc 4819 d53c fbf9 47bd
000001f0: 1ecf 8c3b 7589 09bd 4edb 40bd 20e4 3abd
00000200: b2dc 293c 37fa 91bc 0094 5a3c 56f4 123d
00000210: 152d f9bc 12a4 6c3b cfc9 013b cdf7 85bc
00000220: 5c85 dd3c a914 51bd 4457 01bd f3d9 1fbd
00000230: fd82 a5bd 3a4b d2bc 8083 003d 972c 92bc
00000240: c138 78bd 55a8 bebc a80d 8f3c d14f 61bd
00000250: d71e d4bc 4c29 53bd 2bb1 3cbb dcde bfbc
00000260: e590 60bd 4ecb 82bc 0e08 febc be4c 02bd
00000270: a379 41bd f37b 81bc c958 923c 09a3 263d
00000280: b34d 193d 11c6 bbbc ea36 7dbb 077f 86bd
00000290: 7cfd 703b 77e8 033c 0d86 86bb d3f5 8f3c
000002a0: 5fa7 f33b ee4c 72bd 13ec 263d 83af 443c
000002b0: 3b27 1bbd 3a51 ffbc 51dd b63b 0aaa 20bd
000002c0: 645c 9c3c 9bc1 cd3c 0fc2 6abd 7fee e5bc
000002d0: 24a2 723c 8cd4 00bc 2b32 85bd 3079 e6ba
000002e0: a61b 863c 99c4 a23c a30a f73c 3fb2 5a3c
000002f0: 70bf 3fbd 9ce1 5ebd 9343 5cbd ba28 cd3a
00000300: 13b3 ffbc 4e3b 6ebd 7f34 0c3c 8618 f43c
00000310: 51d2 333c 09c2 9f3c f8ad 50bd 6c32 01bd
00000320: cbcf 84bd 07e5 553d e807 02bd 3b10 01bd
00000330: 91db 383d f403 973b 2cc3 b9ba ea54 76bd
00000340: 43ce 213d 0171 183c 4b0e 9b3c 3e60 b2bc
00000350: 1905 3d3d a0a5 413d bdc4 09bd e5d2 dc3b
00000360: 54a5 56bd 069b 78ba 7ec2 d3bc 6979 0f3d
00000370: 71e8 a3bd 95e9 f6bc 84f2 473d 67df 33bc
00000380: 4475 56bc 159d febc a349 633c aadc 9a3c
00000390: 8135 173c a530 4b3d 3290 8cbc 473c cbba
000003a0: b4b0 7fbd 201d 82bb 9c53 403c a7c5 0abd
000003b0: 1c5f 8abc 31c9 8fbd f0c2 793c 16db 56bd
000003c0: a417 853c 4c8d 38bc 8022 cdbc 8ac9 a93c
000003d0: a034 2dbd bed6 153c 2142 b93c 8a50 90bc
000003e0: f507 86bd 70ac 3dbd bdf6 8ebc 2ae9 7fbd
000003f0: d613 7ebd d206 3fbd 03ca 5d3d 01f5 c6bb

fc3.bias f4 [100]
-0.053272597 0.010811463 -0.027522156 -0.07080813 0.0045030885 0.03326911 0.017372968 0.024939148
0.004103914 -0.007636336 0.028336592 -0.020622382 -0.01724386 -0.093113214 0.014528537 -0.037834752
0.03751108 -0.04881543 0.021149257 -0.0005143915 0.017701387 0.057792004 0.093155324 0.0063205822
-0.02523628 -0.08802642 -0.048525706 0.01783156 -0.065043055 0.0018277834 -0.09028217 -0.016052565
0.027753154 0.019286104 0.005796267 0.019078331 -0.01747865 0.008354867 -0.06420319 0.06557875
-0.08494461 0.024697065 0.072164096 0.018524019 -0.054630637 0.034712154 -0.044540517 -0.07699604
-0.0069935243 -0.0073260437 0.032089017 -0.00472548 0.024443666 -0.011662523 -0.02123372 0.096526705
0.019714562 -0.060167287 -0.034305967 -0.06326442 -0.059799585 -0.021464722 0.03531318 -0.06355779
-0.04863314 -0.015764024 0.014568236 0.00094836636 0.030686222 -0.00573486 -0.05095117 -0.042693883
0.019539706 0.021329807 -0.019010907 -0.06453979 -0.014779206 -0.08394116 -0.026194813 -0.06082114
-0.061159436 -0.056380413 0.035487793 0.0059345462 -0.08365734 -0.07936945 0.013742795 -0.04582195
0.040022288 -0.031103557 -0.029568428 -0.017792933 -0.000902602 0.010316955 -0.03672658 -0.075465664
-0.0784178 0.024600318 0.01627795 0.012477162
00000000: 5e34 5abd 9022 313c 2576 e1bc da03 91bd
00000010: a58e 933b 3145 083d c151 8e3c 2f4d cc3c
00000020: 207a 863b 3b3a fabb 2422 e83c 45f0 a8bc
00000030: ff42 8dbc 24b2 bebd 1a09 6e3c 9df8 1abd
00000040: 38a5 193d b0f2 47bd 3541 ad3c 3bd8 06ba
00000050: 8002 913c 4fb7 6c3d 38c8 be3d e31c cf3b
00000060: 51bc cebc 3247 b4bd e4c2 46bd 7e13 923c
00000070: 4b35 85bd 3c92 ef3a dce5 b8bd ab80 83bc
00000080: 955a e33c e4fd 9d3c 9dee bd3b 294a 9c3c
00000090: 632f 8fbc dae2 083c f67c 83bd 274e 863d
000000a0: 71f7 adbd 8051 ca3c c5ca 933d afbf 973c
000000b0: 60c4 5fbd 552e 0e3d 1e70 36bd 1ab0 9dbd
000000c0: ef29 e5bb 4f0f f0bb c66f 033d 33d8 9abb
000000d0: 153e c83c 2b14 3fbc 57f2 adbc cbaf c53d
000000e0: 6f80 a13c f971 76bd 6a84 0cbd c790 81bd
000000f0: 69f0 74bd c9d6 afbc 8ea4 103d 962a 82bd
00000100: 8b33 47bd 8e23 81bc 9caf 6e3c ca9b 783a
00000110: ac61 fb3c 7eeb bbbb 2db2 50bd c8df 2ebd
00000120: bc11 a03c d9bb ae3c c3bc 9bbc 702d 84bd
00000130: 7c24 72bc 58e9 abbd 8196 d6bc 961f 79bd
00000140: 5182 7abd 26ef 66bd a65b 113d 9576 c23b
00000150: 8a54 abbd 738c a2bd 7629 613c ccaf 3bbd
00000160: 69ee 233d e3cc febc 7d39 f2bc 7cc2 91bc
00000170: 989c 6cba 7208 293c 9c6e 16bd be8d 9abd
00000180: 8399 a0bd 9b86 c93c 5659 853c 036d 4c3c

fc4.weight f4 [14, 100]
0.01699747 -0.0537049 -0.04822028 0.036631823 0.060404148 -0.01767918 0.036230452 0.0117885005
0.04530553 0.004045621 -0.0024400738 -0.018617 -0.00741955 -0.016180465 -0.031668615 -0.067890875
0.058113385 0.03765075 -0.010886392 0.012995545 -0.08364809 0.28028747 -0.00027218112 0.029778238
-0.13347356 -0.074575126 -0.061181832 -0.057039645 0.026278716 -0.014281594 0.044578355 0.008327505
-0.0787696 -0.004274622 0.039516065 -0.04513676 -0.04588913 0.0040834663 -0.01266324 0.035144236
-0.0043462156 0.00432078 -0.02961362 0.06601413 0.060486343 0.0007851525 0.004235641 0.016058117
0.029729342 -0.0715364 0.018860443 0.042126786 0.01867199 0.015718674 0.087531194 0.055560593
0.04281519 0.06672917 -0.047568236 -0.013334336 -0.01915263 -0.05939992 0.0048267017 0.015795784
0.00084702054 0.0333244 -0.0026348105 -0.02942336 -0.053205695 -0.058375183 -0.031382818 0.0062084575
0.03652202 0.021261645 -0.05402303 -0.008026891 -0.07022212 0.08236408 -0.03568952 -0.026252544
0.047007058 0.13106453 0.04655067 0.011639535 -0.039342016 0.086220846 4.0032344e-05 -0.08747743
0.059128415 0.048469525 -0.06622356 0.043734632 -0.0017624391 0.069458656 -0.036485713 0.026754271
0.009112528 -0.019728674 -0.032442283 0.042132262 -0.0045167957 -0.016166933 -0.07772612 0.022401448
0.11827497 0.0012649756 0.07404603 0.0311758 0.023567919 0.0005036929 0.0003665156 0.008474032
0.004325805 0.02791041 0.0040561086 0.026464634 -0.10382882 -0.019442331 0.031838357 0.015808288
-0.09295816 0.17279619 0.025947105 -0.0030312417 0.05206565 0.012935924 -0.057118416 0.05806136
0.0060589826 -0.03712045 0.06804137 0.0009793112 -0.008107799 0.08011919 0.0471374 -0.033495594
0.038305264 0.029949278 0.061269596 0.02356222 0.051333692 0.062102016 0.0035344334 0.0045496705
0.036793914 -0.009109277 0.02256685 -0.04017592 -0.09087713 -0.0305426 0.019340444 0.012490567
0.02255105 0.042337276 0.11746652 0.010202072 -0.0012368169 0.08163468 -0.017095389 -0.046624616
-0.0335806 -0.002358708 -0.009967425 0.034567796 0.060694613 -0.023714859 -0.009708301 -0.027987804
-0.03369557 -0.014408121 -0.028453775 0.0017663168 -0.02604215 0.0113361245 -0.057275664 -0.011441979
-0.038794935 -0.017841697 -0.07510296 -0.049923908 -0.031660866 0.071156345 0.040662628 -0.0013867088
0.079996265 -0.018764062 -0.0009735475 -0.06949734 0.088917315 0.0824496 -0.0293841 -0.040280577
0.04448987 0.02127728 -0.020888377 -0.006324811 0.004956249 0.021539105 -0.0111101 0.083818115
0.041034378 -0.03677294 -0.101855226 0.0130621875 0.084034376 -0.0068499614 -0.07273604 -0.07020399
0.023056747 -0.0068676057 -0.0058864974 -0.025489049 -0.004018963 -0.07197154 0.026604049 0.070440196
-0.058433536 -0.0029812662 -0.06724902 -0.011520425 0.030092845 0.23219608 0.014039828 0.033653587
-0.089949794 -0.069217324 -0.005353916 0.027794624 0.017093016 -0.008730056 0.042267434 -0.004587426
0.07558803 0.0389013 0.027701577 -0.07217735 0.051539816 -0.056769893 -0.02089183 0.007579631
0.052291382 0.030442212 -0.017769298 0.021118198 0.06293678 -0.012681689 -0.057281557 -0.07168578
-0.07991119 -0.024135925 0.014277317 0.04446804 0.012952012 0.089578144 0.0018859216 0.03359765
00000000: 473e 8b3c abf9 5bbd a182 45bd 400b 163d
00000010: 576a 773d edd3 90bc 6266 143d 8e24 413c
00000020: 4b92 393d 2191 843b a5e9 1fbb ae82 98bc
00000030: b21f f3bb e58c 84bc f3b6 01bd 5f0a 8bbd
00000040: 4d08 6e3d ac37 1a3d d65c 32bc 44eb 543c
00000050: b14f abbd d781 8f3e 88b3 8eb9 7ef1 f33c
00000060: 4bad 08be d8ba 98bd cd99 7abd 67a2 69bd
00000070: 7646 d73c 59fd 69bc cb97 363d 1670 083c
00000080: f551 a1bd 2112 8cbb 99db 213d 53e1 38bd
00000090: 3ef6 3bbd 99ce 853b 7a79 4fbc 67f3 0f3d
000000a0: b36a 8ebb 5495 8d3b 4398 f2bc 6b32 873d
000000b0: 87c0 773d b1d2 4d3a 22cb 8a3b 508c 833c
000000c0: f38a f33c ad81 92bd 3781 9a3c 238d 2c3d
000000d0: 00f6 983c 73c4 803c 8e43 b33d 8193 633d
000000e0: fb5e 2f3d 4ea9 883d e9d6 42bd 4278 5abc
000000f0: fae5 9cbc 554d 73bd 4f29 9e3b 2966 813c
00000100: 960a 5e3a 2b7f 083d c9ac 2cbb 4209 f1bc
00000110: 37ee 59bd d11a 6fbd 458b 00bd 5170 cb3b
00000120: 1d98 153d e72c ae3c 4147 5dbd 3983 03bc
00000130: 9dd0 8fbd 80ae a83d 2d2f 12bd 930f d7bc
00000140: 798a 403d c835 063e eaab 3e3d c0b3 3e3c
00000150: 1825 21bd 8e94 b03d 67e8 2738 5e27 b3bd
00000160: a330 723d fb87 463d 38a0 87bd 1623 333d
00000170: a501 e7ba 5740 8e3d 0b72 15bd c62b db3c
00000180: b64c 153c 079e a1bc 33e2 04bd e192 2c3d
00000190: a101 94bb 8470 84bc df2e 9fbd 3e83 b73c
000001a0: 263a f23d 8acd a53a 72a5 973d 6464 ff3c
000001b0: 8211 c13c 420a 043a e428 c039 abd6 0a3c
000001c0: 7cbf 8d3b 5fa4 e43c 1be9 843b 5ccc d83c
000001d0: 34a4 d4bd 8645 9fbc f068 023d 6280 813c
000001e0: d960 bebd 7cf1 303e 068f d43c cca7 46bb
000001f0: ca42 553d 33f1 533c 00f5 69bd c0d1 6d3d
00000200: 6e8a c63b 9d0b 18bd 4659 8b3d 3b5c 803a
00000210: 93d6 04bc 8815 a43d 2513 413d ad32 09bd
00000220: fbe5 1c3d 3058 f53c d4f5 7a3d 8f05 c13c
00000230: 4743 523d af5e 7e3d f4a1 673b 6715 953b
00000240: 37b5 163d 143f 15bc 1dde b83c 818f 24bd
00000250: ca1d babd 7a34 fabc da6f 9e3c 3ca5 4c3c
00000260: fbbc b83c da69 2d3d 4992 f03d 9726 273c
00000270: b01c a2ba 1530 a73d a10b 8cbc 74f9 3ebd
00000280: d08b 09bd 8e94 1abb 694e 23bc f696 0d3d
00000290: ea9a 783d aa45 c2bc 910f 1fbc ae46 e5bc
000002a0: 5e04 0abd 0a10 6cbc e417 e9bc c283 e73a
000002b0: 5956 d5bc 27bb 393c e399 6abd 2377 3bbc
000002c0: 70e7 1ebd c028 92bc 95cf 99bd 037d 4cbd
000002d0: d3ae 01bd 6bba 913d db8d 263d 3ac2 b5ba
000002e0: 15d5 a33d 17b7 99bc ab35 7fba 9f54 8ebd
000002f0: 481a b63d 56db a83d edb6 f0bc 3ffd 24bd
00000300: 033b 363d b14d ae3c 1a1e abbc 5c40 cfbb
00000310: 0868 a23b c772 b03c 2307 36bc d5a8 ab3d
00000320: aa13 283d 399f 16bd 7999 d0bd c902 563c
00000330: 371a ac3d a475 e0bb a2f6 94bd 1cc7 8fbd
00000340: 81e1 bc3c a709 e1bb 85e3 c0bb 69ce d0bc
00000350: 81b1 83bb d165 93bd bcf0 d93c f342 903d
00000360: 0158 6fbd 5961 43bb dbb9 89bd 2ac0 3cbc
00000370: 4585 f63c cfc4 6d3e 4f07 663c 58d8 093d
00000380: 9937 b8bd d0c1 8dbd e76f afbb 8db1 e33c
00000390: a706 8c3c 8208 0fbc 9e20 2d3d 1e52 96bb
000003a0: e6cd 9a3d f856 1f3d 6bee e23c b8d1 93bd
000003b0: 6a1b 533d 8c87 68bd 5825 abbc 8e5e f83b
000003c0: 7d2f 563d f261 f93c eb90 91bc 1200 ad3c
000003d0: 00e5 803d dcc6 4fbc 11a0 6abd ffcf 92bd
000003e0: 7aa8 a3bd b4b8 c5bc 68eb 693c 1f24 363d
000003f0: ad34 543c bf74 b73d 0731 f73a b09d 093d

fc4.bias f4 [14]
-0.08227669 -0.006607857 -0.044171117 -0.007887383 -0.03902184 -0.06259241 -0.04128926 -0.0319221
-0.16964398 -0.00014087826 -0.027052468 -0.46109226 -0.048791267 -0.13775721
00000000: ae80 a8bd b986 d8bb c6ec 34bd 153a 01bc
00000010: 5dd5 1fbd 7330 80bd ed1e 29bd bfc0 02bd
00000020: 27b7 2dbe b8b8 13b9 239d ddbc 4914 ecbe
00000030: 5ad9 47bd 3a10 0dbe
