act_net.pth (torch, 689295 bytes, 8 tensors)

fc1.weight f4 [512, 25]
0	0x3da0fdee	0.07860933
1	0x3e284e8b	0.16436212
2	0x3e206907	0.15665065
3	0xbd86049a	-0.065438464
4	0xbe18b2b5	-0.14911921
5	0x3df1891f	0.11793732
6	0xbe1afad5	-0.15134747
7	0xbdf3cf69	-0.11904795
8	0x3daca609	0.08430106
9	0x3df95de7	0.121761136
10	0x3c851122	0.016243521
11	0x3de6132f	0.11234128
12	0xbe49c847	-0.19705306
13	0x3e3826fc	0.17983621
14	0x3dcebb53	0.10094323
15	0xbd9cd70c	-0.076582044
16	0xbdc9a01e	-0.09844993
17	0x3dbcb327	0.09213858
18	0xbdd6cce7	-0.10488301
19	0x3dd4e7b2	0.10395755
20	0x3e3533cf	0.17695545
21	0xbc99da95	-0.018780986
22	0x3d131286	0.035906337
23	0xbcd98e99	-0.026557254
24	0xbe033b98	-0.12815702
25	0xbc8c2777	-0.017108662
26	0x3b46547c	0.003026276
27	0xbe1c66ca	-0.15273586
28	0x3e1fa43b	0.15589993
29	0xbc8bd441	-0.017068984
30	0xbdef0163	-0.11670186
31	0xbd4c979f	-0.049949285
32	0xbd57575b	-0.052573543
33	0xbe028b0a	-0.12748352
34	0x3ab4cac0	0.0013793334
35	0x3e0a3460	0.13496542
36	0xbdb50706	-0.0883923
37	0x3e372164	0.17883831
38	0xbd6e1cef	-0.058133062
39	0x3d3956b1	0.04524869
40	0xbddf165e	-0.10892938
41	0x3e11432b	0.14185779
42	0x3db9c08f	0.09069931
43	0x3e34d339	0.176587
44	0xbde3d9c5	-0.111255206
45	0x3e2919f1	0.16513802
46	0x3c81a745	0.01582683
47	0xbc3c1f40	-0.01148206
48	0xbe00ade9	-0.12566341
49	0xbcc28791	-0.023746284
50	0x3d11c247	0.035585668
51	0x3e349750	0.17635846
52	0x3dc8e822	0.09809901
53	0x3c81165c	0.015757732
54	0xbd553d5d	-0.052060474
55	0x3ddc82fe	0.10767172
56	0x3d7173e6	0.05894842
57	0x3dfcb4da	0.12339182
58	0xbd522eec	-0.05131428
59	0x3a6f4016	0.0009126676
60	0x3dcd6fc1	0.10031081
61	0x3d714dbc	0.058912024
62	0x3ddc1e55	0.10747973
63	0x3db943dd	0.09046147
64	0xbe3fed9b	-0.18742983
65	0x3d7c0a3b	0.061533194
66	0xbe2dc7b0	-0.16970706
67	0x3e3204c0	0.17384624
68	0xbd1928b9	-0.03739235
69	0x3d7903ac	0.060794517
70	0x3d8f5bbd	0.069999196
71	0x3e25c4ac	0.16188306
72	0x3d6f3db8	0.05840847
73	0xbc5b59b0	-0.013388082
74	0x3d2472b8	0.040148467
75	0x3cf4fca7	0.02990563
76	0xbe09ab5f	-0.13444279
77	0xbe0ec972	-0.13944033
78	0x3e30abd2	0.17253044
79	0xbe4b8166	-0.1987358
80	0xbe3b814b	-0.1831104
81	0xbd2c8c51	-0.042126004
82	0xbde4b79b	-0.111678325
83	0xbe1f6095	-0.15564187
84	0x3dd591b5	0.10428182
85	0xbde0a83a	-0.10969587
86	0xbd9bb0d8	-0.0760209
87	0xbd96083f	-0.073257916
88	0xbd6e2488	-0.058140308
89	0xbd2657e2	-0.040611155
90	0xbcfa41c1	-0.030548932
91	0x3dead870	0.114670634
92	0x3e4a1756	0.19735464
93	0x3e1770c2	0.14789107
94	0xbe00b5a8	-0.12569296
95	0x3deba2ad	0.11505637
96	0x3d2f134a	0.042743005
97	0xbbce4ffd	-0.0062961564
98	0xbe042b51	-0.12907149
99	0x3df3d535	0.119059004
100	0xbe157677	-0.14595972
101	0xbe2dd031	-0.1697395
102	0x3e3ce699	0.18447341
103	0x3d7ebe2f	0.062193092
104	0x3dbe2d4d	0.09285984
105	0xbe197bf9	-0.14988698
106	0x3df75c02	0.12078096
107	0xbd1e54a1	-0.038654927
108	0x3d6520b9	0.05593941
109	0x3df4bfbd	0.11950634
110	0xbe2ceb55	-0.16886647
111	0xbde56340	-0.11200571
112	0x3ddf919d	0.109164454
113	0xbe459680	-0.19295692
114	0xbd4797c0	-0.048728704
115	0xbd56aaf5	-0.05240913
116	0x3e16546e	0.14680645
117	0x3d1d3f6e	0.03839057
118	0xbdba9740	-0.0911088
119	0xbca11038	-0.019661054
120	0xbca9b7c4	-0.02071751
121	0x3d3652d2	0.044512577
122	0x3dfbd9cb	0.122974
123	0x3e1d5a03	0.15366368
124	0x3e3d224d	0.18470116
125	0xbe3604e7	-0.17775308
126	0x3e39de51	0.18151213
127	0x3d83d373	0.06436815
128	0x3dca83ff	0.098884575
129	0x3da3a87a	0.07991119
130	0xbe4a0ffe	-0.19732663
131	0xbe030ea0	-0.12798548
132	0xbdca3d0a	-0.098749235
133	0x3c6399b0	0.013891622
134	0x3ae0804c	0.0017128079
135	0xbd236a6a	-0.039896406
136	0xbd0a5971	-0.033776704
137	0x3e3be8b6	0.18350491
138	0xbd70ea5d	-0.058817256
139	0xbdc0c750	-0.09413016
140	0xbe0d704d	-0.1381237
141	0xbd718ba6	-0.05897107
142	0xbe1d1981	-0.1534176
143	0x3dc37a68	0.095448315
144	0xbdfa8564	-0.122324735
145	0x3caa91ed	0.020821536
146	0xbe1ac458	-0.15113962
147	0xbde6d808	-0.112716734
148	0x3e0f7862	0.14010766
149	0xbd61fc6e	-0.055172376
150	0x3e36ed94	0.17864066
151	0x3e3cda5d	0.18442674
152	0xbd85a172	-0.06524934
153	0xbdf8820a	-0.12134178
154	0xbe0e83cd	-0.13917466
155	0xbd2ba4ae	-0.041905098
156	0x3e3a410a	0.18188873
157	0x3cb1efeb	0.021720847
158	0xbe050605	-0.12990578
159	0xbc56bf19	-0.013107085
160	0xbe13d63f	-0.14437197
161	0xbd38abff	-0.045085903
162	0xbe1b97f2	-0.15194681
163	0xbd97e65f	-0.07416987
164	0xbdf3b1f9	-0.1189918
165	0x3d28810f	0.041138705
166	0x3dfd53d1	0.12369502
167	0x3e283a83	0.1642857
168	0xbd94ad61	-0.07259632
169	0x3dbd9fda	0.09259005
170	0xbe3a33b0	-0.1818378
171	0xbe26e292	-0.16297367
172	0x3dcfd134	0.10147324
173	0xbe37c07e	-0.17944524
174	0xbd522dba	-0.05131314
175	0x3e2ca43a	0.16859522
176	0xbd6bd9eb	-0.05758087
177	0x3e11a1e4	0.14221913
178	0xbe4b9782	-0.19882014
179	0xbdceed57	-0.10103863
180	0xbe3650cf	-0.17804264
181	0x3e3399f0	0.17539191
182	0x3e31050b	0.1728708
183	0xbe0fd65c	-0.14046615
184	0x3c95e265	0.01829643
185	0x3d809bb9	0.06279702
186	0x3e3d6926	0.18497142
187	0x3da8ea32	0.08247794
188	0x3e142bec	0.1446988
189	0x3d1da450	0.03848678
190	0x3e1edf19	0.15514793
191	0x3e519300	0.20466232
192	0xbd2c2342	-0.042025812
193	0xbdbbf0f0	-0.091768146
194	0xbca7130c	-0.020394824
195	0xbe2be292	-0.16785648
196	0x3e32e6fc	0.17470926
197	0x3deb9156	0.1150233
198	0xbd3ba828	-0.045814663
199	0x3dec81fe	0.115482315
200	0x3dc3dc6e	0.09563528
201	0xbd8045fb	-0.06263348
202	0xbd36d201	-0.04463387
203	0x3e1ff273	0.15619831
204	0xbbd06273	-0.0063593923
205	0x3e3bf229	0.18354096
206	0xbe30320e	-0.17206594
207	0x3e22f60d	0.15914173
208	0xbdca2447	-0.098702006
209	0x3e1edc27	0.15513669
210	0xbc77373c	-0.0150888525
211	0xbdcbd381	-0.099524505
212	0x3d504ac1	0.05085254
213	0xbe161b9c	-0.1465897
214	0x3df1fc44	0.11815694
215	0xbdde319c	-0.10849306
216	0x3e336cdb	0.17521994
217	0x3e13b8b9	0.14425935
218	0xbd152249	-0.03640965
219	0xbd0edae6	-0.034876727
220	0xbe32671b	-0.17422144
221	0x3e5bbbd5	0.21458371
222	0xbdc8c3d7	-0.098029785
223	0x3d55776b	0.05211584
224	0x3d6d1781	0.057883743
225	0x3e478c56	0.19487128
226	0x3e1829f3	0.14859752
227	0xbd9edc8c	-0.0775691
228	0x3d86f878	0.065903604
229	0x3e3e8c78	0.18608272
230	0xbe36a9a4	-0.1783815
231	0xbb3c9a51	-0.0028778503
232	0xbc2a3d45	-0.010390584
233	0x3dc7e87e	0.09761141
234	0x3cb16759	0.021655725
235	0xbdf6494c	-0.12025699
236	0xbe360955	-0.17776997
237	0xbdbd06b0	-0.09229791
238	0x3c5b10b8	0.013370685
239	0xbdb31431	-0.087440856
240	0x3e183f77	0.1486796
241	0x3cd3bc49	0.025846617
242	0x3c2aa847	0.010416097
243	0x3e1e57b5	0.15463145
244	0xbe23e9b9	-0.16007127
245	0xbe0a1775	-0.1348551
246	0x3e3f60c1	0.18689252
247	0x3d935c97	0.071953945
248	0x3d6a806a	0.05725137
249	0xbd413809	-0.04717258
250	0x3e439ffb	0.19103996
251	0x3d879a05	0.06621174
252	0xbe2e5fcb	-0.1702873
253	0xbe1f09cd	-0.15531082
254	0x3e459235	0.19294055
255	0x3dee26c8	0.11628491

fc1.bias f4 [512]
0	0x3e31c128	0.1735884
1	0xbdfdd4df	-0.123941176
2	0x3df479ce	0.11937295
3	0xbd36ff15	-0.04467686
4	0x3e27fcbf	0.16405009
5	0xbd88486e	-0.0665444
6	0x3d48fca2	0.049069054
7	0x3e003ba9	0.12522759
8	0xbe3ae564	-0.18251568
9	0xb8014bd0	-3.0826603e-05
10	0x3e2bffb5	0.16796763
11	0xbe284bc4	-0.16435152
12	0x3db8d341	0.090246685
13	0x3daae9df	0.083453886
14	0xbdc331dd	-0.09530995
15	0x3dc0ff82	0.09423734
16	0x3e26bd60	0.16283178
17	0x3e20b0f4	0.15692502
18	0xbe26e9e4	-0.1630016
19	0xbe24132f	-0.16022943
20	0x3e2b9cb7	0.16759
21	0x3cd3b2f3	0.025842166
22	0x3dd3ddca	0.10345037
23	0x3c45fa19	0.012083554
24	0x3cb0c06b	0.021576127
25	0xbd8bc72d	-0.06825099
26	0x3daf2d9c	0.08553621
27	0x3d8a0434	0.06739083
28	0xbd4cd046	-0.050003313
29	0xbd2c6180	-0.04208517
30	0xbd90f1d7	-0.07077377
31	0xbd279502	-0.04091359
32	0x3db3bc47	0.087761454
33	0x3dfdd916	0.123949215
34	0x3c36fdf2	0.011168944
35	0xbcb35d15	-0.02189497
36	0x3c8f278b	0.01747491
37	0x3d73b4b8	0.05949852
38	0x3e3ba9a6	0.18326434
39	0xbde53aba	-0.11192842
40	0x3e480e62	0.19536737
41	0x3c8e196f	0.017346112
42	0x3da93e63	0.082638524
43	0xbe3808b1	-0.17972066
44	0x3e29fd4d	0.16600533
45	0x3dc9e091	0.09857286
46	0xbdbddd3f	-0.09270715
47	0x3db880a0	0.09008908
48	0xbe3cd7d5	-0.18441708
49	0x3df4a473	0.11945429
50	0xbe2a6930	-0.16641688
51	0xbd8fb814	-0.07017532
52	0x3dc68c95	0.09694783
53	0x3e1bc7fc	0.15213007
54	0xbcf8fa9b	-0.030392935
55	0x3e4a062a	0.19728914
56	0x3d57eef6	0.052718125
57	0x3cf7b6a5	0.030238459
58	0x3e086293	0.13318853
59	0xbe50acf3	-0.20378475
60	0x3defbf74	0.11706439
61	0x3e52ebe1	0.20597793
62	0xbde490f6	-0.111604616
63	0x3c741759	0.014898145
64	0xbe49e25a	-0.19715253
65	0xbe0cd590	-0.13753343
66	0x3e30021e	0.17188308
67	0x3e1e1acf	0.15439914
68	0xbd2dbf91	-0.04241902
69	0xbe3cae96	-0.18425974
70	0x3d818cd4	0.06325689
71	0xbe627480	-0.22114754
72	0x3e23940c	0.15974444
73	0xbe120ba6	-0.14262256
74	0x3e252215	0.16126283
75	0xbae24385	-0.0017262554
76	0xbe181523	-0.14851813
77	0x3dd9c692	0.106335774
78	0xbd66b390	-0.056323588
79	0x3e075e0b	0.13219468
80	0x3d2c2f83	0.0420375
81	0xbdf866ab	-0.12128957
82	0xbe0171d4	-0.12641078
83	0xbe1a8fb2	-0.15093878
84	0x3d9c2df3	0.076259516
85	0x3d949f3e	0.072569355
86	0x3da2f12c	0.07956156
87	0x3d0efd16	0.03490933
88	0x3e059c64	0.1304794
89	0xbe457d12	-0.19285992
90	0x3ddf60d3	0.1090714
91	0xbd995e71	-0.074887164
92	0xbd775ee3	-0.060393225
93	0xbe4cb161	-0.1998954
94	0xbdbd9329	-0.09256584
95	0xbda4d212	-0.0804788
96	0x3e122a8a	0.1427404
97	0x3dae538a	0.085120276
98	0x3cbfd909	0.02341892
99	0xbdd58a48	-0.10426766
100	0x3e08430a	0.13306823
101	0xbbda9b67	-0.0066713574
102	0xbdfab8e5	-0.12242297
103	0x3e0cac66	0.1373764
104	0x3dc9dd81	0.09856702
105	0x3da408bf	0.08009481
106	0xbe4c7a93	-0.19968633
107	0xbdf2d756	-0.11857478
108	0x3d99a191	0.075015195
109	0xbdd1e89b	-0.10249444
110	0x3de594ec	0.11210045
111	0xbd790bfe	-0.060802452
112	0xbaa8a748	-0.0012867237
113	0xbcd1907e	-0.025581595
114	0x3e44db35	0.19224246
115	0xbceea134	-0.029129602
116	0x3d23548d	0.039875556
117	0x3db9393d	0.090441205
118	0xbe0ed1bf	-0.139472
119	0xbb4e00b2	-0.003143352
120	0xbe064a62	-0.13114312
121	0xbe4bda89	-0.19907583
122	0x3df263ab	0.118354164
123	0xbd4788d5	-0.048714478
124	0xbcaf62b5	-0.021409372
125	0x3e132076	0.14367852
126	0x3d5fd3cb	0.05464534
127	0x3e1160d2	0.1419709
128	0xbe1f6a03	-0.15567784
129	0xbe1e3e85	-0.15453537
130	0xbd525604	-0.051351562
131	0xbe3aede7	-0.18254815
132	0x3e2d9972	0.16953066
133	0xbdbb2920	-0.09138703
134	0xbd4ed4f6	-0.050496064
135	0x3d49a32c	0.04922788
136	0xbd101f4e	-0.035186104
137	0xbe2b5dda	-0.1673502
138	0x3e04f03c	0.12982267
139	0x3d8bdd0c	0.06829271
140	0xbca78de7	-0.020453406
141	0xbd7c20b1	-0.061554614
142	0xbd1d18eb	-0.03835384
143	0x3d96495e	0.073382124
144	0xbd29bd1e	-0.04144012
145	0x3d17f9db	0.037103515
146	0x3dc700bf	0.09716939
147	0xbd79d3b8	-0.060992926
148	0x3e0816e5	0.13289984
149	0xbd112000	-0.03543091
150	0xbd46321f	-0.048387643
151	0x3d3ce564	0.0461172
152	0x3e41124d	0.18854637
153	0xbd1dc067	-0.038513567
154	0x3d5dd105	0.054154415
155	0x3d39f879	0.045402978
156	0xbe28b41d	-0.16474958
157	0xbb730a38	-0.0037084948
158	0xbe435e88	-0.1907903
159	0x3d85bf07	0.06530576
160	0x3d8f8452	0.0700766
161	0xbe42a5ba	-0.19008532
162	0xbdcb3eda	-0.09924097
163	0x3d868372	0.0656804
164	0xbdb675ae	-0.08909164
165	0x3e00bfd5	0.12573178
166	0xbb999134	-0.004686499
167	0x3d7d41d5	0.06183036
168	0xbdb710b1	-0.089387305
169	0x3e353126	0.1769453
170	0xbe0c0548	-0.1367389
171	0xbd925637	-0.071453504
172	0xbe186fc6	-0.14886388
173	0xbc7a5364	-0.015278671
174	0xbd4c5da5	-0.049893994
175	0xbd72a9df	-0.059244033
176	0x3d9141ce	0.070926294
177	0x3e396996	0.18106684
178	0xbd815f9a	-0.06317063
179	0xbdcd4eab	-0.1002477
180	0x3e35476d	0.17703028
181	0xbe144186	-0.1447812
182	0xbdf761a9	-0.12079174
183	0x3dbb55f6	0.09147255
184	0xbcecd850	-0.02891174
185	0xbdff4574	-0.12464419
186	0x3e1e2234	0.15442735
187	0xbd3a8db2	-0.045545287
188	0xbe16a0ea	-0.14709821
189	0x3e16b5ed	0.14717837
190	0xbced9ce4	-0.029005475
191	0x3e110182	0.14160731
192	0xbe19354e	-0.1496174
193	0x3b35dc86	0.002774985
194	0x3e2b7701	0.16744615
195	0xbe4f1af6	-0.20225129
196	0x3dc2de63	0.09515073
197	0xbd255af2	-0.040369935
198	0xbe06cdc7	-0.13164435
199	0xbdebd2ec	-0.115148395
200	0xbdfc1b49	-0.12309892
201	0x3d35f5da	0.044423915
202	0xbe08fb81	-0.13377191
203	0x3e4820d3	0.19543771
204	0xbbbe73ea	-0.005812158
205	0xbe14c070	-0.14526534
206	0xbe185569	-0.14876331
207	0xbb0bbb5e	-0.0021321396
208	0x3d86a6c7	0.06574779
209	0x3c3ea5c7	0.011636204
210	0xbd94d798	-0.07267684
211	0x3d825d35	0.06365434
212	0xbe0de48c	-0.13856715
213	0xbd36dd3b	-0.044644576
214	0x3daaf8f3	0.083482645
215	0xbdeefa71	-0.11668862
216	0xbd4268b1	-0.047463123
217	0xbe3a82ff	-0.18214034
218	0xbe04f3a7	-0.12983571
219	0x3decaeec	0.11556801
220	0x3e1aeaee	0.15128681
221	0xbc92f908	-0.017941013
222	0xbdf83545	-0.12119535
223	0xbe09b6f2	-0.13448694
224	0x3e375cc8	0.17906487
225	0xbd5f5152	-0.054520912
226	0xbd23bec9	-0.03997687
227	0x3ddf72b8	0.10910553
228	0xbe482c1b	-0.19548075
229	0x3df1e520	0.1181128
230	0x3dc75b74	0.0973424
231	0x3e12d188	0.14337742
232	0xbcf3d5e7	-0.029765083
233	0x3c8e9b9c	0.017408185
234	0xbd43cee2	-0.04780472
235	0xbe395ca1	-0.18101741
236	0xbe3a0a2a	-0.1816794
237	0xbd19fe17	-0.037595835
238	0x3d34fd44	0.044186845
239	0x3dd5532e	0.10416256
240	0x3ddb14ab	0.106973015
241	0x3e2cb736	0.16866764
242	0x3d7bc5c8	0.061467916
243	0x3de4ec43	0.11177876
244	0x3e047f6d	0.12939234
245	0xbcaf69f9	-0.021412836
246	0xbdc5c66c	-0.096569866
247	0x3e0fe3fc	0.14051813
248	0xbdf4589b	-0.11930963
249	0x3e0b1509	0.13582243
250	0xbe51b254	-0.20478183
251	0x3d9d1a34	0.076710135
252	0xbdab0259	-0.08350057
253	0xbd8fbe59	-0.07018728
254	0xbe3ef2a1	-0.18647243
255	0xbd3d336f	-0.04619163

fc2.weight f4 [256, 512]
0	0x3d4f3d15	0.05059536
1	0x3d0dcd47	0.034619596
2	0x3d4990a0	0.04921019
3	0xbd105485	-0.035236854
4	0x3c7ce35b	0.015435065
5	0x3bcb125f	0.0061972584
6	0xbc3812a3	-0.011234912
7	0xbc91a38d	-0.017778182
8	0x3cb98dc2	0.022650603
9	0x3d31d6d4	0.043417767
10	0x3c367102	0.011135342
11	0xbbb32a48	-0.005467687
12	0xbb897198	-0.0041944496
13	0x3d0905f4	0.033452943
14	0x3c2bd123	0.010486874
15	0xbcc33714	-0.023829974
16	0x3c8d5edd	0.017257148
17	0xbd3dee07	-0.04636958
18	0x3d162003	0.036651623
19	0x3b01c4c4	0.001980112
20	0xbccc8674	-0.024966456
21	0x3c800e93	0.01563195
22	0xbbef3118	-0.0072995536
23	0xbcf17dc7	-0.02947892
24	0x3d198a95	0.037485678
25	0x3d3be9f2	0.045877405
26	0xbc83b03d	-0.016075248
27	0xbcb1843c	-0.0216695
28	0xbd0604a5	-0.032719273
29	0xbc15caf6	-0.009142628
30	0x3c932255	0.017960707
31	0x3c06420c	0.008194458
32	0x3d16721a	0.03672991
33	0x3c1041c3	0.008804741
34	0x3b5257f3	0.003209588
35	0xbd21bd10	-0.039486945
36	0x3c002ae1	0.007822723
37	0xbd470cf3	-0.048596334
38	0xbc0f617b	-0.0087512685
39	0xbc24259c	-0.010018732
40	0xbd47160a	-0.048605002
41	0x3d4726af	0.048620876
42	0x3c8fbe21	0.017546715
43	0xbd348091	-0.044067923
44	0x3d16a89b	0.03678189
45	0xbc802c44	-0.015646107
46	0xbcbc9101	-0.023018362
47	0x3c7bdcd4	0.015372474
48	0xbc8190e4	-0.01581616
49	0xbd441f71	-0.047881547
50	0xbc8a73aa	-0.016900856
51	0x3d297d02	0.041378982
52	0xbd395eac	-0.0452563
53	0x3cd086a3	0.025454825
54	0xbd0f2d84	-0.034955516
55	0xbcfd9dd1	-0.030959042
56	0x3cee41e3	0.029084152
57	0x3ce19a71	0.027539464
58	0x3cdbfe8d	0.026854778
59	0xbd148885	-0.036263008
60	0x3cee8902	0.029118065
61	0xbd456108	-0.04818824
62	0xbcf76a25	-0.03020198
63	0xbca52713	-0.020160234
64	0xbcfe1192	-0.031014238
65	0x3ca3c269	0.019990163
66	0x3c78ee2f	0.015193506
67	0xbb51995d	-0.003198228
68	0xbd1fedc6	-0.039045118
69	0xbd240cfb	-0.04005144
70	0xbcf3bd92	-0.02975348
71	0x3cb9b230	0.022667974
72	0xbb6ccfa1	-0.0036134499
73	0x3c1f4e56	0.009723267
74	0xbd27e4b3	-0.04098959
75	0xba70d79c	-0.0009187402
76	0x3b879707	0.004137877
77	0xbbc509ab	-0.0060131154
78	0x3cabdc6b	0.020979127
79	0xbd035d4e	-0.032071404
80	0xbce409c7	-0.027836693
81	0xbd28f0e2	-0.04124535
82	0xbc38f618	-0.011289142
83	0x3d07610c	0.033051535
84	0xbd127c90	-0.035763323
85	0xbd448847	-0.047981527
86	0xbd205243	-0.03914095
87	0x3c7cb24b	0.015423368
88	0xbc713cee	-0.014723999
89	0x3ca2a6a7	0.019854857
90	0x3d336478	0.043796986
91	0xbd2ab09f	-0.041672345
92	0x3cfbba58	0.030728504
93	0x3ce2ae22	0.027670924
94	0x3d13c57d	0.03607701
95	0xbcc67cb4	-0.024229385
96	0xbcc6c3f1	-0.024263354
97	0xbc386181	-0.0112537155
98	0xbc76b93d	-0.015058813
99	0x3cbc0bed	0.022954905
100	0xbbe853b7	-0.0070900577
101	0xbc8c6d38	-0.017141923
102	0x3d0235bd	0.03178953
103	0x3a4ec1b0	0.0007887138
104	0xbccaf5b4	-0.024775364
105	0xbd2bff56	-0.041991554
106	0x3b42edef	0.002974387
107	0x3c9d1155	0.019173304
108	0x3c2ce8a7	0.0105535155
109	0xbba54ad6	-0.0050443215
110	0xbbebc024	-0.007194536
111	0xbb9f2401	-0.004856587
112	0x3bc821ab	0.006107529
113	0xbc206cad	-0.009791535
114	0x3d45731e	0.048205487
115	0x3b3ad9ce	0.002851117
116	0xbd377c07	-0.044796016
117	0xbd0cded2	-0.034392186
118	0xbccca7af	-0.024982302
119	0xbd099db0	-0.03359765
120	0xbd43a425	-0.047763962
121	0x3d1a2d8e	0.0376411
122	0x3ca1a52f	0.019732086
123	0xbcf5aa9d	-0.029988581
124	0x3d2f533d	0.04280399
125	0x3ccae4ff	0.024767397
126	0x3d0a4100	0.033753395
127	0x3c9d8da5	0.01923258
128	0x3cea870d	0.02862885
129	0x3a708fbd	0.0009176692
130	0xbd168c28	-0.036754757
131	0xbb87bcb3	-0.0041423677
132	0x3c4d62ab	0.012535731
133	0x3b7cbcc1	0.0038564655
134	0x3d1ef0b5	0.038803775
135	0xbc42bad3	-0.011885363
136	0x3cbc6fec	0.023002587
137	0xbc7231b2	-0.014782356
138	0x3d023f2a	0.03179852
139	0xbcf8e3b0	-0.030382007
140	0x3c9977d3	0.018733894
141	0x3d18cda2	0.03730548
142	0x3cda8a17	0.026677174
143	0xbce2b3f2	-0.027673695
144	0xbc68a7a9	-0.01420013
145	0xbd1e9b59	-0.03872237
146	0x3cc9ef7f	0.024650333
147	0x3cc0d581	0.023539307
148	0xbb86fca5	-0.004119473
149	0x3d0c9a59	0.034326885
150	0x3c0ee881	0.008722425
151	0x3bd12aec	0.0063832905
152	0x3c4a4e88	0.012347825
153	0xbd413e10	-0.047178328
154	0x3c1cfbe5	0.009581541
155	0xbc52a9ee	-0.012857897
156	0xbd1ba6af	-0.03800076
157	0xbcdfa797	-0.027301593
158	0xbcfa5b80	-0.030561209
159	0xbc3c23f0	-0.011483178
160	0x3c3d2acf	0.011545851
161	0x3c0193c9	0.00790877
162	0x3c72562b	0.014791052
163	0xbd2ff2bd	-0.042956103
164	0x394c32fa	0.00019473946
165	0xbcc113d9	-0.023569034
166	0x3c002c86	0.007823115
167	0xbd3c3fdc	-0.04595934
168	0x3d0134c7	0.031544473
169	0x3c8b496a	0.01700278
170	0xbcd0f162	-0.025505725
171	0xbcaf07a9	-0.021365957
172	0xbd4d8a2f	-0.05018061
173	0x3d003799	0.031303022
174	0xbcfbcf6b	-0.030738553
175	0xbd3b588f	-0.045738753
176	0x3d18335f	0.037158366
177	0xbbe4298d	-0.006962961
178	0xbca743fb	-0.020418158
179	0x3b82993f	0.0039855535
180	0xbcae73d5	-0.021295467
181	0xbca65591	-0.020304473
182	0x3c83de13	0.016097104
183	0x3bc59f92	0.006030985
184	0xbcd3a631	-0.025836082
185	0xbb490dc8	-0.003067838
186	0x3bfc13be	0.007692783
187	0xbcb118c0	-0.021618247
188	0x3c31e621	0.01085809
189	0xbd09a915	-0.033608515
190	0x3cc45179	0.02396463
191	0x3ccdeaca	0.02513637
192	0xbb776508	-0.0037749428
193	0xbb9b468b	-0.004738634
194	0x3c27c815	0.010240574
195	0x3d115585	0.03548195
196	0x3d4eebb7	0.050517764
197	0xbd2cbd49	-0.042172704
198	0xbb9ca341	-0.0047802036
199	0x3d2ed4a6	0.042683266
200	0x3c54bfe7	0.012985206
201	0xbc0f072c	-0.008729737
202	0xbc9cb575	-0.019129494
203	0x3d1f6061	0.038910273
204	0x3d4b6826	0.04965987
205	0xbcbe9a9e	-0.023267087
206	0x3cfa605d	0.030563528
207	0x3d08f5db	0.03343759
208	0xbc6952b3	-0.014240908
209	0x3b0aaf62	0.0021161665
210	0xbd13a134	-0.036042407
211	0xbcea52b3	-0.028603887
212	0xbd3ea01c	-0.04653941
213	0x3c058b43	0.008150878
214	0xbbadac37	-0.0053000706
215	0xbcfbbd28	-0.030729845
216	0x3cd16cb8	0.025564536
217	0x3c80014a	0.015625615
218	0x3c503ce6	0.012709832
219	0xbcf90811	-0.030399354
220	0xbcb26ba1	-0.021779837
221	0x3c33d9e5	0.010977243
222	0xba87a0bd	-0.0010347586
223	0x3c1ad10e	0.009449257
224	0xbbf37176	-0.007429297
225	0xbc1ea113	-0.009681958
226	0x3ce60a07	0.028080953
227	0x3d02c213	0.031923365
228	0xbd16bc0d	-0.036800433
229	0xbcbfd7f1	-0.023418399
230	0x3b1275d6	0.0022348068
231	0x3cb11e70	0.021620959
232	0xbcf35879	-0.029705273
233	0xbc5e66e6	-0.013574338
234	0xbd112a77	-0.03544089
235	0x3b8791f2	0.004137271
236	0xbca72da0	-0.020407498
237	0x3c61eae4	0.013788912
238	0xbcf81664	-0.030284114
239	0xbd474a2e	-0.048654728
240	0xbd27ff37	-0.041014876
241	0x3d48a78e	0.048987918
242	0xbbf04834	-0.007332826
243	0x3d1f578c	0.03890185
244	0xbd0f81c6	-0.03503587
245	0x3d03d7ac	0.032188103
246	0x3cdfccb6	0.027319293
247	0x3cab6c58	0.020925686
248	0x3c879d1b	0.016554406
249	0xbd44dbfb	-0.048061352
250	0xbc264857	-0.010149083
251	0xbd0ba445	-0.034092207
252	0x3bcc3c82	0.006232799
253	0xbba02006	-0.00488663
254	0x3cdf3dbf	0.027251123
255	0xbcce8a39	-0.025212394

fc2.bias f4 [256]
0	0xbd2d70a7	-0.04234376
1	0x3cc921c0	0.024552226
2	0x3d18bc65	0.037289042
3	0x3ac3cfb0	0.0014939215
4	0xbc91d01f	-0.017799435
5	0xbd36319a	-0.044480897
6	0xbcc6d7dd	-0.024272854
7	0xbcc7d28c	-0.024392389
8	0xbd2a132d	-0.041522194
9	0x3c8ba972	0.017048571
10	0x3aa504d4	0.001258994
11	0x3ca18f3b	0.019721618
12	0x3d215ae5	0.039393324
13	0x3c3d3098	0.01154723
14	0xbbe71ecf	-0.007053233
15	0xbce00320	-0.02734524
16	0x3ca3527e	0.019936796
17	0xbd01a1ab	-0.03164832
18	0x3d1b9fda	0.037994243
19	0xbd2d440c	-0.042301223
20	0x3cddea5c	0.02708929
21	0xbc6228b4	-0.01380365
22	0x3d2b294f	0.04178744
23	0x3cc10457	0.02356164
24	0xbcd261ed	-0.02568146
25	0x3b9b8508	0.004746083
26	0x3d15bbda	0.036556102
27	0x3be831b9	0.0070860055
28	0xbbc45655	-0.005991737
29	0xbcf68fed	-0.030097926
30	0xbc1eb370	-0.009686336
31	0xbca72916	-0.020405333
32	0xbc89f2dc	-0.016839437
33	0x3c645a01	0.013937474
34	0x3c0ab36e	0.008465631
35	0x3cab30b7	0.020897252
36	0x3a5919ab	0.0008281718
37	0xbcdb1cdb	-0.026747158
38	0xbd1a9881	-0.037743095
39	0xbc03e0be	-0.008049188
40	0xbd38f910	-0.0451594
41	0x3d049c96	0.032375894
42	0xbcdda75f	-0.027057348
43	0x3cca1a95	0.024670878
44	0xbd31e0c0	-0.04342723
45	0x3d1ec945	0.038766164
46	0xbd2054cd	-0.039143372
47	0xb9dafea5	-0.00041769925
48	0xbd216f28	-0.039412647
49	0x3c879fe1	0.016555728
50	0x3d31faa8	0.043451935
51	0xbcf10512	-0.029421363
52	0x3d3a1f25	0.045439858
53	0x3c7dc27b	0.015488262
54	0xbc85cac9	-0.016332047
55	0x3cb14b12	0.021642242
56	0xbd075386	-0.03303864
57	0xbb421558	-0.0029614773
58	0x3c831a3b	0.016003719
59	0xbd19f6f8	-0.037589043
60	0x3d251b1f	0.040309068
61	0x3afd918c	0.0019345745
62	0x3c8f48c0	0.017490745
63	0xbd0ee384	-0.034884945
64	0xbcdaf8a7	-0.026729895
65	0xbcf33d3f	-0.02969229
66	0x3a2d8a80	0.00066200644
67	0xbcc75bc4	-0.02433575
68	0xbd20b12e	-0.03923147
69	0x3ca48976	0.020085078
70	0x3c23bd50	0.009993866
71	0x3c0bb11c	0.008526113
72	0x3c6fcf85	0.014636879
73	0xbadd9256	-0.0016904573
74	0x3a8ec8a5	0.0010893537
75	0xbc906027	-0.017623974
76	0x3d0711ff	0.032976147
77	0x3d0f948b	0.03505377
78	0x3d11423b	0.035463553
79	0xbd0acdc2	-0.033887632
80	0x3c231dcb	0.009955834
81	0x3be38196	0.006942938
82	0xbcc6cc40	-0.024267316
83	0x3cb44b9e	0.022008713
84	0x3c4ae780	0.012384295
85	0x3cb54ae9	0.022130447
86	0xbd01fe69	-0.031736765
87	0x3d151265	0.036394496
88	0x3d30055d	0.042973865
89	0x3d511243	0.051042806
90	0xbb25eaca	-0.0025316947
91	0xbd24b81e	-0.04021465
92	0x3c08b0c9	0.00834293
93	0x3b180d6b	0.0023201357
94	0xbd35bd1d	-0.044369806
95	0xbc91eb4f	-0.0178124
96	0x3d092ad9	0.03348813
97	0xbd13e1fd	-0.03610419
98	0x3d41e39b	0.047336202
99	0xbd1f4f6b	-0.0388941
100	0xbcd79b68	-0.02631922
101	0xbc07d1b4	-0.008289743
102	0xbc1486ad	-0.009065312
103	0xbc481a94	-0.012213368
104	0xbd0f901d	-0.035049547
105	0xbd3b3788	-0.045707256
106	0x3caf9c69	0.021436887
107	0x3bd89fa8	0.0066108294
108	0x3c0ca792	0.008584874
109	0x3d0b4492	0.03400094
110	0x3d172ef0	0.036909997
111	0x3ce25df3	0.02763269
112	0xbd135f21	-0.035979394
113	0x3ac0dead	0.00147148
114	0x3c6f8c69	0.014620879
115	0xb9069284	-0.00012833817
116	0xbbd604bd	-0.0065313266
117	0xbc8b0959	-0.01697223
118	0xbcf4ad0c	-0.029867671
119	0xbc936a7a	-0.017995108
120	0xbccb0d75	-0.02478669
121	0xbd3ca430	-0.04605502
122	0x3d1ebebe	0.038756125
123	0x3d1af5b0	0.037831962
124	0xbd30a799	-0.043128584
125	0xbd470a5b	-0.04859386
126	0xbcc69151	-0.024239214
127	0xbb9a2d64	-0.004705118
128	0xbd24297c	-0.040078625
129	0x3cf0195f	0.029308973
130	0x3cc50b9a	0.024053384
131	0x3cff94fd	0.031198973
132	0xbb5fc2be	-0.0034143175
133	0xbc6d69ae	-0.014490528
134	0x3cce3a78	0.025174364
135	0xbb707e28	-0.0036696289
136	0xbcac7995	-0.021054069
137	0xbcc6cb5d	-0.024266893
138	0x3c875668	0.016520694
139	0xbcec5c46	-0.028852593
140	0x3c8eee14	0.017447509
141	0xbcc224c6	-0.023699176
142	0xbcfc5035	-0.030799964
143	0xbb965db2	-0.004588806
144	0x3d1ca2a1	0.038241033
145	0xbc9b05c1	-0.018923642
146	0x3d0ce90b	0.034401935
147	0x3d5480bb	0.05188058
148	0x3d326375	0.04355188
149	0xbd34e0d0	-0.04415971
150	0x3c8844d0	0.016634375
151	0xbd41c887	-0.04731038
152	0xbc413076	-0.011791339
153	0x3c927d89	0.017882125
154	0x3cbd24f1	0.023088904
155	0x3d0eb604	0.034841552
156	0x3d09915d	0.033585895
157	0x3cc76fac	0.024345241
158	0x3d1e414a	0.038636483
159	0xba577088	-0.00082183676
160	0x3cd2e6f9	0.025744902
161	0x3cb13986	0.021633875
162	0xbb0909ef	-0.0020910462
163	0x3d19bd00	0.03753376
164	0x3d1eb3e8	0.03874579
165	0xbd481ed8	-0.04885754
166	0x3d0d9ff3	0.034576368
167	0xbd16fb4f	-0.03686076
168	0xbd2be71b	-0.041968446
169	0xbcd05835	-0.025432685
170	0xbc3b86b6	-0.011445692
171	0x3cdd2a8d	0.026997829
172	0x3c827ba8	0.015928105
173	0xbce74552	-0.028231297
174	0xbcf3c6c3	-0.029757863
175	0x3b169056	0.0022974215
176	0x3c81fca3	0.015867537
177	0xbc9e7442	-0.019342545
178	0x3d388f7c	0.045058712
179	0x3cc408e3	0.023930019
180	0x3b6cd9ec	0.0036140634
181	0xbd182ab6	-0.037150107
182	0xbcc3a78d	-0.023883605
183	0xbce866d0	-0.028369337
184	0xbcdeac78	-0.027181849
185	0xbd243629	-0.040090714
186	0xbb9d407f	-0.0047989483
187	0xbcf651da	-0.030068327
188	0x3c957c62	0.018247787
189	0x3d3f6241	0.04672456
190	0x3c07376b	0.008252959
191	0x3c1a809d	0.009430078
192	0xbce2de0e	-0.027693775
193	0xbce0f398	-0.027459905
194	0x3cb1c7c1	0.021701695
195	0xbc08ff08	-0.008361585
196	0x3c64facb	0.013975809
197	0xbd0965e1	-0.033544425
198	0x3d0759da	0.033044674
199	0x3d1d9011	0.03846747
200	0xbc005e79	-0.007835024
201	0x3bf4fd9d	0.007476522
202	0x3d16c52f	0.036809143
203	0xbcdae3c2	-0.026719932
204	0xbcb33c07	-0.02187921
205	0xbcb5c1d3	-0.02218715
206	0x3c8fc751	0.017551096
207	0x3c9c15f7	0.019053442
208	0x3a300217	0.00067141786
209	0xbcdec090	-0.02719143
210	0xbae6e82d	-0.0017616801
211	0x3c6cfcc8	0.014464565
212	0xbc00b082	-0.007854583
213	0xbd1ef72c	-0.03880994
214	0xbd32116b	-0.043473642
215	0xbd18d7f6	-0.03731533
216	0xbd37716e	-0.04478591
217	0xbcc5c678	-0.024142489
218	0xbad7aeff	-0.0016455351
219	0x3c44189d	0.011968759
220	0x3c77d1b1	0.015125678
221	0x3d219e13	0.039457392
222	0xbc4ede22	-0.012626203
223	0x3ce0d45a	0.027445007
224	0xbccc41da	-0.024933744
225	0xbc9a780c	-0.018856071
226	0xbd1ee824	-0.038795605
227	0xbc05e7bb	-0.008172925
228	0x3bdfefe6	0.006834018
229	0x3cc408cf	0.023929982
230	0xba4c6a77	-0.0007797847
231	0x3cb43861	0.02199954
232	0xbb5ff1f4	-0.0034171315
233	0xbc20dda5	-0.009818469
234	0x3cacac59	0.021078276
235	0xbd13ed64	-0.036115065
236	0xbb9acb9d	-0.0047239796
237	0x3d24de8a	0.040251292
238	0x3c0d47a6	0.008623039
239	0xbca41e47	-0.020033969
240	0x3d0f6568	0.035008818
241	0xbcd1436b	-0.025544843
242	0x3cd211bf	0.025643228
243	0x3c0fc484	0.00877488
244	0x3b8dffb4	0.0043334607
245	0x3d3ac6ba	0.045599677
246	0x3c88b12e	0.016686048
247	0x3c145b00	0.009054899
248	0xbd17f0e8	-0.03709498
249	0xbd01599f	-0.03157961
250	0xbd1ba60f	-0.038000163
251	0x3d122bdd	0.035686363
252	0x3c7b92e2	0.015354844
253	0x3d052fdf	0.032516357
254	0xbd247e98	-0.04015979
255	0xbcd21a93	-0.025647437

fc3.weight f4 [100, 256]
0	0xbd007204	-0.031358734
1	0xbade6d00	-0.001696974
2	0x3d427ee8	0.04748431
3	0xbd6e5964	-0.05819072
4	0x3d3f7aa2	0.04674781
5	0xbcc3d490	-0.023905069
6	0xbd3fdf34	-0.046843722
7	0xbbc69160	-0.0060598105
8	0xbd14c81a	-0.036323644
9	0x3d10379c	0.035209283
10	0xbbf40600	-0.0074470043
11	0xbcd75760	-0.02628678
12	0xbaafa4c0	-0.001340054
13	0xbd78494a	-0.06061677
14	0x3d74a2a4	0.05972542
15	0xbd59c3e0	-0.053165317
16	0xbd510000	-0.05102539
17	0x3d2ac96a	0.04169599
18	0xbd5dd58a	-0.054158725
19	0xbcf4063c	-0.029788129
20	0xbafc0e00	-0.0019230247
21	0xbc416af0	-0.011805281
22	0xbce5f0b8	-0.028068885
23	0x3d0dc660	0.034613013
24	0x3d0e04b2	0.034672447
25	0xbd3c5146	-0.045975946
26	0x3d56908a	0.052383937
27	0xbc18f308	-0.009335287
28	0x3d008a94	0.03138216
29	0xbc3ad588	-0.011403449
30	0xbcf491f8	-0.02985476
31	0x3d5a2902	0.053261764
32	0xbd0ef804	-0.034904495
33	0x3d09e95c	0.033669814
34	0x3d3542cc	0.044253156
35	0xbcac16dc	-0.021006994
36	0xbd422790	-0.04740101
37	0xbd0c5b70	-0.03426689
38	0xbc422860	-0.011850446
39	0x3d40afda	0.047042705
40	0x3cd7b250	0.026330143
41	0x3d5f1494	0.054462984
42	0x3d3f57a0	0.046714425
43	0xba691900	-0.000889197
44	0xbd23d57c	-0.039998516
45	0xbcb56568	-0.02214308
46	0xbc6885b8	-0.014192037
47	0xbd3aed1e	-0.04563629
48	0xbc8f9698	-0.017527863
49	0xbd18c668	-0.03729859
50	0xbc3528a8	-0.0110570565
51	0x3c021aa8	0.007940926
52	0x3c8aff54	0.016967453
53	0x3cdf9584	0.027292974
54	0xba14e780	-0.0005680248
55	0xbd222ff0	-0.039596498
56	0xbb89e720	-0.0042084605
57	0xbcd634fc	-0.026148312
58	0x3cfebb88	0.031095281
59	0xbca24618	-0.019808814
60	0xbac43740	-0.0014970079
61	0xbd30e916	-0.043191038
62	0x3d6ac994	0.057321146
63	0x3d44097e	0.047860615
64	0x3c897c88	0.016783014
65	0x3ce568ec	0.028004132
66	0x3be77730	0.007063769
67	0x3b8ea890	0.0043535903
68	0x3c895e4c	0.016768597
69	0xbbd84d50	-0.0066010132
70	0xbce57b10	-0.028012782
71	0xbc8b36bc	-0.016993873
72	0xbbc13610	-0.0058963373
73	0xbcb99cc8	-0.022657767
74	0x3d5f198a	0.054467715
75	0xbcaf4944	-0.02139724
76	0xbcb056e8	-0.021525815
77	0xbd0c187a	-0.03420303
78	0x3cb45098	0.022011086
79	0x3d093f74	0.03350778
80	0x3d127436	0.03575536
81	0xbd2666fc	-0.040625557
82	0xbcfd8734	-0.030948259
83	0xbce5d92c	-0.028057657
84	0x3d07bd18	0.03313932
85	0xbcfe33a0	-0.031030476
86	0xbcbc35e8	-0.022974923
87	0x3c278dd0	0.010226682
88	0x3c7e2a80	0.0155130625
89	0xbd17b31a	-0.03703604
90	0x3caac1d8	0.020844385
91	0x3d4e03da	0.050296642
92	0xbd3b2c22	-0.045696385
93	0x3d1ec4f0	0.038762033
94	0xbbe5d0d0	-0.007013418
95	0xbb5d0800	-0.0033726692
96	0x3be95770	0.007121019
97	0x3d251ca0	0.040310502
98	0x3cb0768c	0.021540903
99	0x3c2ab3e0	0.010418862
100	0x3cc5f01c	0.024162345
101	0x3d475f22	0.04867471
102	0x3d5c94a2	0.053852685
103	0xbc2e1330	-0.010624692
104	0x3d67abd6	0.05656036
105	0xbc8d9298	-0.017281815
106	0xbc8105f8	-0.015749916
107	0xbd1b6866	-0.03794136
108	0xbd0e9ed8	-0.034819454
109	0xbd2118fe	-0.039330475
110	0x3d4e497c	0.05036305
111	0x3c5d8928	0.01352147
112	0x3cee6a0c	0.029103301
113	0xbcc4e368	-0.024034217
114	0x3caa1174	0.020760275
115	0xbd4fdb9a	-0.050746538
116	0xbd57499e	-0.05256044
117	0xbd7569b4	-0.05991526
118	0xbd5e8dc2	-0.05433441
119	0x3acfbc40	0.001584895
120	0x3d770876	0.060310803
121	0x3d20b52c	0.03923528
122	0xbd728de6	-0.059217356
123	0xbd283e8c	-0.041075274
124	0xbd12db48	-0.035853654
125	0x3d6211c4	0.055192724
126	0x3d3c0e12	0.045911856
127	0xbc8196ac	-0.015818916
128	0x3d293496	0.041309915
129	0xbd313f10	-0.04327303
130	0xbd04119c	-0.032243356
131	0xbd34a9a8	-0.04410711
132	0x3ca40d14	0.020025767
133	0xbd25c86a	-0.040474333
134	0xbd50b574	-0.050954297
135	0x3d297e3a	0.041380145
136	0xbc1e1558	-0.009648643
137	0x3cd4bd90	0.025969297
138	0x3c1ce4f8	0.009576075
139	0xbd0be7d2	-0.034156628
140	0x3cfbd9dc	0.030743532
141	0xbc7673b8	-0.015042238
142	0xbcf14b34	-0.029454805
143	0xbd13d926	-0.03609576
144	0xbcb6d920	-0.02232033
145	0xbd5c0c10	-0.05372244
146	0xbc873248	-0.016503468
147	0x3b6b9a40	0.0035950094
148	0x3d664374	0.056216672
149	0xbd4bd9f2	-0.049768396
150	0x3cfb38f4	0.030666806
151	0x3b165f80	0.0022945106
152	0x3d754a20	0.059885144
153	0xbd0f41dc	-0.034974918
154	0xbd6f1472	-0.058369108
155	0x3d30b100	0.04313755
156	0x3d56cc04	0.05244066
157	0xbb888710	-0.0041664913
158	0x3d066c4e	0.03281813
159	0x3b8b5bf0	0.004252903
160	0xbd403b92	-0.04693181
161	0xbd5d60bc	-0.05404733
162	0x3d7fdcc6	0.062466405
163	0xbcefcd94	-0.029272832
164	0x3ce3c2dc	0.027802877
165	0x3d361a80	0.044458866
166	0xbd389828	-0.045066983
167	0x3a03bf80	0.0005025789
168	0xba931e00	-0.0011224151
169	0xbc6d43a0	-0.014481455
170	0xbd01a056	-0.03164705
171	0xbd2127a2	-0.039344437
172	0xbcf86cc8	-0.030325308
173	0x3d31dac8	0.043421537
174	0x3d6f3214	0.058397368
175	0x3cf767e8	0.030200914
176	0xbd715b82	-0.05892516
177	0xbcf17d0c	-0.029478572
178	0x3d56324e	0.052294068
179	0x3d001e6c	0.031279013
180	0x3d50e0d6	0.05099567
181	0xbbcd0690	-0.006256886
182	0x3d47c5d0	0.048772633
183	0x3c93e684	0.018054254
184	0xbd4dce94	-0.050245836
185	0xbcf2fbc4	-0.029661067
186	0x3c4f25b0	0.012643263
187	0x3c80f670	0.01574251
188	0xbd350ed0	-0.04420358
189	0xbbbcb2e0	-0.0057586282
190	0x3bb81d40	0.0056187212
191	0xbd031dde	-0.032010905
192	0x3c04f8f8	0.008115999
193	0x3c369dd8	0.011146031
194	0x3d4a2d48	0.04935959
195	0x3cab728c	0.020928644
196	0xbd3bf344	-0.045886293
197	0xbcd24e64	-0.025672145
198	0xbd01dbac	-0.031703636
199	0xbd15d1c2	-0.036576994
200	0xbd44aecc	-0.04801826
201	0xbc151b78	-0.009100787
202	0xbcba8658	-0.022769138
203	0xbd0a7588	-0.033803493
204	0xbcc4c884	-0.024021395
205	0xbd345706	-0.044028305
206	0x3ced8fd4	0.028999247
207	0x3ccb6044	0.024826176
208	0x3c940b74	0.018071868
209	0xbd32e3b4	-0.043674186
210	0x3d668780	0.056281567
211	0xbd45db92	-0.0483051
212	0xbd24bd3c	-0.04021953
213	0x3be60050	0.00701908
214	0xbd4467c0	-0.047950506
215	0xbd1f0a22	-0.038828023
216	0x3ccdfc74	0.025144793
217	0xbc8e1788	-0.017345205
218	0xbd3ac51c	-0.045598134
219	0x3c23a7a0	0.009988695
220	0xbc255d30	-0.010093018
221	0x3d287c6c	0.041134283
222	0x3d72520c	0.059160277
223	0xbd05312e	-0.032517605
224	0x3bd54b00	0.006509185
225	0xbd2ef6de	-0.0427159
226	0xbd66d2da	-0.056353427
227	0x3cf8f2dc	0.030389242
228	0xbd12ec2e	-0.03586977
229	0x3b2fcfc0	0.002682671
230	0x3c9905a4	0.018679447
231	0xbd7ed32e	-0.062213115
232	0x3d401574	0.04689546
233	0xbca474f8	-0.020075306
234	0xbaa3ea00	-0.001250565
235	0xbcc2ace0	-0.023764074
236	0x3d658574	0.056035474
237	0x3d773c9a	0.06036053
238	0xbd5bd6a0	-0.05367148
239	0x3d1ffa6a	0.039057173
240	0xbd64b15a	-0.055833198
241	0x3c0ba0f8	0.008522265
242	0xbc51e3e8	-0.012810685
243	0x3ccd2df4	0.025046326
244	0xbd6b2682	-0.05740977
245	0xbbc1cab0	-0.005914055
246	0x3c81dba0	0.015851796
247	0x3d1feca4	0.039044037
248	0x3cb6ed6c	0.022330008
249	0xbbb276e0	-0.0054463
250	0xb9e48a00	-0.00043590367
251	0xbcfbf2f8	-0.030755505
252	0xbd617c66	-0.055050276
253	0xbd3d0706	-0.046149276
254	0x3d234178	0.039857358
255	0xbd551430	-0.052021205

fc3.bias f4 [100]
0	0x3d63fc30	0.055660427
1	0x3caace4f	0.020850329
2	0xbab0ec88	-0.0013498226
3	0xbcb6de50	-0.022322804
4	0x3d49e0fc	0.049286827
5	0x3c4cde38	0.012504153
6	0xbc408a19	-0.011751675
7	0xbd0bae2e	-0.034101658
8	0x3d060709	0.032721553
9	0x3d5b8737	0.053595748
10	0xbcf70be4	-0.030157037
11	0xbd3abb72	-0.045588918
12	0xbcb6d04b	-0.022316119
13	0x3babf710	0.005247958
14	0xbbeaad20	-0.0071617514
15	0x3d2d2c5a	0.042278625
16	0xbd5e9d6e	-0.054349355
17	0x3d10058e	0.035161547
18	0x3d5bb525	0.05363955
19	0x3d6cf4eb	0.05785076
20	0xbd69f3ca	-0.05711726
21	0x3ca72819	0.020404862
22	0xbc9a1f8c	-0.01881387
23	0xbc423f5f	-0.011855929
24	0xbd15bf8d	-0.03655963
25	0xbcd09c9f	-0.025465308
26	0xbc7c2bda	-0.015391314
27	0xbcb5edc4	-0.022208102
28	0xbd43f39e	-0.047839753
29	0x3d7390a2	0.059464104
30	0xbcfc0852	-0.030765686
31	0x3ce384c8	0.027773276
32	0xbd25faba	-0.040522315
33	0xbced1ddc	-0.028944902
34	0xbbaaab6d	-0.005208424
35	0xbd4148ce	-0.047188573
36	0x3bc0f2be	0.005888312
37	0x3ccf24e4	0.025286146
38	0x3cdf8640	0.027285695
39	0x3d19baf8	0.037531823
40	0xbcfeaa0f	-0.03108695
41	0xbcb155b8	-0.02164732
42	0xbd61b5c1	-0.055104975
43	0x3d2d3725	0.042288918
44	0x3c615748	0.01375372
45	0x3c404c9e	0.011737017
46	0xbd5f18d4	-0.054467037
47	0xbc2de0e5	-0.010612701
48	0xbd622b91	-0.05521733
49	0xbd373e8d	-0.044737387
50	0x3ae3def2	0.0017385168
51	0xbd7b1875	-0.06130262
52	0xbd350108	-0.044190437
53	0xbd615aae	-0.05501812
54	0xbd3b4079	-0.045715783
55	0xbd66d894	-0.05635889
56	0xbc61cb19	-0.013781332
57	0x3b4ad2a0	0.0030948296
58	0xbd18efad	-0.037337948
59	0x3d32c91c	0.043648824
60	0xbd55f690	-0.052237093
61	0xbd6b7018	-0.057479948
62	0xbccae454	-0.024767078
63	0x3bcbccff	0.006219506
64	0x3d188d49	0.037244115
65	0xbd17174d	-0.036887456
66	0x3d0b77c6	0.03404977
67	0x3d61d6f3	0.055136632
68	0x3d785f58	0.060637802
69	0xbd35d8f6	-0.044396363
70	0x3d611f67	0.05496159
71	0x3d6e7e20	0.05822575
72	0xbd151e97	-0.036406126
73	0x3ac183ab	0.0014763972
74	0x3c333ede	0.010940282
75	0xbd33fa3c	-0.043939814
76	0x3be391c3	0.0069448664
77	0xbb8f9924	-0.0043822695
78	0x3c3be0c8	0.011467166
79	0x3cd8e0fd	0.02647447
80	0x3c20e62c	0.009820502
81	0xbd5dd05b	-0.05415378
82	0xbce604dc	-0.028078489
83	0xbd7659c4	-0.0601442
84	0xbd6900c2	-0.05688549
85	0xbd0ba22a	-0.0340902
86	0xbacff401	-0.0015865566
87	0xbd0c1c8e	-0.03420692
88	0xbc4bee0a	-0.01244689
89	0xbc85d554	-0.016337074
90	0x3d0f4d8e	0.03498607
91	0xbb5836a0	-0.0032991543
92	0xbc34f850	-0.01104553
93	0x3d08b7f0	0.03337854
94	0xbbc20479	-0.0059209433
95	0xbd890850	-0.066910386
96	0xbb0253ba	-0.001988633
97	0x3d64bf51	0.055846516
98	0xbd895cfa	-0.06707187
99	0xbd54dbfc	-0.051967606

fc4.weight f4 [14, 100]
0	0x3d8df231	0.0693096
1	0x3c499418	0.012303375
2	0x3d7f3b65	0.062312502
3	0x3caa5e08	0.02079679
4	0x3d9b049d	0.07569239
5	0xbdaadf2d	-0.08343349
6	0xbd60862b	-0.054815453
7	0xbad3e6e6	-0.0016166836
8	0xbd29d972	-0.041467138
9	0xbca081cd	-0.019593144
10	0xbd970d81	-0.073756225
11	0xbd623759	-0.055228565
12	0x3c803647	0.015650881
13	0x3da21496	0.07914083
14	0xbdb8e2bf	-0.090276234
15	0xbd000963	-0.031258952
16	0xbd9dba00	-0.07701492
17	0x3da8e04b	0.082459055
18	0x3d41688e	0.04721885
19	0xbd0f6c10	-0.035015166
20	0x3d1a2722	0.037634976
21	0x3d42120d	0.047380496
22	0xbcc4d64c	-0.024027966
23	0xbd0c9ba8	-0.034328133
24	0xbd9b475a	-0.075819686
25	0xbd19e753	-0.037574124
26	0x3d86dbec	0.065849155
27	0xbd67ee6d	-0.056623865
28	0xbc880780	-0.016605139
29	0x3d7a51de	0.06111323
30	0x3c266e22	0.010158094
31	0xbbec107a	-0.0072041126
32	0x3cf25a91	0.029584201
33	0x3d1dcc6e	0.038525037
34	0xbcb3756d	-0.021906579
35	0x3d27f54a	0.04100541
36	0x3cc01b35	0.023450473
37	0xbd6f0ec3	-0.058363687
38	0xbd959e41	-0.07305575
39	0x3dac20b7	0.08404677
40	0xbc077ee8	-0.008270003
41	0x3dbd644f	0.09247648
42	0xbd82d521	-0.06388307
43	0x3c6579c2	0.01400608
44	0xbdaafd10	-0.08349049
45	0xbd8404aa	-0.06446202
46	0x3dcd5fe6	0.10028057
47	0x3da1914b	0.078890406
48	0xbd1ab681	-0.037771706
49	0x3ba85ee0	0.005138263
50	0x3dd859b9	0.10563988
51	0x3d266a1c	0.040628538
52	0x3d4429da	0.047891475
53	0xbbd1e7d0	-0.006405808
54	0x3dda26c9	0.10651929
55	0xbd5479e1	-0.051874045
56	0xbd9d7d4d	-0.07689915
57	0xbdc55697	-0.09635656
58	0xbda5f470	-0.081032634
59	0xbd7dcacc	-0.06196098
60	0xbd1dc354	-0.038516358
61	0xbbd949ce	-0.0066311127
62	0x3db4f127	0.08835059
63	0xbd9d71d6	-0.07687728
64	0xbd1734a8	-0.03691545
65	0x3cbe8314	0.023255862
66	0xbdb0838c	-0.086188406
67	0x3d278d39	0.040906165
68	0xbc8ea2bc	-0.017411582
69	0xbca85af3	-0.02055118
70	0x3d289562	0.041158088
71	0xbd93f76a	-0.07224925
72	0xbc230f90	-0.009952441
73	0x3c4592ae	0.012058897
74	0x3dc30aef	0.0952357
75	0x3db8ae15	0.090175785
76	0x3da8254c	0.08210239
77	0x3d5a92c2	0.053362615
78	0x3d96f293	0.07370486
79	0xbd1a7410	-0.037708342
80	0xbd5bb9e0	-0.05364406
81	0x3d314fd2	0.043289013
82	0xbd25e3eb	-0.040500563
83	0xbd65e88b	-0.056129973
84	0xbd9c9a02	-0.07646562
85	0x3d4fe8ee	0.05075925
86	0x3d2c13c2	0.04201103
87	0xbd164ca4	-0.036694184
88	0x3d2ddc68	0.042446524
89	0x3da35615	0.07975403
90	0x3d07ea77	0.033182587
91	0x3db2370b	0.08701905
92	0x3d6ef6f2	0.058340974
93	0x3d8f28c4	0.06990197
94	0x3d58914b	0.052872937
95	0x3d869537	0.06571429
96	0xbd9c9426	-0.076454446
97	0xbd20ae3e	-0.03922867
98	0x3dabae77	0.08382886
99	0xbd42041a	-0.047367193
100	0xbd4b4707	-0.049628284
101	0x3b305549	0.0026906303
102	0xbbc7a52f	-0.0060926895
103	0xbd1825c4	-0.03714539
104	0xbd58cba0	-0.052928567
105	0xbd9adb2d	-0.07561336
106	0xbda72d14	-0.08162895
107	0xbdb0dc6c	-0.08635792
108	0x3d55217a	0.05203388
109	0x3d87b9c2	0.06627227
110	0xbd46f438	-0.04857275
111	0xbc6a7300	-0.014309645
112	0x3cd83adb	0.026395252
113	0xbdc30ede	-0.0952432
114	0x3dc5cf99	0.09658737
115	0x3d94643e	0.07245682
116	0x3c72e240	0.01482445
117	0x3d665b3c	0.05623935
118	0xbdaa3fae	-0.08312927
119	0x3d831b21	0.06401659
120	0xbc9d2008	-0.019180313
121	0xbbbb6cca	-0.005719756
122	0xbb3b2aa0	-0.0028559342
123	0xbd83d745	-0.06437544
124	0xbce129c4	-0.027485736
125	0x3cc484c8	0.023989096
126	0x3d01a912	0.03165538
127	0x3cbb5ae0	0.022870481
128	0x3ba38387	0.0049900445
129	0x3d819869	0.06327898
130	0x3d392170	0.045197904
131	0x3d8a4504	0.06751445
132	0xbcf1e88b	-0.02952983
133	0xbd847654	-0.06467882
134	0x3d2c389a	0.042046167
135	0x3d6b7f06	0.057494186
136	0x3d8fa65c	0.070141524
137	0xbd7671e3	-0.060167205
138	0x3d1e00a2	0.038574822
139	0x3cd86449	0.026415007
140	0x3dc79ca1	0.097466715
141	0xbcefbc54	-0.029264607
142	0xbd7fb929	-0.06243244
143	0x3d8e6fe6	0.06954937
144	0x3c237c98	0.009978436
145	0xbcf7394e	-0.030178692
146	0xbd7382aa	-0.059450783
147	0xbd5594e9	-0.052143965
148	0xbd907f96	-0.07055585
149	0xbc8a26d1	-0.016864212
150	0x3d791a66	0.06081619
151	0xbd081ec1	-0.033232454
152	0x3d95bb7b	0.0731115
153	0xbdd17f60	-0.10229373
154	0x3c3b9ae6	0.011450505
155	0xbd0a2177	-0.03372332
156	0x3a80621b	0.0009794863
157	0xbcc4b488	-0.024011865
158	0x3d4e0042	0.050293215
159	0x3d8ee9e0	0.06978202
160	0x3c4e62f4	0.012596834
161	0x3d295c2d	0.04134767
162	0x3d9fe782	0.078078285
163	0x3bfca46c	0.0077100303
164	0x3d0991c5	0.033586282
165	0xbd162290	-0.036654055
166	0xbd787ea8	-0.060667664
167	0x3c095297	0.008381507
168	0x3c4bd04e	0.0124398
169	0xbdbed014	-0.093170315
170	0xbd093b19	-0.033503626
171	0x3d8d4f87	0.06899934
172	0x3c9bcc1f	0.019018231
173	0x3c91e0dd	0.017807418
174	0x3da7ca28	0.08192855
175	0xbbaa7900	-0.0052024126
176	0x3cd948d2	0.026523981
177	0x3db88b78	0.090109766
178	0x3db5d697	0.088788204
179	0x3ad30e66	0.0016102314
180	0x3d9bcb26	0.07607107
181	0x3d360356	0.044436775
182	0x3d3da9b5	0.046304423
183	0x3d604933	0.05475731
184	0x3d260ace	0.040537648
185	0xbdd7d164	-0.10537985
186	0xbdd4fddf	-0.103999846
187	0xbccaa4d6	-0.024736803
188	0xbd2b3e70	-0.041807592
189	0x3c18f468	0.009335615
190	0x3d3a002b	0.045410316
191	0x3d5c61a2	0.053804047
192	0xbd90e384	-0.07074645
193	0xbdb93e38	-0.090450704
194	0x3d617310	0.055041373
195	0xbba95ac2	-0.00516829
196	0x3d640739	0.05567095
197	0xbdc3cf03	-0.09560969
198	0xbd550f9d	-0.052016843
199	0x3c654410	0.013993278
200	0xbcb6076c	-0.022220336
201	0x3cac3040	0.021019101
202	0x3d21a2c3	0.039461862
203	0x3d18457e	0.037175648
204	0xbcb96820	-0.022632658
205	0xbd9efa6d	-0.07762609
206	0x3dca6767	0.09883004
207	0xbd655959	-0.05599341
208	0xbd95e12a	-0.07318337
209	0xbc9c85d2	-0.01910678
210	0x3d3301ad	0.04370277
211	0xbc90ecd7	-0.017691059
212	0xbd5887b9	-0.05286381
213	0xbd346b03	-0.044047367
214	0x3d44b9b6	0.04802867
215	0xbace581e	-0.0015742814
216	0x3dc7ad75	0.09749881
217	0xbbebc600	-0.0071952343
218	0x3d9ba8f5	0.07600585
219	0xbdac9ace	-0.08427964
220	0x3d95bba5	0.07311181
221	0xbda593b4	-0.08084813
222	0xbd8d7063	-0.06906202
223	0xbda31401	-0.079628
224	0xbdbaddee	-0.09124361
225	0xbd8dc0a2	-0.069215074
226	0x3dc0dd65	0.09417228
227	0xbdab2168	-0.08355981
228	0x3dd2c0ae	0.10290657
229	0x3d9aab7f	0.075522415
230	0x3db092d0	0.08621752
231	0xbd935635	-0.07194177
232	0x3d3377fe	0.043815605
233	0x3d5e6062	0.054291137
234	0xbcf16b1d	-0.02947002
235	0xbd8334a2	-0.06406523
236	0x39845def	0.00025246988
237	0xbd533e23	-0.05157293
238	0xbcff7c94	-0.031187333
239	0x3d5c443c	0.05377601
240	0xbd8ca365	-0.068671025
241	0x3d8b4be9	0.06801588
242	0x3d2aa02f	0.04165667
243	0x3d35ee5d	0.044416774
244	0xbd7aad93	-0.06120069
245	0x3db147af	0.08656251
246	0x3d434e37	0.047682013
247	0xbd92fdca	-0.07177313
248	0xbba6aab3	-0.005086267
249	0xbda085d2	-0.07838024
250	0xbd5469bf	-0.05185866
251	0x3ce75961	0.028240861
252	0xbdb50ad8	-0.08839959
253	0x3db2a969	0.08723719
254	0x3db84b9f	0.089987986
255	0xbdb0d817	-0.08634966

fc4.bias f4 [14]
0	0xbcfeea96	-0.031117719
1	0x3d76d5aa	0.06026236
2	0x3dd6e732	0.10493316
3	0x3be7c081	0.007072509
4	0x3d3c494d	0.045968343
5	0x3d799854	0.060936287
6	0x3bb7b3fd	0.005606173
7	0xbd8a175d	-0.067427374
8	0xbd3b3443	-0.045704138
9	0xbd5e2e72	-0.054243512
10	0xbbc56f82	-0.0060252557
11	0x3d86b1b1	0.06576861
12	0xbcf9eae8	-0.03050752
13	0xbd99961b	-0.074993335
