act_net_done.pth (torch, 16911 bytes, 8 tensors)

fc1.weight f4 [44, 20]
000000 0a 4d 3e 3d 53 76 45 be c0 cc 3f 3c 77 e6 61 be
       0.04646019 -0.19283418 0.011706531 -0.22060572
000010 61 c8 18 be ef 46 2d be eb b3 4f be 9d 67 4d be
       -0.14920188 -0.1692159 -0.20283477 -0.20059057
000020 35 9b 01 be 22 b1 24 be 6b 80 91 be 42 f3 10 bd
       -0.12656863 -0.16083196 -0.28418288 -0.03538824
000030 12 54 8f bd ad 4a 0a 3d 48 2e 95 be ef 92 80 be
       -0.06998457 0.033762623 -0.29136872 -0.251121
000040 6e e4 1e be 64 0f f1 bd 60 aa 42 be 36 4a f2 bd
       -0.15516827 -0.11770514 -0.19010305 -0.11830561
000050 bd 41 2d be 84 8e 86 be b1 d2 45 be 90 08 b3 bd
       -0.16919608 -0.26280606 -0.19318654 -0.087418675
000060 1f 4c 6e be 3d e9 19 3d 22 71 1e be e7 63 95 3b
       -0.23271225 0.03757595 -0.15472844 0.0045590284
000070 f3 d8 1d 3c 32 06 52 bd 1d 2d 47 bd a7 ec 31 bd
       0.009634244 -0.05127544 -0.048627008 -0.04343858
000080 5b 92 9c be d3 2e 7b bc e5 d8 71 bd b3 64 c0 3b
       -0.3058041 -0.015330988 -0.059044737 0.0058713793
000090 42 1c a0 bd 8e 1c ab bd 9c ae 31 be d1 75 e0 bd
       -0.0781789 -0.08355056 -0.17351764 -0.10959972
0000a0 6a 56 01 3d 86 26 02 be fd 49 25 be 53 15 4f be
       0.03157655 -0.12710008 -0.16141506 -0.20222978
0000b0 42 00 05 be ea d5 81 bd 37 28 39 be dd aa 98 bd
       -0.1298838 -0.06339629 -0.18081747 -0.074544646
0000c0 0d b7 7a be 3f df d6 bd 5f 13 24 bd 6d 73 44 bc
       -0.24483891 -0.104917996 -0.040057536 -0.01199041
0000d0 41 1c 65 bd 5c 7c 6f be 46 cb b8 bd b3 b3 f7 bd
       -0.05593515 -0.23387283 -0.09023146 -0.12094822
0000e0 4d 7c 3e be 4d 0c 2a bd 7e 90 84 be 73 4c 10 3c
       -0.18602104 -0.041515637 -0.2589149 0.008807289
0000f0 89 5b 41 be c1 b8 89 be 45 4b 85 be e7 4a 6f bc
       -0.18882574 -0.2689877 -0.2603399 -0.01460526
000100 50 14 00 be 4d 6d 07 3c 04 a4 24 be 5d 96 92 bd
       -0.12507749 0.008265805 -0.16078192 -0.07157586
000110 7d 52 a2 3d 5a 5f 32 bd 38 a4 f6 bd cf b6 4d bd
       0.0792589 -0.043547966 -0.12043041 -0.050223168
000120 89 5d 12 be cd 0e 46 be 9a 32 f5 bd 65 76 eb bd
       -0.14293493 -0.19341584 -0.11972542 -0.11497191
000130 9f 51 59 be e0 00 08 be fe bf a4 bd dd b2 68 bd
       -0.21222542 -0.13281584 -0.08044432 -0.056811202
000140 fd 5e 5c be 36 15 c1 bd be 5b e3 bd cf 5a 95 3d
       -0.2152061 -0.09427874 -0.11101483 0.07292711
000150 6a 7c 3d be 45 55 c2 3d a2 91 45 be 90 15 d4 bc
       -0.18504491 0.0948892 -0.19293836 -0.025889188
000160 2e 03 25 be 20 da 62 3d 02 b1 c7 bd 3b 76 9b bd
       -0.16114494 0.0553838 -0.097505584 -0.0759091
000170 37 d1 84 be e6 f1 6d be cd 5a 27 bb f3 09 06 bc
       -0.25940868 -0.23236808 -0.00255363 -0.008181083
000180 57 48 f2 bd de eb 52 be 00 81 5e be 17 e5 a5 bc
       -0.11830204 -0.20597789 -0.21728897 -0.02025084
000190 1d f8 a1 be f1 25 a2 be b7 2d bd be ee 1a f6 bd
       -0.31634608 -0.31669572 -0.3694894 -0.12016855
0001a0 3a 46 b3 bc 86 7d 21 be 6d 48 84 3c 9a 67 2c bb
       -0.021884073 -0.1577054 0.016147817 -0.0026306869
0001b0 17 f8 80 3d 8a bd 3b be 2f 41 92 be c7 c2 26 be
       0.062973194 -0.18334022 -0.28565356 -0.16285239
0001c0 d0 54 ef bc 12 e4 9c be c7 9f d5 3c 00 dc d0 b9
       -0.029215246 -0.30642754 0.026077164 -0.00039836764
0001d0 70 8d 66 bd 9a 4d 38 3e 23 6f da bc 47 28 e0 bd
       -0.05628723 0.17998353 -0.026664322 -0.10945182
0001e0 ca 05 97 bd 87 44 87 3c 5b 9c 2f be 92 bb f8 bd
       -0.07374151 0.016512169 -0.17149489 -0.12145151
0001f0 6b ba 74 be 3c 5e dd bd 59 ce 32 be f4 35 f3 bd
       -0.23899238 -0.108089894 -0.17461528 -0.11875525
000200 f7 79 59 be 34 15 54 be ac 3b 02 be 55 27 3d be
       -0.21237932 -0.20711213 -0.12718076 -0.18472035
000210 9a 37 49 be 9a 7f 28 3c fc d6 94 bd 04 59 3a be
       -0.19650117 0.010284329 -0.072675675 -0.1819802
000220 79 ea 27 be c0 4e 25 be ed 33 1c be 90 08 a3 bc
       -0.16398038 -0.16143322 -0.15254183 -0.019901544
000230 7e c5 c9 bd 00 fb b4 bd 52 92 f4 bd 46 48 2f be
       -0.09852122 -0.08836937 -0.11941971 -0.17117414
000240 7f ed 19 be 14 81 f0 bd 72 19 18 be 90 b5 f9 bc
       -0.15032004 -0.1174337 -0.14853457 -0.030482084
000250 29 bc 96 bd 60 8f 33 be cb 3e ee bd ff aa 54 be
       -0.073601075 -0.17535162 -0.116330706 -0.20768355
000260 2d 0b 35 be 4d 69 14 be 53 1c 20 be 30 3b a1 3d
       -0.17680044 -0.14493294 -0.15635805 0.07872617
000270 36 0d ae bd e1 10 8d bd c0 60 3f bd 19 25 13 be
       -0.084986135 -0.06887985 -0.046723127 -0.1436962
000280 da 62 06 bd 3b e5 03 be b5 73 83 be dd 72 a5 3d
       -0.032809116 -0.12880413 -0.25674215 0.08078549
000290 ad 51 e9 3c 9a 6b 6e 3c d3 6b ed bd 4e 6a 77 be
       0.028481329 0.014552021 -0.115928315 -0.24161646
0002a0 db b5 79 bd bd d7 f4 bc aa 68 3f be b7 72 6a bd
       -0.060964447 -0.029888028 -0.1869227 -0.057238307
0002b0 da 07 73 be de 55 f0 bd ec f5 33 be 7a 94 95 be
       -0.23733464 -0.11735128 -0.1757428 -0.2921484
0002c0 33 47 5d 3c fe 25 73 bd 4c 3b 44 be 8d 38 de 3c
       0.013505745 -0.059362404 -0.19163245 0.027126575
0002d0 1d cc ce 3d 81 75 9b bd 39 c6 9b be cd 85 8d be
       0.10097525 -0.075907715 -0.3042467 -0.27641144
0002e0 ed cd 98 bd 91 a9 3c be 9d dd 58 3d ed e6 07 bd
       -0.07461152 -0.1842406 0.052945722 -0.033179212
0002f0 2e 40 52 be c2 1b 13 bd 8c c1 59 be 7d 57 37 be
       -0.20532295 -0.035915144 -0.21265239 -0.17904468
000300 d3 ab 19 bd 5d 74 88 3d 3d 1e 21 be d6 02 cf bd
       -0.03751738 0.066628195 -0.15734191 -0.10107963
000310 75 45 21 bd a8 17 00 bd e4 dd 92 bd d7 a9 58 be
       -0.03937288 -0.03127256 -0.071712285 -0.21158539
000320 db 0c 52 be ea 6e b7 bd 71 24 83 bd eb 09 99 bd
       -0.20512716 -0.08956702 -0.06403435 -0.07472595
000330 57 19 de 3d 12 91 93 bd e3 19 a7 bd 09 3f 2e be
       0.10844677 -0.07205404 -0.081592344 -0.17016234
000340 85 b5 56 be 5c 01 b8 bd 6d 12 65 be 94 ba 86 be
       -0.20967682 -0.08984634 -0.2237031 -0.26314223
000350 9d 25 0c bd 0d 7b 82 be c7 1f 80 3c ad fa 4b be
       -0.03421556 -0.25484505 0.015640153 -0.19919844
000360 f5 40 8a bd 21 10 72 be d8 3b 09 bd 12 fd 98 3d
       -0.06750671 -0.23638965 -0.033504337 0.07470144
000370 e3 29 84 bc d9 af bb bd 18 a6 88 bd 86 24 25 be
       -0.016133254 -0.091644 -0.06672305 -0.16127214
000380 58 64 fa bd 10 76 4b 3e 57 c2 0e be 2b b6 24 bd
       -0.1222617 0.19869256 -0.13941322 -0.04021279
000390 53 93 ac 3c 26 66 fc bd 73 5c fa 3c 5a 64 89 bc
       0.021066343 -0.12324171 0.030561661 -0.016771484
0003a0 77 27 3b be 54 f5 1d be e7 0d 0b bb ea bb 73 be
       -0.18276773 -0.15425617 -0.0021218003 -0.23802152
0003b0 98 36 30 be b3 44 17 3c 33 39 35 3b fa c2 18 bd
       -0.17208326 0.009232688 0.0027652502 -0.03729532
0003c0 ea c6 ae bc b9 76 62 be 0d 07 a2 bd 3a ad 5c bc
       -0.021335084 -0.22115602 -0.07911501 -0.013469035
0003d0 87 c3 d2 3c 05 b0 6a bd 00 02 15 bb c0 00 d4 bb
       0.025728 -0.05729677 -0.0022736788 -0.006469816
0003e0 5d 6e 73 be 93 08 3b be cd 74 0a be e6 5e 48 be
       -0.23772569 -0.1826499 -0.13521118 -0.19567451
0003f0 48 01 c3 bd 23 a0 4a be 41 df 73 be 3b 02 7b bd
       -0.09521729 -0.1978765 -0.23815633 -0.061281424

fc1.bias f4 [44]
000000 1c 76 92 3d 2d 30 41 bd 12 57 1e be e7 95 56 3d
       0.07151434 -0.047165085 -0.15462902 0.05238905
000010 65 40 a5 3b 75 c9 83 3d f1 22 29 bd da ff 50 3e
       0.005043077 0.06434909 -0.04129309 0.204101
000020 4f ef 05 3e 25 48 8c 3d 5e 21 56 3e 13 74 25 bd
       0.1307957 0.06849698 0.20911166 -0.0403939
000030 ae 57 26 3a 06 20 32 be 3e b6 1d be c6 26 0c be
       0.0006345463 -0.17395028 -0.15401551 -0.13686666
000040 a1 8f 93 bd 6c 28 f8 3d de 90 cd 3d e6 9b 21 be
       -0.072051294 0.12117085 0.10037397 -0.15782127
000050 d3 0b e5 bd 74 bf 93 3d a3 2d 2b 3e 6a e7 8f bd
       -0.11183896 0.07214251 0.16716628 -0.070265606
000060 27 93 1b be ee ee 59 be 99 b9 d8 bc 75 25 ef bd
       -0.15192853 -0.2128255 -0.026455687 -0.11677066
000070 cc 56 cc 3c 72 68 f1 bd 8b 25 46 3e 9b 4b 51 be
       0.024943732 -0.117874995 0.19350259 -0.20438997
000080 2e f5 db bd e0 22 4a be 58 95 67 bd 72 8f 29 3e
       -0.10740124 -0.19739866 -0.05653891 0.16558626
000090 97 b1 85 3d bf 19 57 bd a7 e2 27 be a4 b4 06 bb
       0.06528013 -0.052514788 -0.16395055 -0.0020554448
0000a0 c2 7d 18 3e 22 11 b6 3d 18 dc 96 bd 39 51 26 3d
       0.14891723 0.088899866 -0.07366198 0.040604804

fc2.weight f4 [36, 44]
000000 43 5e 95 be b2 93 08 be 5e 09 93 bd 26 93 9e bd
       -0.29173478 -0.13337591 -0.07179521 -0.0774291
000010 06 7f 0e be dd 16 41 be cd bc db 3b fa 1f c9 bc
       -0.13915643 -0.18856378 0.0067058564 -0.02455138
000020 13 4d 23 3d fa 31 be bd 3b 37 3d be 15 91 9b bd
       0.039868426 -0.09286876 -0.184781 -0.075960316
000030 0a ae 43 be 02 6d 12 be 88 b2 f9 bd ff 87 79 be
       -0.1910936 -0.14299396 -0.12192255 -0.24368285
000040 9b ae 97 be ec ab 34 be a6 da b4 bd f3 a1 79 bc
       -0.296254 -0.17643708 -0.088307664 -0.015236366
000050 77 5b d5 3d 53 69 53 be 80 62 74 bd 2f 84 eb bd
       0.10417836 -0.20645647 -0.05966425 -0.114998214
000060 df b5 5a be a9 73 43 be c0 e6 25 bd ae c0 4e be
       -0.21358441 -0.1908709 -0.040503263 -0.20190689
000070 e4 af d1 bd 18 8b 9d 3d 97 51 39 be cf 24 63 bd
       -0.102386266 0.07692546 -0.1809753 -0.055455025
000080 ab 2c 6d be 90 81 01 be cd 8d 2a bb f9 50 11 be
       -0.2316157 -0.1264708 -0.0026024461 -0.14191045
000090 3d 1c 37 3e 14 6c 06 be a1 70 cc bd 0d 8e 15 3c
       0.17881866 -0.13127166 -0.0998242 0.009128106
0000a0 c8 d3 55 be 8f de 78 be f4 8c ca bd d9 5b fa bd
       -0.2088157 -0.2430365 -0.09890166 -0.1222455
0000b0 d9 7c 48 be 2f 75 8f be 47 95 9b 3c 12 bf 56 be
       -0.19578876 -0.2801909 0.01899208 -0.20971325
0000c0 ad 51 0e bc 2d bf 77 bd eb 33 62 be 6a e5 45 be
       -0.008686465 -0.060485054 -0.22090118 -0.19325796
0000d0 1a 6f 82 be 8e a7 ce bd a4 f4 a3 bd f7 ff 77 be
       -0.2547539 -0.10090552 -0.08005646 -0.24218737
0000e0 55 de 4b bd 21 28 02 be e7 f8 9a bd bd e9 32 bd
       -0.04977258 -0.1271062 -0.075670056 -0.04367994
0000f0 77 8b 11 bd 57 c0 f5 bd 91 0e 03 be 96 a1 09 be
       -0.035533395 -0.119995765 -0.12798525 -0.13440546
000100 d3 58 fb 3c ed b9 1a bc 8e b1 bb bd 67 e1 d5 bb
       0.030682003 -0.009443742 -0.09164725 -0.006527114
000110 b0 94 e0 bc 16 e3 cc bd 10 65 d9 bc bd 50 55 3d
       -0.02741465 -0.10004251 -0.026537448 0.05207895
000120 a0 19 e3 bd 30 ae 8f bc 61 bd be bd 3d fe 3d 3d
       -0.11088872 -0.017539114 -0.09313465 0.04638504
000130 70 0a fd bd 17 61 b0 bd 90 a6 0a be d0 4a 22 bd
       -0.123555064 -0.086122684 -0.13540101 -0.039622128
000140 81 dc 4a be f6 9a 4b be ed 70 b9 bc cd 3b 27 3c
       -0.19810678 -0.19883332 -0.022636855 0.010207129
000150 14 fc 8f be 83 a8 d9 3d 5c ba 74 bd 93 c1 53 bd
       -0.28122008 0.10627844 -0.05974804 -0.05169828
000160 ad a7 15 be 6d ab 62 bd 71 07 cf bd 21 ae a7 bd
       -0.14614744 -0.055339266 -0.10108841 -0.08187509
000170 5b b2 b6 bd 7a aa ec bd ae cb 4f be 5a 53 6c be
       -0.08920737 -0.11555953 -0.20292541 -0.23078671
000180 ff bc 5b bd e8 a9 05 be 86 e3 31 be 87 af cb bd
       -0.053647038 -0.13053095 -0.1737195 -0.099455886
000190 36 48 16 be 40 ef 06 bd 52 63 48 bd 54 9b b2 bd
       -0.14675984 -0.03294301 -0.048922844 -0.08721033
0001a0 a3 c0 6e be ef 45 64 3e b3 d1 e5 bb 40 5c 4f bc
       -0.23315673 0.22292303 -0.0070135235 -0.012656271
0001b0 1d 1e 70 bd ca 1d 5f be 89 4b bc bd 23 db 2e be
       -0.05862247 -0.21788707 -0.09194095 -0.17075782
0001c0 17 9f 1b be d5 f9 52 be 8d 5a a0 bd 77 be 03 bd
       -0.15197407 -0.20603116 -0.07829771 -0.032164063
0001d0 fa b4 63 be 0d 1d 48 bc ad 9d 31 3d 6a 2b a6 be
       -0.22237006 -0.0122139575 0.043363262 -0.32454997
0001e0 77 76 75 bd 0c a2 49 be 61 e2 3a be 01 98 85 bd
       -0.05992743 -0.19690722 -0.18250419 -0.06523133
0001f0 57 3d ca bd 27 97 62 3c b3 f2 36 bb 16 4e 15 be
       -0.09874981 0.013829983 -0.0027915656 -0.14580569
000200 09 df 7b be 58 95 0d bd 23 c3 7b be 88 e7 3d bd
       -0.245968 -0.034566253 -0.24586158 -0.046363384
000210 33 27 96 b9 0c 87 f1 bd 65 63 4e bd 00 87 0b 3b
       -0.00028639435 -0.11793336 -0.05038776 0.0021290183
000220 fc 7a a7 bd 7a c3 f7 bd 22 38 22 be ba 4f 38 3d
       -0.08177754 -0.12097831 -0.15841725 0.04499791
000230 c1 5d b5 bd ff d3 36 bd 83 fb 1c bd f8 bf d6 bd
       -0.08855773 -0.04463577 -0.038325798 -0.10485834
000240 90 34 6c be 4f bb 64 bd 99 f7 90 be ca 5e 12 be
       -0.23066926 -0.055842694 -0.28313902 -0.14293972
000250 db 8b 9b bd a8 d1 8c bd da 8a aa 3c ed 84 16 be
       -0.07595035 -0.06875926 0.020818163 -0.14699145
000260 dd 4c 4f be 77 31 51 be 27 b1 68 be da 8a e9 3c
       -0.20244165 -0.20429026 -0.22723828 0.028508592
000270 b7 d0 07 be 1d 92 20 3d b0 06 f6 bc 93 c1 0b bc
       -0.13263212 0.039201844 -0.030032486 -0.008530038
000280 e7 99 6e 3d 13 6f 59 bc ed bf 42 be 33 7c 90 3d
       0.05825224 -0.013271111 -0.19018526 0.07054939
000290 6b 9a 59 be d3 da ad 3d 90 a3 ba bc 17 bb f1 bc
       -0.21250312 0.08489003 -0.02278307 -0.029508157
0002a0 af 10 5c be f3 d6 21 be b3 91 95 3b 5a 56 3d 3d
       -0.2149074 -0.15804653 0.004564488 0.04622493
0002b0 3f b7 71 bd 47 ec 35 be 35 01 49 be dd 8f 37 be
       -0.059012648 -0.17765914 -0.19629367 -0.17925973
0002c0 a0 d1 ae bc 5d 7f ff bc e7 5a 14 bd 76 bf 78 bd
       -0.021340191 -0.031188661 -0.036219504 -0.060729466
0002d0 2d 89 93 bc a7 4c 6e be ad 4f d3 3d e6 30 5c be
       -0.018009746 -0.23271428 0.10317931 -0.21503028
0002e0 16 d0 45 be 50 c4 ed bc 8d 12 63 be cc 65 71 bd
       -0.1931766 -0.029024273 -0.22175045 -0.05893497
0002f0 9a f2 a7 be 48 90 95 3d 4c bf 0d be 89 d3 bd bd
       -0.32802278 0.0730291 -0.13842505 -0.09268863
000300 13 6f 77 be 0b 7d 0e be e7 62 b3 bd 9d 3d 8d bd
       -0.24163465 -0.13914888 -0.087590985 -0.068965174
000310 f7 9e 50 bd 27 61 48 be 54 bd 57 be 3a f9 9b bc
       -0.05093285 -0.1956831 -0.21068317 -0.019039739
000320 da 6f 6a 3c ba 28 4a be eb c6 81 bd 36 62 f6 bd
       0.014308894 -0.19742098 -0.06336769 -0.12030451
000330 5b 89 d1 bd a9 43 e1 bd b3 dd 16 3c d7 6f e4 bc
       -0.102312766 -0.10999233 0.009208131 -0.02788536
000340 20 73 4b bd 48 fc 5c bd dc f5 54 bd 35 dc 29 3e
       -0.04967034 -0.05395153 -0.051992282 0.16587909
000350 c7 1e ba bd 03 60 e8 bd 4e 05 3c be a8 13 21 be
       -0.090879016 -0.11346438 -0.18361399 -0.15730155
000360 80 2f 10 be d0 46 4d be b7 a6 23 be df d9 aa bd
       -0.1408062 -0.20046544 -0.15981565 -0.08342337
000370 c0 ee 0a bd eb 95 38 be ff 53 67 be f9 de 84 bd
       -0.033919096 -0.18025939 -0.22590636 -0.06487841
000380 b7 57 28 be af 44 7c bd 56 45 82 bd 7a 21 fb bc
       -0.1643971 -0.06158894 -0.06360881 -0.030655611
000390 9a 1a 2f 3d e3 36 bf bd ea f5 cb bd 93 1f d1 bd
       0.04274998 -0.09336641 -0.09959014 -0.102111004
0003a0 b5 11 9c be 8b b7 58 be 86 75 df bd 98 20 0a be
       -0.3048226 -0.21163766 -0.10911088 -0.13488996
0003b0 51 ee 67 bd 7b 7d 3f 3e ba 79 60 be 35 02 0e be
       -0.05662376 0.18700211 -0.21921435 -0.1386803
0003c0 a5 90 08 be c5 7a 94 be f0 f0 f4 bd 65 9b 31 be
       -0.13336428 -0.28999916 -0.11960018 -0.17344435
0003d0 72 f7 49 be 49 1e 9d be 68 d5 93 be b3 8d bb bd
       -0.19723299 -0.30687168 -0.28873754 -0.09157886
0003e0 55 d4 31 be bb 9b f2 bd 8b 32 01 be e8 ed c1 bd
       -0.17366154 -0.118461095 -0.12616937 -0.09469205
0003f0 98 bd bd bd 05 1e 04 3e 52 20 a2 be 9e 7b cc bd
       -0.09264678 0.12902077 -0.31665283 -0.099845156

fc2.bias f4 [36]
000000 05 4e c9 3b c3 c1 c5 bd 4b 2f 18 3e 43 94 c0 bd
       0.006143334 -0.09656098 0.14861791 -0.09403279
000010 cc c2 a7 3d 7d 9d 1b 3d 4a 61 e6 3d a1 bb 32 3d
       0.081914514 0.03799199 0.11249025 0.043635968
000020 42 3f bd bc 6d f1 b4 bd 5f 37 df bc d8 60 5c bd
       -0.023101453 -0.08835111 -0.027248083 -0.053803295
000030 94 75 8a bd ad 31 1a bd 26 7b 2b 3c 76 88 bd bd
       -0.067607075 -0.03764503 0.010466373 -0.092545435
000040 af 48 b1 3d 99 24 52 3d d2 ea 65 bd 79 a3 a5 bd
       0.086564414 0.051304433 -0.056132145 -0.080878206
000050 14 b9 06 3e 48 65 74 3d 9a ef ec 3c bb f3 04 bd
       0.13156539 0.0596669 0.028922845 -0.032459002
000060 72 b7 3b bd c3 2b e3 bd a1 2a 17 3e 5a c2 18 3e
       -0.045829244 -0.11092331 0.14762355 0.14917889
000070 7a 90 19 be 10 8b d7 bc e3 f0 b4 bc f7 7d 17 be
       -0.1499652 -0.026311427 -0.02208752 -0.14794146
000080 5d 5f 95 bc fa 00 d4 bd f4 53 f9 3c 8f b9 03 be
       -0.01823395 -0.10351749 0.03043554 -0.12863754

fc3.weight f4 [21, 36]
000000 67 39 1f 3d 69 d0 8e bd 81 13 37 be a8 9b 7c be
       0.038873103 -0.06973345 -0.17878534 -0.24668753
000010 37 f8 81 bc ef 19 73 be ce 70 77 bd af 30 9d 3d
       -0.015865428 -0.23740362 -0.060410313 0.07675301
000020 23 61 5f be 67 f0 07 3e 97 2a cd bc 1d ac 9b bd
       -0.21814398 0.132753 -0.025044722 -0.076011874
000030 c3 81 98 bc c3 9f 97 be d6 1b 44 be 1c 9e 27 be
       -0.018616563 -0.29614076 -0.19151244 -0.16368908
000040 14 89 fb bd da 70 33 be 8f 5d 3f bd 87 80 3a 3d
       -0.12282005 -0.17523518 -0.046720084 0.04553273
000050 0b 59 ef bd 3f cf a7 3d e3 e2 63 be 8c 30 65 be
       -0.116869055 0.08193826 -0.22254519 -0.223818
000060 91 b6 27 be 4c 9e 54 be 3b 42 b0 be f1 49 22 be
       -0.16378237 -0.2076351 -0.3442553 -0.15848519
000070 64 62 65 be 29 20 29 be 07 9b 27 be 06 55 05 be
       -0.22400814 -0.16516174 -0.16367732 -0.13020715
000080 46 8a 7a be f7 4b 5e 3d 2b 99 86 3d 2b c0 04 bd
       -0.2446681 0.054271664 0.06572183 -0.03240983
000090 29 c4 be bd 19 cf 1e be 34 d8 6e be a7 1d cf 3c
       -0.09314758 -0.15508689 -0.23324662 0.025282694
0000a0 3b e1 7f bd bc 23 de bd 83 78 92 bd 7a 92 84 bd
       -0.062470656 -0.108466595 -0.07151892 -0.06473251
0000b0 03 20 69 be b1 a6 2f be d8 3f c6 bd c8 a2 a7 3d
       -0.22766118 -0.17153431 -0.09680146 0.08185345
0000c0 43 a6 f3 bd c4 cd dc bd 68 83 04 be 9a fa 7c 3c
       -0.11896946 -0.10781434 -0.12940753 0.015440607
0000d0 d7 1b 56 be 80 62 06 bc 1a 5b 91 3b 99 0b 4f be
       -0.20909058 -0.008202195 0.004435909 -0.20219268
0000e0 cd b6 5d 3b 67 00 a8 3d b3 94 ea 3b 35 96 83 be
       0.0033830882 0.08203202 0.0071588396 -0.25700536
0000f0 39 bb b0 bd e8 6f 28 be 18 e0 c3 be 76 3c 34 be
       -0.0862946 -0.16448939 -0.38256907 -0.17601189
000100 17 01 73 bd aa 97 3c be d7 56 43 be d0 7c f7 bc
       -0.05932721 -0.1841723 -0.19076096 -0.030210882
000110 49 89 3e be 83 55 9e bd 62 0a 05 be 6f c9 7c bd
       -0.18607058 -0.07731154 -0.12992242 -0.06171554
000120 d4 20 17 be 81 60 d7 bd 37 20 9a bc e2 23 24 be
       -0.14758617 -0.105164535 -0.01881419 -0.16029313
000130 eb eb b2 be 90 1d 57 be 4d f2 e8 bd 3b 68 60 bd
       -0.34945616 -0.21007371 -0.1137434 -0.054786902
000140 8c 1d 19 be f3 b0 1a be 6d 87 16 3d 3a 05 9c 3c
       -0.14952677 -0.15106563 0.036750246 0.019045461
000150 f9 12 85 bd 17 97 5d be 20 bf a9 bd b9 eb 19 be
       -0.06497759 -0.21639667 -0.08288407 -0.15031327
000160 be e3 20 be 42 8c a7 bd bc 0c 76 be cf 79 04 be
       -0.15711877 -0.08181049 -0.24028295 -0.12937091
000170 83 82 ac be ad e1 f9 bd 31 df 07 be 53 f4 97 3c
       -0.33693323 -0.12201247 -0.13268735 0.01854912
000180 2d 93 37 3d 42 8c 5d bd 53 d9 6e be 01 ac 29 be
       0.044818092 -0.05408884 -0.2332509 -0.1656952
000190 8d fd 3d bd 9d 15 61 be 22 81 4c be 0a bd 2b 3d
       -0.046384383 -0.21980901 -0.19971135 0.04192833
0001a0 dd 57 9c bc 9f 63 7d bd 93 2d f8 bd c9 49 c6 bd
       -0.019084865 -0.061862584 -0.121180676 -0.09682042
0001b0 21 d6 00 be 13 01 57 be 9b e7 84 3d af ba a9 bd
       -0.12581684 -0.20996504 0.06489488 -0.0828756
0001c0 0d bc 22 bd 11 1b 32 be 73 af 22 3d 33 12 22 bc
       -0.03973012 -0.17393138 0.039718103 -0.009892034
0001d0 d1 7c 1d be 99 df 8e bd 45 76 08 be bd 42 ad bd
       -0.15379645 -0.069762416 -0.13326366 -0.08459995
0001e0 cd c7 99 bc a1 a8 12 be 4a cf 7b be 05 c1 a9 bd
       -0.01877203 -0.1432214 -0.24590793 -0.08288769
0001f0 da 5b 0c be c0 1b d6 bd ad 7a 27 be 4a 6c 3d bd
       -0.13706914 -0.10454512 -0.16355391 -0.04624585
000200 0f df aa bd 27 6e 82 bb 7c a3 8c be 9d 3b 18 3d
       -0.08343326 -0.0039804163 -0.2746848 0.037166227
000210 12 74 ad bd 9b c6 0f be 39 2b 6b be 6d 78 06 bc
       -0.08469404 -0.14040606 -0.22965707 -0.008207423
000220 50 24 8c 3d 82 e7 d2 bd eb 82 13 bd d0 01 32 3d
       0.068428636 -0.10298063 -0.036013525 0.04345876
000230 32 a2 f0 bd e3 e1 97 bd 4d 38 0e bb fc ac 9b bd
       -0.11749686 -0.07416131 -0.0021701038 -0.076013535
000240 6d c7 98 be aa fc f3 bd 50 35 a5 bc c2 1e 61 be
       -0.2983965 -0.11913426 -0.020167023 -0.2198439
000250 b2 62 2d bd 49 79 3c be e7 56 21 bb a5 3c db bd
       -0.04233045 -0.18405642 -0.0024618448 -0.107049264
000260 c0 ca 0d bd 53 f7 97 bc ff cf 0f be 11 b4 fa bd
       -0.034617186 -0.01855055 -0.14044188 -0.12241376
000270 4c 0a b1 bd 0a d0 e1 bd d8 45 c4 bd 04 88 f0 bd
       -0.08644542 -0.110260084 -0.09583634 -0.11744693
000280 33 b9 a9 3b 3e 0d 5c bd 2f d9 a7 bd 3a 20 c6 bc
       0.005179548 -0.053723566 -0.08195721 -0.024185289
000290 f9 00 29 be d1 4d 26 be b7 f4 03 bd 1a a7 00 be
       -0.16504277 -0.16240622 -0.0322158 -0.12563744
0002a0 4a af 3f be 7b 5e 51 bd bd e8 0c 3e 8d 72 38 3c
       -0.18719211 -0.051115494 0.13760658 0.01125778
0002b0 d3 4f 9f bd 47 b6 4e bd 3a 57 7d bc 40 0c be bc
       -0.07778897 -0.050466802 -0.015462691 -0.0231992
0002c0 73 6e 74 bc 48 56 ca bd 8e ad f4 bd 3a a2 26 3d
       -0.014918911 -0.09879738 -0.119471654 0.040682055
0002d0 1b 2c 81 be 57 e6 1b be dd 07 ec bd b1 5e 5e bd
       -0.25228962 -0.15224586 -0.11524937 -0.054289524
0002e0 6e d4 62 be 64 63 b9 be 1b 0e 0e bd 17 20 d8 bc
       -0.22151348 -0.36208642 -0.03468142 -0.02638249
0002f0 67 7e ae bd 63 62 88 bd 7c b8 f8 bd 49 7a 98 bd
       -0.08520203 -0.06659391 -0.121445626 -0.07445199
000300 7a 04 60 be b7 6c 32 be e4 09 67 be 43 56 36 be
       -0.21876708 -0.17424284 -0.22562367 -0.17806344
000310 bf b8 13 bd 8b e5 16 bd aa b1 9b be 1b f0 0a bd
       -0.03606486 -0.036840003 -0.30408984 -0.03392039
000320 0e d1 ef bd 00 83 09 3e 6d 20 5c bd 0d 61 9f be
       -0.11709796 0.13428879 -0.05374186 -0.3112873
000330 e7 5d ec 3b f4 77 03 be 42 39 16 be 99 ab c7 bd
       0.0072133425 -0.12838727 -0.1467028 -0.097495265
000340 a9 b7 03 be 0b 2c 98 3d 29 d5 68 be a2 9d cd bd
       -0.1286303 0.074302755 -0.22737564 -0.10039832
000350 3d ff 4b bd e6 ef 53 bd 41 76 12 be ba 75 87 bd
       -0.04980396 -0.051742457 -0.14302923 -0.066142514
000360 f7 07 f2 bd 3a 1a 2f bc 1a 72 56 bb 8d 73 f9 3c
       -0.118179254 -0.010687405 -0.0032721818 0.030450607
000370 d8 4b 27 be 5b 00 a4 3d 7a e0 3b 3d ee 7e 82 be
       -0.16337526 0.0800788 0.045868374 -0.25487465
000380 f3 e1 c9 bd 6c 61 52 be 6f 5b fb bd 5f 60 44 be
       -0.098575495 -0.20544976 -0.12273299 -0.19177388
000390 d9 d7 34 be 80 1c 40 bc 6d 6d 87 be 83 6f f8 3d
       -0.17660464 -0.011725545 -0.26450673 0.12130644
0003a0 00 6a d8 bd 39 bb 23 be 17 fa e1 bd 7b 96 02 be
       -0.10567093 -0.15989389 -0.11034029 -0.12752716
0003b0 6a bd f2 bc e7 74 ff 3b 90 74 fc 3d 9f 44 90 bd
       -0.029631335 0.0077959183 0.1232692 -0.070443384
0003c0 3c 80 79 be 07 18 16 be 29 18 1a be fc d7 07 be
       -0.24365324 -0.14657603 -0.15048279 -0.13265985
0003d0 7f 82 3d 3e 33 95 57 bb 6b 7a 36 be ca 35 a3 bc
       0.18506812 -0.0032895326 -0.17820136 -0.01992311
0003e0 59 1a 25 be cb 77 6a be 53 48 58 be 37 89 92 3d
       -0.16123332 -0.2289726 -0.2112134 0.07155078
0003f0 fc 5a d9 bd 03 b3 99 bd 5d c2 e5 bd 88 29 ca bd
       -0.10613057 -0.07504847 -0.112187125 -0.09871203

fc3.bias f4 [21]
000000 83 32 d0 bd a0 69 45 3d 5b c2 1c 3d 68 a5 ff 3d
       -0.10165884 0.048196435 0.03827129 0.124827206
000010 b6 77 48 3d 80 ad 7c bd 00 5f 30 bb 0e 67 05 be
       0.04894229 -0.0616889 -0.0026912093 -0.13027593
000020 b7 2d 1a 3e cb eb 37 3d 2b c1 5b 3c b6 33 e5 3d
       0.15056501 0.044902604 0.013412754 0.11191504
000030 2e bb 88 bd d3 b6 90 bd 80 56 f7 bd 20 ac 24 3d
       -0.06676327 -0.07066121 -0.120770454 0.040203214
000040 a8 b0 0c be c6 b6 6b bd a0 2f 67 bd 60 31 19 3d
       -0.13739264 -0.057547353 -0.056441903 0.037400603
000050 82 d8 08 be
       -0.13363841

fc4.weight f4 [14, 21]
000000 ae 30 94 bd 71 52 24 be 7d 9a 08 be 22 74 65 be
       -0.072358474 -0.16047074 -0.13340183 -0.22407582
000010 f6 f3 97 bd e3 0c bf bd 0b ce 1f be 67 58 15 bd
       -0.07419579 -0.0932863 -0.15605943 -0.03646126
000020 40 8c 16 be 00 b1 11 be 8b 3e 04 bd 0b eb 4b bd
       -0.14701939 -0.14227676 -0.032286208 -0.0497847
000030 da b0 70 bd 9a af 57 3b 63 5d 19 be 1c 53 6a be
       -0.05876241 0.0032911063 -0.1497703 -0.22883266
000040 eb f6 90 bd d7 6f 9d bd 2f 70 83 bd ef cb 93 be
       -0.07078346 -0.076873474 -0.06417882 -0.28866526
000050 35 55 de bd 9e 40 15 be 67 bb 3c 3b 6e 41 4b be
       -0.10856096 -0.14575431 0.0028798224 -0.19849178
000060 83 87 d2 bc 9d 7b a7 bc 2d 37 2b bd 9f 4f 35 bd
       -0.025699383 -0.020444686 -0.041800667 -0.044265386
000070 e8 32 eb bd ae 2b 8e be c7 0d e5 3d c7 9c e0 3c
       -0.11484319 -0.277677 0.111842684 0.027418507
000080 71 18 d4 bd a7 d1 51 3d 5f 18 0e be aa d2 c1 bc
       -0.10356224 0.05122533 -0.13876484 -0.023660023
000090 62 e2 e9 bd 6b 2f dc bd b2 0e 1a be 2d 70 1a be
       -0.11420132 -0.10751232 -0.15044668 -0.15081854
0000a0 80 99 47 bc 45 fe 17 bd 80 20 f4 bc 3c 71 7a be
       -0.012182593 -0.037107725 -0.029800653 -0.24457258
0000b0 0d 81 f7 3d 9a 3f 59 be 33 43 39 be 2f 74 99 bd
       0.12085161 -0.21215668 -0.1809204 -0.074928634
0000c0 4d 68 46 3c 00 78 50 ba c7 14 41 be a2 4f 69 bd
       0.012109828 -0.00079524517 -0.18855582 -0.05696071
0000d0 6d 83 12 3d 27 8c 2b be dd d3 a0 bd 73 bd 5a bd
       0.03576987 -0.16752683 -0.0785291 -0.05340333
0000e0 4d 13 60 3c 3b f0 1b be 2e 29 28 be 80 a6 69 bb
       0.013676477 -0.1522836 -0.16421959 -0.003565222
0000f0 f3 f0 7b bc c7 91 c9 be 07 c8 50 be 77 c9 bd bd
       -0.015377271 -0.39369032 -0.20388804 -0.09266942
000100 b3 65 93 bc f3 f0 4e 3c 60 2a a7 bc 94 70 f2 bd
       -0.01799283 0.012630689 -0.020405948 -0.11837879
000110 6d 53 ad bc 98 b2 a3 bd 24 77 dd bd 91 a8 29 be
       -0.021157945 -0.079930484 -0.1081374 -0.16568209
000120 80 87 6f be a2 60 4b bd 19 c6 50 be df 35 e2 bd
       -0.23391533 -0.049652703 -0.20388068 -0.11045431
000130 0b ad 8b be af a4 5d be 59 81 4a be 16 a3 39 be
       -0.2728046 -0.21644853 -0.19775905 -0.18128619
000140 ff 25 72 be 38 44 4b be 84 b6 f9 bd fb 33 34 be
       -0.23647307 -0.19850242 -0.12193015 -0.17597954
000150 03 cc 1f be 1e da a1 bd 95 b2 1b bd ec 9b cc bd
       -0.15605168 -0.07902931 -0.038012106 -0.09990677
000160 51 3d 88 bd 33 d8 78 bd 9a 0f 98 3d 5d 0d 49 be
       -0.0665232 -0.06075306 0.07424851 -0.19634004
000170 8c 0d dc bd 49 25 92 bd 7d 65 64 bd b9 2d 8c be
       -0.10744771 -0.07136018 -0.05576085 -0.27378634
000180 70 b5 31 bd 00 72 a7 bd 67 b0 5d bb 82 82 a4 bd
       -0.043385923 -0.08176041 -0.0033827068 -0.08032705
000190 c2 e1 82 bd 0f 9c ea bd f2 43 ba be fd 94 da bd
       -0.06390716 -0.11455547 -0.36379963 -0.106729485
0001a0 99 3b f9 bd 73 fa cf bb c7 56 93 3c 21 17 28 be
       -0.121695705 -0.0063469945 0.017985715 -0.16415073
0001b0 2d 2f c5 3c 0a b0 33 3d 55 39 8e 3d 33 56 77 3b
       0.024070347 0.043869056 0.06944529 0.0037740588
0001c0 2b a4 8e 3d b3 20 1f be 9f 5e ae bd 00 60 22 be
       0.06964906 -0.15539818 -0.08514141 -0.15856934
0001d0 c8 0f 22 be 9b aa 92 bd 65 11 a2 bd e0 ab eb bd
       -0.15826333 -0.07161447 -0.07913474 -0.11507392
0001e0 20 f9 8c be b6 c8 35 be d2 b2 0a bd 2c 8c 04 be
       -0.27533817 -0.17752346 -0.033861943 -0.12944096
0001f0 46 e9 3f be 97 e4 d7 bd 7f 04 08 3e 62 10 96 bd
       -0.1874133 -0.10541647 0.13282965 -0.073273435
000200 33 af 3c be 60 83 ad 3c a1 b4 51 be a5 18 4f be
       -0.18426208 0.021180809 -0.2047906 -0.20224245
000210 ed 4b 80 be a7 0d 24 be d9 ec 9a bd 80 83 b1 3b
       -0.25057927 -0.16020833 -0.07564706 0.0054172873
000220 1f 1b 15 be 19 cc 8f be 07 6b 28 be 1e d0 31 be
       -0.14561127 -0.28085402 -0.16447078 -0.17364547
000230 e7 a8 5d 3c 0a 23 3a 3e 0f 55 6c bd 1f 7a 04 be
       0.013529039 0.18177429 -0.057698306 -0.1293721
000240 0d e4 80 3c 9a 8a db bd a2 93 ca bd 2d d0 21 3e
       0.015733743 -0.107197955 -0.0989144 0.15802069
000250 3e 47 d9 bd 2a 0b 0f be d3 fc 4b bd 7b 98 a3 3d
       -0.106092915 -0.13969103 -0.04980166 0.07988068
000260 60 fd 08 be e7 aa a4 3c 37 86 0b bd 59 58 32 be
       -0.13377905 0.020101024 -0.034063544 -0.17416514
000270 e6 df 14 be 73 9d 69 3c ab 62 2f be 61 c7 3d be
       -0.14538535 0.01425873 -0.17127483 -0.18533088
000280 e1 83 ae bd cd f4 ac ba a3 30 fc 3d f0 bc 16 3d
       -0.08521248 -0.0013195515 0.12313964 0.03680128
000290 d8 94 2c bd 35 d5 a8 bd d3 6a 7e bc ef 56 b1 bd
       -0.042134136 -0.08243791 -0.015528399 -0.086591594
0002a0 7d 88 5b 3d 3c 2b bd bd f2 23 98 be d3 69 e8 bc
       0.053596962 -0.09236762 -0.29714924 -0.028370773
0002b0 3a 38 9c 3c af 66 e4 bd 38 0e 00 be 70 c7 4d bd
       0.01906978 -0.11152398 -0.12505424 -0.050239027
0002c0 8e 7a 7d bd 36 ee 8a be d4 b6 16 be 4b bc 43 bd
       -0.061884455 -0.27134866 -0.14718181 -0.047786992
0002d0 cc 46 46 be 39 97 95 be 20 37 00 bc 3c a0 9e bd
       -0.19362944 -0.29216936 -0.007825643 -0.07745406
0002e0 b7 f0 53 bd 5a 96 5f 3c 25 fa 7b bd 3d 5f c9 bc
       -0.051743235 0.013646686 -0.061517853 -0.024581546
0002f0 0c 54 9f bd 4e ae 26 be 5c 0a 4f be b8 8b d9 bd
       -0.077797025 -0.1627743 -0.20218796 -0.10622352
000300 0d 2f 66 3d 25 c8 8b bd 70 74 91 bc 45 bd 7c be
       0.056197215 -0.06825284 -0.017755717 -0.24681576
000310 8f 51 76 be 0a 49 66 3d 70 8a 79 3d 6d c7 d3 3d
       -0.2405455 0.056222 0.06092304 0.10340772
000320 12 53 3c be 29 e3 74 be fa 45 2a bd 1c c1 8f be
       -0.18391064 -0.2391478 -0.04157064 -0.28077018
000330 86 4a 5b be 70 e0 5c be d0 be 08 be 83 a3 93 bd
       -0.21415147 -0.21569991 -0.13354039 -0.07208922
000340 b3 87 ce 3c 5e ec fb bd a0 e8 ee 3c 05 51 95 be
       0.02521119 -0.12300943 0.029163659 -0.29163375
000350 db 52 1a be 33 81 45 be 07 ff 20 bd 0f a1 53 be
       -0.1507067 -0.19287567 -0.039305713 -0.20666908
000360 5b d7 dd bd 87 2b fb bd bd 1f b6 bc b2 f3 b3 bd
       -0.108320914 -0.122641616 -0.02223193 -0.087867156
000370 08 d2 97 3d 0f 8c a3 bd 08 32 a6 bd 01 80 95 bd
       0.07413107 -0.079856984 -0.081150115 -0.072998054
000380 87 47 d1 3d 00 c6 c3 3c 3b 2d 2e be de 8d 08 be
       0.10218721 0.023898125 -0.17009442 -0.13335368
000390 5f 6b b2 3d 6f 29 d1 bd 5c 25 b3 bd 80 00 d0 bd
       0.08711886 -0.10212981 -0.0874736 -0.10156345
0003a0 2b 5c bd bd f9 3f 1c be 79 36 1f be 4a a0 1f bd
       -0.09246095 -0.15258779 -0.15548123 -0.038971223
0003b0 48 af 5f be 4b ca d5 bd 34 0c 3c be 4d 53 31 bb
       -0.21844208 -0.10438975 -0.1836403 -0.0027057708
0003c0 a8 83 34 bd f3 37 f3 bd 6d 98 55 bc 90 a9 e3 bd
       -0.04407087 -0.11875906 -0.013036829 -0.11116326
0003d0 df f9 fe bd ad f1 b7 bc 07 13 53 bd f7 8d e7 3d
       -0.12450003 -0.022454107 -0.051531818 0.113063745
0003e0 77 ff 2a be bd db 82 bd e9 ab 47 be 15 85 4e be
       -0.16699015 -0.06389568 -0.19499172 -0.20167954
0003f0 2c f9 aa bd 6a 3c 2f be 7e 10 82 bd 32 1b 19 3e
       -0.08348307 -0.1711289 -0.06350802 0.1495178

fc4.bias f4 [14]
000000 33 50 01 c1 53 a2 01 c1 12 1d 01 c1 af 43 01 c1
       -8.08208 -8.10213 -8.069597 -8.079024
000010 eb b0 01 c1 c0 1b 01 c1 10 4d e4 c0 f2 d2 d9 c0
       -8.105693 -8.069275 -7.134407 -6.807
000020 9a f0 df c0 e8 b6 db c0 e7 64 d9 c0 5e f8 e4 c0
       -6.9981203 -6.8660774 -6.793567 -7.1553183
000030 77 9a da c0 81 e9 eb c1
       -6.8313556 -29.489016
