act_net.pth (torch, 687247 bytes, 8 tensors)

fc1.weight f4 [512, 24]
0	0xbd22144d	-0.03957014
1	0x3deb575b	0.11491271
2	0x3a24a198	0.0006280183
3	0x3e588aa9	0.21146645
4	0xbcff606b	-0.031173905
5	0xbeb5165f	-0.3536863
6	0x3f5db689	0.8660665
7	0xbf294fce	-0.661374
8	0xbb48395e	-0.0030551772
9	0x3ec76e9b	0.38951573
10	0xbe4895cc	-0.19588393
11	0x3c4c3729	0.012464323
12	0xbd62fa4d	-0.055414487
13	0x3e771114	0.24127609
14	0x3e02dce0	0.1277957
15	0xbcb67b86	-0.022275697
16	0x3e96db02	0.29463965
17	0xbdd3584e	-0.10319577
18	0x3e8f4aff	0.27986905
19	0x3dc9ca2b	0.098530136
20	0x3e8690a9	0.26282242
21	0x3e5ba767	0.21450578
22	0x3ec85aae	0.39131683
23	0xbf267901	-0.6502839
24	0xbe176e84	-0.14788252
25	0x3f1661d3	0.5874302
26	0xbea713f7	-0.3263242
27	0x3e14e143	0.14539056
28	0xbcbc8eb8	-0.023017272
29	0x3e911030	0.28332663
30	0xbed109a8	-0.4082768
31	0x3ec3e889	0.38263348
32	0xbe196c89	-0.14982809
33	0xbc5b244e	-0.013375355
34	0x3d2f05f5	0.04273029
35	0xbe9241ad	-0.28565732
36	0xbec35dbc	-0.3815745
37	0x3eddcd5f	0.43320748
38	0xbf3e9619	-0.7444778
39	0x3eb044e6	0.34427565
40	0xbdbb4a17	-0.09144991
41	0xbe39ff2c	-0.18163747
42	0xbe657252	-0.22406891
43	0x3d076400	0.03305435
44	0x3db606d3	0.0888802
45	0xbe466241	-0.19373418
46	0xbd1eb85c	-0.038750038
47	0xbe912a0a	-0.28352386
48	0x3ea7b7a9	0.3275731
49	0xbe6fdeda	-0.23424855
50	0xbd1e1dd1	-0.038602654
51	0x3e218818	0.15774572
52	0x3e2247b2	0.15847662
53	0xbe29b72d	-0.16573782
54	0xbdc9bd5a	-0.09850569
55	0x3e04d738	0.12972724
56	0x3e963427	0.29336664
57	0x3d255e62	0.040373214
58	0x3e99df4b	0.30053172
59	0xbf029c88	-0.510201
60	0x3da92699	0.08259315
61	0xbe9c3781	-0.30511096
62	0x3e704091	0.2346213
63	0xbe81ff04	-0.25389874
64	0x3cee950c	0.029123805
65	0xbeeb3e16	-0.45945805
66	0x3eaa7fff	0.33300778
67	0xbbf39e85	-0.0074346685
68	0x3eb8e0eb	0.361091
69	0xbea68da0	-0.32529926
70	0x3e037aab	0.12839763
71	0x3df7f840	0.12107897
72	0x3f092307	0.5356907
73	0xbe28139a	-0.16413727
74	0x3d828b8e	0.06374274
75	0x3e1739df	0.1476817
76	0x3e48ca01	0.19608308
77	0xbe7bc33f	-0.24586199
78	0x3c64aab6	0.013956716
79	0xbdb6a062	-0.08917309
80	0xbe1013f1	-0.14070107
81	0xbde16c13	-0.11006942
82	0xbcbd9a58	-0.023144886
83	0xbe6836f7	-0.22677217
84	0x3f1dc9d5	0.61636096
85	0xbe4b08d9	-0.19827594
86	0x3f32bfc1	0.69823843
87	0xbf2e9046	-0.68188894
88	0x3e33563f	0.17513369
89	0x3f0d5c1c	0.5521867
90	0x3e7ed334	0.24885255
91	0xbd8bd615	-0.06827942
92	0x3e387815	0.18014558
93	0x3dc04110	0.0938741
94	0xbde06618	-0.10956973
95	0x3e449829	0.1919867
96	0xbd557bc5	-0.05211999
97	0x3e7724dc	0.24135154
98	0x3d9a791f	0.07542633
99	0x3e411422	0.18855336
100	0x3d93e221	0.07220865
101	0x3e84e181	0.25953296
102	0xbe074706	-0.13210687
103	0x3edeeb95	0.4353911
104	0xbd3408df	-0.043953773
105	0xbe572402	-0.2100983
106	0xbe2fe8da	-0.1717867
107	0xbb8daf2a	-0.0043238597
108	0xbdf7c2cf	-0.12097704
109	0x3dff125c	0.12454674
110	0xbed02954	-0.4065653
111	0x3ec3df1e	0.38256162
112	0xbd8dcc43	-0.069237255
113	0xbd665295	-0.0562311
114	0xbe232c00	-0.15934753
115	0xbdee8610	-0.11646664
116	0x3e390eb6	0.18072018
117	0x3e56c1a2	0.20972303
118	0x3df6f023	0.12057521
119	0xbf34a0c7	-0.70557827
120	0x3bced28b	0.00631172
121	0xbea0e1af	-0.31422183
122	0x3d29233a	0.04129336
123	0x3e2bb63a	0.16768733
124	0x3eb438cf	0.35199592
125	0xbf80f3a1	-1.007435
126	0x3e897574	0.26847422
127	0xbc049bce	-0.008093787
128	0x3e217c54	0.15770084
129	0xbe5e60f4	-0.21716672
130	0xbd4633f0	-0.048389375
131	0xbe7a1d36	-0.24425206
132	0x3e893470	0.2679782
133	0xbe7377da	-0.23776188
134	0x3cfb3527	0.030664993
135	0x3cde0257	0.027100725
136	0x3db58617	0.08863466
137	0xbc144a00	-0.009050846
138	0xbd2e665f	-0.042578097
139	0xbba37e90	-0.0049894527
140	0xbef048b3	-0.46930465
141	0x3dee5932	0.116381064
142	0xbf1c09d2	-0.60952485
143	0x3f879f7b	1.0595545
144	0xbc5f9d6c	-0.013648372
145	0x3e65535e	0.22395083
146	0x3f073c72	0.5282661
147	0xbe8df10f	-0.27722976
148	0x3e84affc	0.25915515
149	0xbf0eb23e	-0.55740726
150	0xbdb86bdb	-0.09004947
151	0xbdd020bf	-0.10162496
152	0xbe9de0a5	-0.30835453
153	0x3e0ac175	0.1355036
154	0x3e7f5fee	0.24938938
155	0xbe502666	-0.20327148
156	0xbe91cdac	-0.28477228
157	0xbec09e47	-0.37620756
158	0x3e63006c	0.2216813
159	0xbea64b8e	-0.3247952
160	0x3dc01550	0.09379065
161	0x3d3fd86b	0.04683725
162	0x3def2690	0.11677277
163	0xbe7c6beb	-0.24650542
164	0x3e9c5179	0.3053091
165	0xbe80ea05	-0.25178543
166	0xbe814eaf	-0.25255343
167	0xbeec7e14	-0.4618994
168	0x3d3a39b4	0.045465186
169	0x3c713417	0.014721892
170	0x3e875f93	0.26440105
171	0x3e07fd96	0.13280329
172	0x3e866290	0.26247072
173	0xbe723c6e	-0.23655865
174	0xbef25671	-0.47331575
175	0xbdc5b206	-0.09653096
176	0xbd85118d	-0.06497488
177	0x3d479294	0.048723772
178	0x3f174f47	0.5910534
179	0x3e2f2e0f	0.17107414
180	0x3e5d3014	0.21600372
181	0x3d1f7286	0.038927577
182	0x3dd33c50	0.10314238
183	0x3e12edde	0.14348552
184	0x3f9da2b4	1.2315278
185	0xbfa1956d	-1.2623726
186	0x3c8f5a22	0.017499033
187	0x3bdba814	0.006703386
188	0x3c885cb5	0.016645769
189	0xbe749e1c	-0.23888439
190	0xbe0f5888	-0.13998616
191	0xbe6de8a0	-0.2323327
192	0x3b9106df	0.004425868
193	0xbe098ccb	-0.13432615
194	0x3e43443d	0.19069
195	0x3e694689	0.22780813
196	0x3e057814	0.13034087
197	0x3e03777b	0.12838547
198	0xbe77be74	-0.24193746
199	0x3da42467	0.08014756
200	0xbcc4e5bd	-0.024035329
201	0xbdd30cf6	-0.103052065
202	0x3c7af382	0.015316846
203	0xbd94f6e6	-0.07273655
204	0xbeb3f9ac	-0.35151422
205	0x3f36e482	0.71442425
206	0xbdb5db15	-0.08879677
207	0x3e49e236	0.19715199
208	0x3e041653	0.12899141
209	0xbd240c6d	-0.040050913
210	0xbd45c6dc	-0.04828535
211	0xbdb6871d	-0.089124896
212	0x3f02ba38	0.510654
213	0xbf496ab5	-0.78678447
214	0xbdd95c1a	-0.1061327
215	0x3f6b600b	0.91943425
216	0x3daf7079	0.08566374
217	0xbf0857de	-0.53259075
218	0xbebbc5e5	-0.3667442
219	0xbdd019c5	-0.10161165
220	0x3e7c29da	0.2462534
221	0x3e8adae8	0.27120137
222	0x3e8ae98d	0.2713131
223	0xbe8d3835	-0.27581945
224	0x3eee6bb0	0.46566534
225	0xbebd92ef	-0.37026164
226	0xbee18e4a	-0.4405387
227	0x3f45ca9e	0.77262294
228	0x3e48ec1b	0.19621317
229	0xbe116e93	-0.14202337
230	0xbd459dfc	-0.04824637
231	0x3e5d124a	0.21589008
232	0xbe1c1491	-0.1524222
233	0x3e023ca2	0.12718442
234	0x3dbf9019	0.09353656
235	0x3dc0d709	0.09416015
236	0xbd70e6b5	-0.05881377
237	0xbdf41979	-0.11918921
238	0xbddc28b1	-0.10749949
239	0xbe9c43cf	-0.30520484
240	0x3eb80057	0.3593776
241	0xbe8a1c58	-0.2697475
242	0x3e28dda9	0.16490807
243	0x3d73918e	0.059464984
244	0x3cbc1958	0.022961304
245	0x3e3d4185	0.18482025
246	0x3e9689a9	0.294019
247	0x3e4d9b4f	0.20078777
248	0x3e794803	0.24343877
249	0xbe755862	-0.23959497
250	0x3eb35ac6	0.35030192
251	0xbe9b4a02	-0.303299
252	0x3e0104cf	0.1259949
253	0xbe987eb6	-0.29784173
254	0x3ec72059	0.38891867
255	0x3cd86ea8	0.026419953

fc1.bias f4 [512]
0	0xbe145375	-0.14484961
1	0x3f46d9f1	0.776763
2	0xbe19cee6	-0.15020332
3	0xbebb481f	-0.36578462
4	0xbdb1852c	-0.08667979
5	0xbe5531cf	-0.20819782
6	0x3d0dcd61	0.034619693
7	0xbc2e8a0f	-0.010653033
8	0x3e85679c	0.2605561
9	0xbd0ba266	-0.034090422
10	0x3ec6d63c	0.38835323
11	0x3d38d2fc	0.045123085
12	0xbde9ac45	-0.11409811
13	0xbeed88b5	-0.46393362
14	0xbe150c09	-0.14555372
15	0x3d6429f4	0.055704072
16	0xbeb7f4bc	-0.35928905
17	0x3ecad577	0.39615986
18	0xbed38287	-0.41310522
19	0x3e537997	0.20651852
20	0xbf0ef799	-0.55846554
21	0xbe4aa209	-0.19788374
22	0x3f53ea1b	0.8277909
23	0xbe9362e0	-0.28786373
24	0x3ecc4958	0.39899707
25	0xbd3df259	-0.0463737
26	0xbe1da56f	-0.15395139
27	0x3ee10f1b	0.43956837
28	0x3cc3adb2	0.023886535
29	0x3e65bdb7	0.22435652
30	0x3eb8fe07	0.36131307
31	0x3da5bf3c	0.08093116
32	0x3e507fb5	0.20361216
33	0xbdb8edaa	-0.09029706
34	0xbeffc6aa	-0.49956256
35	0xbe9ed203	-0.310196
36	0xbece2694	-0.40263808
37	0xbe2d44af	-0.16920732
38	0x3e21fb50	0.15818524
39	0xbe655e43	-0.22399239
40	0x3f4c27c3	0.7974817
41	0x3da303d5	0.07959715
42	0x3d4d9a3f	0.05019593
43	0x3d203de6	0.03912153
44	0x3e4a2bbc	0.19743246
45	0x3d83e360	0.06439853
46	0xbf03eeaf	-0.5153608
47	0x3d753c43	0.059871923
48	0x3ee27108	0.4422686
49	0x3f21b170	0.63161373
50	0x3d84e0c0	0.0648818
51	0xbe8f4162	-0.2797957
52	0x3e0241fe	0.12720487
53	0x3ea16dd4	0.31529105
54	0xbe486220	-0.19568682
55	0xbe9fbbff	-0.31198117
56	0xbe4d05e5	-0.2002178
57	0xbe666a58	-0.22501504
58	0xbe0b3921	-0.13596012
59	0xbe9c0999	-0.30476072
60	0xbdcf8143	-0.101320766
61	0xbe554d4e	-0.2083027
62	0x3d7e7906	0.062127136
63	0xbe35f8ff	-0.17770766
64	0xbcdefe28	-0.0272208
65	0xbf3cbd26	-0.7372612
66	0x3e9c4949	0.30524662
67	0xbddd012f	-0.107912414
68	0x39399bbc	0.0001770099
69	0x3ee5f92f	0.44916674
70	0x3ec5771e	0.38567442
71	0x3ef2ded4	0.4743563
72	0x3dbb79e6	0.0915411
73	0xbdd2834c	-0.10278949
74	0xbd5bc762	-0.053656943
75	0xbe936230	-0.2878585
76	0xbf08fdc5	-0.5351222
77	0xbea33e3e	-0.31883425
78	0x3e345fd0	0.17614675
79	0x3e904235	0.28175512
80	0x3eb1c00a	0.34716827
81	0xbda9c4c9	-0.08289487
82	0xbecdd870	-0.4020419
83	0xbe238dcf	-0.15972064
84	0xbead80a1	-0.338872
85	0x3edeeecb	0.4354156
86	0xb95ecb6a	-0.00021247347
87	0x3e6eef78	0.23333538
88	0x3e93c324	0.28859818
89	0xbeb75224	-0.35804856
90	0xbe8aa78b	-0.2708095
91	0x3e41475e	0.1887488
92	0xbe2aa65c	-0.16665024
93	0xbd5f13ab	-0.054462116
94	0xbdd73ab9	-0.10509247
95	0xbe8787b2	-0.26470715
96	0xbd596aa4	-0.053080216
97	0x3daddeab	0.08489736
98	0x3e0f0984	0.13968474
99	0x3c8c6566	0.017138194
100	0xbde19cfa	-0.11016269
101	0x3ee0d17a	0.43909818
102	0x3e75721a	0.23969308
103	0xbe90cfe2	-0.28283602
104	0xbb8e19fc	-0.0043365937
105	0x3cc7e6d1	0.024402054
106	0x3d48e765	0.0490488
107	0x3dc99de9	0.09844572
108	0x3f0b95ff	0.5452575
109	0x3ebc9c1c	0.36837852
110	0x3f01a737	0.50645775
111	0xbe9a9eab	-0.3019918
112	0x3e0bbc1e	0.1364598
113	0xbc99aca6	-0.018759083
114	0xbe15c678	-0.14626491
115	0x3eab151e	0.3341455
116	0x3e0d79de	0.1381602
117	0x3d222b6b	0.039592188
118	0xbf091509	-0.5354772
119	0x3cc598fb	0.024120798
120	0xbea4daf4	-0.32198298
121	0x3ea3cdc9	0.3199294
122	0xbe8addbf	-0.27122304
123	0x3ebc85ff	0.3682098
124	0x3c774a3a	0.015093381
125	0x3c10d720	0.008840352
126	0xbee92bda	-0.4554127
127	0xbd1daf1e	-0.038497083
128	0xbee33675	-0.44377485
129	0xbeb8f705	-0.3612596
130	0x3ce2ea57	0.027699633
131	0x3e672c6e	0.22575542
132	0x3c2fdaca	0.010733316
133	0xbedabf93	-0.42724285
134	0xbecc4e7a	-0.39903623
135	0xbeafd963	-0.3434554
136	0x3e0a49a0	0.13504648
137	0x3bb89f01	0.005634189
138	0xbec8cb0d	-0.39217415
139	0xbe24ff04	-0.16112906
140	0x3ead0fe2	0.3380118
141	0x3f11f6b0	0.5701704
142	0x3de0dd3b	0.10979696
143	0x3cf5209f	0.029922782
144	0xbee90f31	-0.45519403
145	0xbd111495	-0.03542002
146	0x3edec250	0.43507624
147	0xbdc535bd	-0.096293904
148	0xbe8fd704	-0.2809373
149	0xbe702df4	-0.2345503
150	0xbf126f52	-0.5720111
151	0x3ea6342b	0.32461676
152	0xbf23aac5	-0.6393245
153	0x3cc26983	0.023731953
154	0xbe100ecd	-0.14068146
155	0xbcd763d3	-0.026292717
156	0x3d6f5d87	0.058438804
157	0xbdd5a63d	-0.10432098
158	0xbe91a896	-0.28448933
159	0xbe5f8a05	-0.21829994
160	0xbebb2bc8	-0.3655684
161	0x3c95fc6c	0.01830884
162	0xbd4abfe6	-0.049499415
163	0xbd2ae952	-0.041726418
164	0x3f05e720	0.52305794
165	0x3d396475	0.04526182
166	0xbed416b9	-0.41423586
167	0x3d4a70eb	0.049424093
168	0xbe810c5e	-0.25204748
169	0xbee7e9b8	-0.452955
170	0x3e8d876d	0.27642384
171	0xbf39490b	-0.7237708
172	0x3e6aa457	0.22914253
173	0xbe62c4f5	-0.22145446
174	0x3d586414	0.052829817
175	0x3ea8f96d	0.33002797
176	0xbdea2e45	-0.114346065
177	0x3e65240a	0.22377029
178	0x3e4da95b	0.20084135
179	0xbd82afa6	-0.063811585
180	0x3d182934	0.03714867
181	0xbde1b673	-0.110211276
182	0xbe85b0ab	-0.2611135
183	0xbee49600	-0.4464569
184	0x3d38a387	0.045077827
185	0xbd5c2dab	-0.05375449
186	0xbe5757b4	-0.2102955
187	0x3ec5d975	0.3864247
188	0xbea1c791	-0.3159757
189	0x3f0353f8	0.513
190	0x3e4567ad	0.1927783
191	0xbf187fb5	-0.59569865
192	0xbf46d697	-0.7767119
193	0x3e12a46c	0.14320534
194	0xbd23c888	-0.039986163
195	0xbe3d2c25	-0.18473871
196	0xbf217657	-0.630712
197	0xbeb7f0ce	-0.35925907
198	0xbe00e4ed	-0.12587328
199	0x3f15d1fe	0.5852355
200	0x3ddd50a7	0.10806399
201	0x3deef11a	0.1166708
202	0x3e99f9a0	0.3007326
203	0x3eea89d8	0.4580829
204	0xbe5125df	-0.20424603
205	0x3eea47ff	0.45758054
206	0xbe995012	-0.299439
207	0xbe38b1ee	-0.18036625
208	0xbeafd23d	-0.34340087
209	0xbd836931	-0.06416548
210	0xbba652c8	-0.0050757863
211	0xbd504a1b	-0.050851922
212	0xbf062b4c	-0.52409816
213	0xbdcd5b61	-0.10027195
214	0xbdae93f1	-0.08524311
215	0x3f03154c	0.5120437
216	0xbe57f1b2	-0.21088293
217	0xbf233947	-0.63759273
218	0x3eda483b	0.42633232
219	0xbf07d541	-0.53059775
220	0x3ec68689	0.38774517
221	0xbea916c6	-0.33025187
222	0xbba26840	-0.004956275
223	0xbe8d9df1	-0.27659562
224	0xbe1a633a	-0.15076914
225	0xbd1fea71	-0.03904194
226	0x3e77740f	0.24165367
227	0x3d67aae5	0.056559462
228	0xbd77d6f1	-0.06050772
229	0xbc32dfe5	-0.010917638
230	0xbed63d0b	-0.41843447
231	0x3e8305c9	0.2559035
232	0xbe3b9d69	-0.18321766
233	0xbe542d62	-0.20720437
234	0x3e9745da	0.2954548
235	0x3d0ae046	0.03390529
236	0x3df25eb2	0.11834468
237	0x3efbf481	0.4920998
238	0x3e6aeec1	0.2294264
239	0xbe87b7cf	-0.26507422
240	0xbe4e3bef	-0.2014005
241	0x3ed9dbf1	0.42550614
242	0x3e6e071e	0.23244902
243	0xbdbea7bc	-0.093093365
244	0x3e81eebf	0.2537746
245	0xbe247c8f	-0.1606314
246	0xbc4463a6	-0.011986649
247	0x3d9d034f	0.07666647
248	0xbe1ee0f7	-0.15515505
249	0x3e48e131	0.19617154
250	0xbd438de7	-0.04774275
251	0x3ea757f5	0.32684293
252	0xbdd0e9aa	-0.10200818
253	0xbe9ce0b3	-0.30640182
254	0xbee126cd	-0.43974915
255	0x3e0236c6	0.12716207

fc2.weight f4 [256, 512]
0	0xbe2d0a3d	-0.16898437
1	0x3d3a033b	0.045413237
2	0x3df6e4b5	0.12055341
3	0x3c23e00e	0.010002149
4	0x3e28bce2	0.16478303
5	0x3d319892	0.043358393
6	0xbd015d3b	-0.031583052
7	0xbe2f633b	-0.17127697
8	0xbe1aac40	-0.1510477
9	0x3dc1f821	0.09471155
10	0xbc9802c6	-0.01855601
11	0x3e3b5db6	0.18297467
12	0x3e29361f	0.16524552
13	0xbda3d69a	-0.079999164
14	0x3db98c93	0.090600155
15	0x3dff8be3	0.12477853
16	0xbe08f7d9	-0.13375796
17	0xbd375aab	-0.044764202
18	0xbd345188	-0.044023067
19	0xbd8f67e7	-0.0700224
20	0x3e2aaf06	0.16668329
21	0xbe505ea6	-0.20348606
22	0xbe335f7e	-0.17516896
23	0x3e1efb57	0.15525566
24	0x3e35f486	0.1776906
25	0x3c2266c7	0.009912199
26	0x3dd629c3	0.10457184
27	0x3e58bca0	0.21165705
28	0x3e5828f4	0.21109372
29	0x3b9fe72b	0.0048798523
30	0xbe2928ca	-0.16519466
31	0xbd5a368b	-0.053274672
32	0xbca65e77	-0.020308716
33	0x3dcd80e8	0.100343525
34	0x3d6a0977	0.057137933
35	0x3bed972a	0.007250686
36	0xbec09a61	-0.37617782
37	0x3f0d01d6	0.55080926
38	0xbcc46a43	-0.02397645
39	0x3d467a8d	0.048456717
40	0xbdcefe62	-0.101071134
41	0x3da9cbd7	0.082908325
42	0x3e75cb63	0.24003367
43	0x3cab7e18	0.02093415
44	0x3ccee981	0.025257828
45	0xbe4b205a	-0.1983656
46	0xbc8eebf1	-0.01744649
47	0x3da8e0b2	0.08245982
48	0x3dd8f9f0	0.10594547
49	0xbd8581da	-0.06518908
50	0x3e2475d3	0.16060571
51	0xbf248610	-0.64267063
52	0x3c9c4f64	0.019080825
53	0xbe00590b	-0.12533967
54	0xbe8b24a4	-0.27176392
55	0xbdd59fcf	-0.10430872
56	0x3e2788af	0.16360734
57	0xbe1678ea	-0.14694563
58	0xbdaf41c0	-0.08557463
59	0xbd89bda4	-0.06725624
60	0xbed6f3f9	-0.4198301
61	0xbddfb370	-0.10922897
62	0xbea61eed	-0.3244547
63	0x3efd0b6f	0.49422786
64	0x3e10e940	0.14151478
65	0xbe98780c	-0.29779088
66	0xbd96b9e7	-0.07359677
67	0x3e2ef337	0.17084967
68	0xbd13da09	-0.036096606
69	0x3d3904a9	0.04517046
70	0xbf0bddb4	-0.5463517
71	0x3e0ac33e	0.13551041
72	0x3de47c8f	0.1115657
73	0x3e55d3a0	0.2088151
74	0xbe8a91b1	-0.2706428
75	0xbdc50e7a	-0.09621902
76	0xbe5aebb7	-0.2137898
77	0xbd9633d2	-0.07334103
78	0x3dadaefa	0.0848064
79	0x3edb2c15	0.4280707
80	0x3e6214ae	0.22078201
81	0xbad8d0ec	-0.0016541756
82	0x3db232cc	0.08701095
83	0x3c35f18c	0.011104953
84	0xbe110a19	-0.14164008
85	0x3cb2e10c	0.021835826
86	0x3db4702f	0.0881046
87	0x3c050ee5	0.008121227
88	0x3df0316b	0.11728176
89	0x3d9cbee1	0.07653595
90	0xbeca7afa	-0.3954695
91	0xbced8e45	-0.028998503
92	0x3e21b4ff	0.15791701
93	0x3e6ea637	0.23305593
94	0x3db1af64	0.08676031
95	0x3dafa2b6	0.085759565
96	0xbdd16937	-0.10225146
97	0xbe96d30a	-0.29457885
98	0xbda4bae7	-0.08043461
99	0xbda42012	-0.080139294
100	0xbe63add8	-0.22234285
101	0x3eb88ea1	0.36046317
102	0xbd7c4373	-0.061587762
103	0x3d690a8e	0.05689483
104	0xbe86231a	-0.26198655
105	0xbe80eae4	-0.25179207
106	0x3e632d96	0.22185358
107	0x3d977e38	0.07397121
108	0x3d261f58	0.040557235
109	0x3cf7ec61	0.030264081
110	0x3e6468d5	0.22305615
111	0x3ebd6875	0.36993757
112	0xbd9d3c9b	-0.07677575
113	0x3c8fe93a	0.017567266
114	0x3d981024	0.074249536
115	0x3d3126ae	0.04324978
116	0xbe89931d	-0.2687005
117	0xbebe7f30	-0.3720641
118	0xbc850cc9	-0.016241448
119	0xbeae1fd8	-0.3400867
120	0xbdeb286b	-0.114823185
121	0x3e5e6a9d	0.21720357
122	0x3dcde0a3	0.10052612
123	0xbdafa91a	-0.085771754
124	0xbdd62aed	-0.10457406
125	0x3dc5f066	0.09664993
126	0xbdd839fa	-0.10557933
127	0x3b15531f	0.002278514
128	0xbd861cc8	-0.06548458
129	0x3eb6e262	0.3571959
130	0xbed2f75f	-0.41204354
131	0x3b03ae02	0.002009273
132	0xbcbca0c1	-0.023025872
133	0xbc91d4a5	-0.017801592
134	0xbe96ded5	-0.29466882
135	0xbd9dfc08	-0.07714087
136	0x3e7cab96	0.2467483
137	0x3e555b70	0.20835662
138	0x3eaa0bfc	0.33212268
139	0xbd4b1edd	-0.04958998
140	0x3d39dfa0	0.04537928
141	0x3dc23fa9	0.094847985
142	0xbd528262	-0.051393874
143	0xbd797ee4	-0.060912028
144	0x3e183e24	0.14867455
145	0xbde0600f	-0.10955822
146	0x3e1fa029	0.1558844
147	0x3db049a2	0.08607794
148	0x3e065fb9	0.13122453
149	0xbece1e9e	-0.40257734
150	0x3da081d5	0.078372635
151	0xbe161c48	-0.14659226
152	0x3c127688	0.008939393
153	0xbe237a68	-0.15964663
154	0x3e4743d6	0.19459471
155	0xbe442470	-0.19154525
156	0xbeeb3d34	-0.45945132
157	0x3d4b8c41	0.049694303
158	0x3dae3894	0.08506885
159	0xbdcccaec	-0.09999642
160	0xbe7841ab	-0.242438
161	0x3e82946d	0.25503865
162	0xbd9422b9	-0.07233185
163	0xbda7a6fa	-0.08186145
164	0xbde03e0d	-0.10949335
165	0x3e8f56af	0.27995822
166	0x3bb06e34	0.005384231
167	0x3d366976	0.04453417
168	0xbdc1e576	-0.09467594
169	0x3c147423	0.009060892
170	0xbcd32a14	-0.0257769
171	0x3d20d801	0.039268497
172	0x3e8c4805	0.27398697
173	0xbd62e69a	-0.0553957
174	0x3d08e6a4	0.03342308
175	0x3c572457	0.013131223
176	0x3e72d40c	0.23713702
177	0x3e834248	0.25636506
178	0x3d9d1313	0.07669654
179	0xbd4eef7d	-0.050521363
180	0xbdfd99af	-0.123828284
181	0x3e9785cb	0.29594263
182	0x3e8f16ee	0.2794718
183	0xbef85bd6	-0.48507565
184	0x3dc326fa	0.095289186
185	0x3d05cdfb	0.03266714
186	0xbe6b1815	-0.22958405
187	0xbe1a30ea	-0.15057722
188	0x3e383d70	0.17992187
189	0x3e34cd57	0.17656456
190	0x3d906496	0.07050435
191	0x3e75b8f8	0.23996341
192	0xbd6afb44	-0.05736853
193	0x3e25c80a	0.1618959
194	0x3e6e380c	0.23263568
195	0xbd5f856b	-0.054570597
196	0x3dac945c	0.08426735
197	0xbd12ea0e	-0.035867743
198	0x3e87d738	0.26531386
199	0x3dd36277	0.10321515
200	0x3d75f21e	0.060045354
201	0xbd86bf2e	-0.065794334
202	0x3ebdf963	0.3710433
203	0x3c2b398a	0.01045073
204	0xbe38a882	-0.1803303
205	0x3e157edf	0.14599179
206	0xbd51d4e4	-0.05122842
207	0x3e30fac3	0.17283158
208	0xbd8af7dd	-0.067855574
209	0x3d3991fe	0.045305245
210	0x3e853b80	0.26021957
211	0x3e69934a	0.22810093
212	0x3d21fa13	0.03954513
213	0x3e969243	0.29408464
214	0xbe4a12a2	-0.1973367
215	0xbc471b66	-0.012152528
216	0x3d8c6c25	0.068565644
217	0x3df64ff8	0.120269716
218	0xbc46fa54	-0.012144644
219	0x3e19ab23	0.1500669
220	0xbe1c4259	-0.15259685
221	0xbcf4bb91	-0.029874595
222	0x3e0006b2	0.12502554
223	0xbed5b684	-0.4174081
224	0x3dd48ac9	0.10378034
225	0x3d9f10bf	0.07766866
226	0xbb91d543	-0.0044504716
227	0xbc41301b	-0.011791254
228	0x3e966ea4	0.29381287
229	0x3e299c46	0.1656352
230	0x3e3bbd74	0.1833399
231	0x3e6bb5c7	0.23018561
232	0xbea75497	-0.32681724
233	0xbd0ee52a	-0.034886517
234	0x3ed1c9bb	0.4097422
235	0x3df1e2cd	0.11810837
236	0x3cbfc72e	0.023410406
237	0xbed337a3	-0.41253385
238	0x3e1a0272	0.15039995
239	0x3e2a6106	0.16638574
240	0xbeb6610c	-0.35620916
241	0x3dd249e4	0.10268
242	0x3eaf447c	0.34231937
243	0x3e8b4312	0.27199608
244	0x3e7e111c	0.24811214
245	0xbd94b42c	-0.072609276
246	0x3d4f606d	0.05062907
247	0xbcf1a68d	-0.029498363
248	0x3db01e77	0.08599561
249	0x3d72647b	0.059177857
250	0x3e032a55	0.12809117
251	0xbd962f47	-0.07333236
252	0x3e979d75	0.29612318
253	0xbcd37ebf	-0.025817273
254	0xb9886ced	-0.00026021097
255	0xbd05a98c	-0.032632396

fc2.bias f4 [256]
0	0xbc1ad5e0	-0.009450406
1	0xbc57d462	-0.013173195
2	0x3e3524b0	0.17689776
3	0x3cebd918	0.028790042
4	0x3c9f1cd4	0.019422926
5	0xbdb4e5d7	-0.08832901
6	0xbda0c7e1	-0.07850624
7	0xbd664670	-0.05621952
8	0xbe480dff	-0.19536589
9	0xbbac0c45	-0.005250486
10	0xbe3d78d5	-0.18503125
11	0xbe34702b	-0.17620914
12	0xbe9b2f02	-0.30309302
13	0xbd9a75c9	-0.07541997
14	0xbba3cba0	-0.004998639
15	0xbe7fdd6c	-0.2498681
16	0xbe611e74	-0.21984273
17	0xbcf93281	-0.03041959
18	0xbe3a3fd4	-0.18188411
19	0xbdca3819	-0.09873981
20	0xbd1dd506	-0.038533233
21	0xbe1c94f9	-0.15291204
22	0xbe864d3b	-0.26230797
23	0xbe89aee4	-0.26891243
24	0xbe3d313a	-0.1847581
25	0xbde70a43	-0.11281254
26	0xbe80f464	-0.25186455
27	0xbe93a047	-0.2883322
28	0xbe12f49c	-0.14351124
29	0x3cb2dace	0.02183285
30	0x3c8c6f7c	0.017143004
31	0xbe59f643	-0.21285348
32	0xbe14df9f	-0.1453843
33	0xbe8aafe2	-0.27087313
34	0xbd650641	-0.055914167
35	0xbe21b718	-0.15792501
36	0xbe14a267	-0.14515077
37	0xbdc929d7	-0.098224334
38	0xbcacb5a0	-0.0210827
39	0x3c632fc3	0.013866368
40	0xbe1bd506	-0.1521798
41	0xbdce6103	-0.10077097
42	0xbe64de5a	-0.22350445
43	0xbe89be65	-0.26903072
44	0xbd904ade	-0.0704553
45	0xbdda5af2	-0.10661878
46	0xbd6a31b3	-0.057176303
47	0xbd8966fb	-0.06709095
48	0xbd7ad761	-0.061240558
49	0xbd239fa5	-0.03994717
50	0xbd91bafb	-0.07115742
51	0x3c952cdb	0.018209865
52	0xbe61bc8f	-0.22044586
53	0xbda92d7f	-0.08260631
54	0xbcf3b98d	-0.029751563
55	0xbc2030d4	-0.0097772665
56	0xbd0cbc32	-0.034359165
57	0xbd5629c3	-0.05228592
58	0xbe1df44a	-0.1542522
59	0xbd6c7f17	-0.05773839
60	0xbc9c8af2	-0.019109223
61	0x3e25a68d	0.16176815
62	0xbe20f4a0	-0.15718317
63	0xbde06a51	-0.10957778
64	0xbd270bf7	-0.040782895
65	0xbdf3d773	-0.11906328
66	0x3e268193	0.16260366
67	0xbd9ffb1c	-0.07811567
68	0xbde55e8c	-0.11199674
69	0xbe28f705	-0.1650048
70	0x3d1b65da	0.03793893
71	0xbd97956b	-0.07401546
72	0x3d1f3ee5	0.03887834
73	0x3c68f4cd	0.014218521
74	0xbda5595f	-0.08073687
75	0x3c3679d9	0.011137449
76	0xbd85a621	-0.06525827
77	0xbe31b36e	-0.17353603
78	0xbd7b2763	-0.06131686
79	0xbe33bab1	-0.17551686
80	0xbdc3c64f	-0.09559309
81	0xbd34783f	-0.044059988
82	0xbe537495	-0.20649941
83	0x3e25361f	0.16133927
84	0xbd762db1	-0.06010217
85	0xbdaee84b	-0.085404
86	0xbdad7880	-0.08470249
87	0xbc42fa7b	-0.0119005395
88	0x3baa2373	0.005192214
89	0xbe5cb60a	-0.21553817
90	0xbda821f5	-0.08209602
91	0xbe246af6	-0.16056427
92	0xbdadbdc2	-0.08483459
93	0xbe6f016b	-0.23340385
94	0xbd057a4f	-0.032587346
95	0xbe280afd	-0.16410442
96	0xbe0290b2	-0.1275051
97	0xbe688b68	-0.2270943
98	0xbd8382a8	-0.06421405
99	0xbe410cad	-0.18852492
100	0xbbb29021	-0.0054493104
101	0xbcb6c02e	-0.022308435
102	0xbe1a2854	-0.15054446
103	0xbea99dde	-0.33128256
104	0xbe057b67	-0.13035356
105	0x3d305aa7	0.043055203
106	0xbea21b1e	-0.31661314
107	0xbda91f4a	-0.08257921
108	0xbd4e4985	-0.050363082
109	0xbd12e8aa	-0.035866417
110	0xbcf49b2c	-0.029859148
111	0xbe12d1ee	-0.14337894
112	0xbe20a5b8	-0.15688217
113	0xbe418be2	-0.18901017
114	0xbde8b0c0	-0.113618374
115	0x3d7a6d75	0.061139543
116	0xbe920b7e	-0.28524393
117	0xbd9ce1ac	-0.07660231
118	0xbd40a28e	-0.047030024
119	0xbdcd0e33	-0.10012474
120	0xbd5d7414	-0.05406578
121	0xbe1f1a83	-0.15537457
122	0xbde32d00	-0.110925674
123	0xbe516ffb	-0.20452873
124	0xbdb7bcf1	-0.089715846
125	0x3e1d28db	0.15347616
126	0xbe54a712	-0.20766857
127	0xbd8d7715	-0.06907479
128	0xbdb5a60d	-0.08869562
129	0xbe480a89	-0.19535269
130	0x3c9b5831	0.018962951
131	0xbd8833cc	-0.066505045
132	0xbdcc5f5b	-0.09979125
133	0xbd542cc2	-0.051800497
134	0xbdb13e87	-0.08654504
135	0xbbb1b2ed	-0.005422941
136	0xbd3be222	-0.045869954
137	0xbd6dce51	-0.058058087
138	0xbd586516	-0.052830778
139	0xbd83b369	-0.06430704
140	0xbe74aa26	-0.23893031
141	0xbe329b83	-0.17442136
142	0xbd380561	-0.044927005
143	0xbdc91e15	-0.09820191
144	0xbd940779	-0.07227988
145	0xbd3b794e	-0.045769982
146	0xbe105e36	-0.14098439
147	0xbe8e5ef4	-0.27806818
148	0x3dd209e0	0.1025579
149	0xbe0376a7	-0.12838231
150	0xbea007a1	-0.3125582
151	0xbce97656	-0.02849881
152	0xbdf9a457	-0.121895485
153	0x3cc1ae9c	0.02364283
154	0xbd8cc823	-0.068741105
155	0x3dca1ed6	0.09869163
156	0xbcf7d2a0	-0.030251801
157	0xbe1f9bbc	-0.15586752
158	0xbd9b3d1c	-0.07580015
159	0xbe12b417	-0.14326511
160	0xbdaa3a38	-0.083118856
161	0x3dd826cf	0.10554277
162	0xbe82e446	-0.25564784
163	0xbdb13da0	-0.08654332
164	0xbddf6595	-0.10908047
165	0xbd6830ed	-0.056687284
166	0x3d9c6047	0.07635551
167	0xbe785f30	-0.24255061
168	0xbd9e1252	-0.07718338
169	0xbd8a93dc	-0.06766483
170	0x3cb10aaa	0.02161153
171	0x3da2e67f	0.0795412
172	0x3c16af7b	0.009197111
173	0xbd0af748	-0.033927232
174	0xbdb1fb40	-0.086905
175	0xba917b60	-0.0011099391
176	0xbe9d4643	-0.30717668
177	0xbdbf0edd	-0.09329007
178	0xbdb7e07e	-0.08978365
179	0xbd846859	-0.06465215
180	0xbda2390b	-0.07921036
181	0x3c712bfb	0.014719958
182	0xbe1e71fd	-0.1547317
183	0xbdcf23ce	-0.10114251
184	0xbd9b9911	-0.075975545
185	0xbe8f1712	-0.2794729
186	0x3c9b0806	0.018924724
187	0x3e1610f3	0.14654903
188	0xbc803abe	-0.01565301
189	0xbe059fb1	-0.13049199
190	0xbe5cc2d5	-0.21558698
191	0xbd5c15e6	-0.05373182
192	0xbc35c520	-0.011094362
193	0xbe17be24	-0.14818627
194	0xbd7c6497	-0.061619367
195	0xbe9f850d	-0.31156197
196	0xbe67a57e	-0.22621724
197	0xbe64be91	-0.2233832
198	0xbdbf8fd9	-0.09353609
199	0x3ca7e705	0.0204959
200	0xbe65b787	-0.22433291
201	0xbc9d24b1	-0.019182535
202	0xbe769b99	-0.24082793
203	0x3cf3e5c2	0.029772643
204	0xbd3db89c	-0.046318635
205	0xbe6d0c2d	-0.23149176
206	0x3d11f1a3	0.035630833
207	0xbd385156	-0.044999443
208	0xbd70d7fc	-0.05879973
209	0x3c91082f	0.017704098
210	0xbe97e17e	-0.29664224
211	0xbd0602a2	-0.032717355
212	0xbe2852af	-0.16437791
213	0x3cc4d5a5	0.024027655
214	0x3c658afb	0.014010186
215	0xbe33593b	-0.17514507
216	0xbd4e4e7c	-0.050367817
217	0x3dc6d5a7	0.0970872
218	0xbd2803c4	-0.041019216
219	0x3dafa7a8	0.085769
220	0x3d0b146c	0.033955023
221	0xbd04c6eb	-0.032416265
222	0xbe135e1d	-0.1439137
223	0x3c7f39ec	0.0155777745
224	0xbe8eb2ef	-0.2787089
225	0xbd1fd84e	-0.039024644
226	0xbd295e91	-0.04134995
227	0x3d287e8f	0.04113632
228	0x3e44f0de	0.19232509
229	0xbe277c4e	-0.16356012
230	0xbe9ab2a7	-0.30214426
231	0x3dea0e24	0.11428478
232	0xbea64ed9	-0.3248203
233	0xbcd1c485	-0.025606403
234	0xbdd19405	-0.102333106
235	0x3e13bc5c	0.14427322
236	0xbe1b546f	-0.15168928
237	0xbd3a7911	-0.045525614
238	0xbe8c9c4c	-0.27462995
239	0x3cdf15e6	0.027232122
240	0x3d825342	0.063635364
241	0xbc4ee40d	-0.012627614
242	0xbe52ab73	-0.20573215
243	0xbe3615fd	-0.17781825
244	0xbd302234	-0.04300137
245	0xbe576b2d	-0.21036978
246	0xbe075fd2	-0.13220146
247	0xbe86ab54	-0.26302588
248	0xbe919ea3	-0.28441343
249	0xbe88e181	-0.26734546
250	0xbe2333cf	-0.15937732
251	0xbe723d0b	-0.23656099
252	0xbe31ea21	-0.1737447
253	0xbc718fca	-0.014743755
254	0xbebf9cbb	-0.37424263
255	0xbe656de8	-0.22405207

fc3.weight f4 [100, 256]
0	0xbd07b516	-0.03313168
1	0xbda82551	-0.082102425
2	0xbcf220fa	-0.02955674
3	0xbca8ee25	-0.020621369
4	0xbc8c5059	-0.017128156
5	0xbd01bdf7	-0.031675305
6	0x3c8984f1	0.016787024
7	0xbd2b4572	-0.041814275
8	0x3cbeb1cf	0.023278145
9	0xbd0370d2	-0.032090016
10	0xbd672e3c	-0.056440577
11	0xbd0f60ae	-0.03500431
12	0x3d006f30	0.031356037
13	0x3bc101d0	0.0058901086
14	0xbd4a7a08	-0.049432784
15	0xbb3d1df5	-0.0028856967
16	0xbd86e97b	-0.065875016
17	0xbd3b608c	-0.04574637
18	0xbd2a219e	-0.041535966
19	0x3d557828	0.052116543
20	0x3b1d1b9a	0.002397275
21	0xbba0b28f	-0.0049040983
22	0x3c7a2483	0.015267494
23	0x3d4885e2	0.048955806
24	0xbc440129	-0.011963167
25	0xbcb8c9d8	-0.022557184
26	0xbd74d5c6	-0.059774183
27	0xbd0f8716	-0.035040937
28	0xbd8efb44	-0.06981519
29	0x3c4c5b11	0.012472884
30	0xbd932e68	-0.07186586
31	0xbd7bf30b	-0.06151108
32	0xbd846626	-0.06464796
33	0xbd2c4ebe	-0.042067282
34	0x3cbec99b	0.023289492
35	0xbd8510ab	-0.0649732
36	0x3d4d8733	0.050177764
37	0xbd22d638	-0.039755076
38	0xbd82fa79	-0.0639543
39	0x3ba7c983	0.0051204576
40	0xbd1c0d70	-0.038098752
41	0x3b9900c0	0.004669279
42	0xbd67ab69	-0.056559954
43	0xbd32e936	-0.04367944
44	0xbce76a91	-0.028249057
45	0xbc85aaa5	-0.016316721
46	0xb9859d3c	-0.00025484886
47	0x3c8b9d61	0.017042818
48	0x3d1835c1	0.03716064
49	0xbd21b93f	-0.039483305
50	0x3b780e95	0.0037850488
51	0xbdae4bd2	-0.08510555
52	0xbc447b81	-0.011992336
53	0xbd555c2d	-0.05208986
54	0x3d0280b6	0.03186103
55	0xbd0da815	-0.034584124
56	0xbb70cc43	-0.0036742843
57	0xbcde83d4	-0.02716247
58	0xbd68c835	-0.056831557
59	0x3cacf6c1	0.021113755
60	0xbc293f2b	-0.010330002
61	0xbceadf0c	-0.02867081
62	0xbc36e7a5	-0.011163627
63	0xbd14d6e8	-0.036337763
64	0x39fc04ad	0.0004806867
65	0x3bc84963	0.006112264
66	0xbcf02a6e	-0.029317107
67	0x3d6b6764	0.057471648
68	0xbd0c4d7f	-0.034253594
69	0xbcded31a	-0.02720027
70	0x3bb89da2	0.0056340257
71	0xbc987626	-0.018611025
72	0xbc075a48	-0.008261271
73	0xbd1bec9f	-0.038067456
74	0x3d25cf73	0.040481042
75	0xbd1fc1c6	-0.039003156
76	0xbd98ae1f	-0.07455086
77	0x3d436278	0.04770133
78	0xbd83c7ee	-0.06434618
79	0xbc075ffc	-0.008262631
80	0x3ca16b84	0.019704588
81	0x3bad3fe6	0.0052871583
82	0xbd82e082	-0.06390478
83	0x3d3c1d1c	0.0459262
84	0xbc92603d	-0.017868156
85	0x3d04ff13	0.03246982
86	0x3c704317	0.014664433
87	0xbd1ad9d7	-0.037805405
88	0x3cdbc62f	0.0268279
89	0x3c727c36	0.014800122
90	0x3cfc666a	0.030810554
91	0xbd905365	-0.07047156
92	0xbd2c9db8	-0.0421426
93	0x3d2620c8	0.040558606
94	0xbd2d4ea6	-0.042311333
95	0xbd06a41c	-0.03287135
96	0x3cf1ac15	0.029501
97	0xbbb7be76	-0.0056074215
98	0xbd7be21e	-0.06149494
99	0x3cdef746	0.027217519
100	0xbb0d9f72	-0.002160993
101	0x3c40d2e3	0.011769029
102	0xbd72c6a8	-0.059271485
103	0xbd351189	-0.044206176
104	0x3d553b64	0.052058592
105	0xbd978b8d	-0.07399664
106	0x3c61daf5	0.013785114
107	0x3d03b922	0.03215898
108	0xbbf2dc2b	-0.0074115
109	0xbd2f767e	-0.042837612
110	0xbcc14d36	-0.023596387
111	0x3cf242de	0.0295729
112	0xbd812909	-0.06306655
113	0xbcdc244d	-0.026872778
114	0x3ad6616f	0.0016355942
115	0x3d3548e8	0.044258982
116	0xbcd71522	-0.026255194
117	0x3d0dadc0	0.03458953
118	0xbd82d33e	-0.063879475
119	0xbd0a7e47	-0.033811834
120	0xbcc57a35	-0.024106124
121	0xbd95f21d	-0.0732157
122	0xbd8dc6e1	-0.06922699
123	0x3d2ebb30	0.042658985
124	0xbca2d657	-0.019877596
125	0x3d282f70	0.041060865
126	0xbd73948d	-0.05946784
127	0xbd24b1b0	-0.04020852
128	0xbcd5662f	-0.026049701
129	0xbd8e27fc	-0.0694122
130	0xbd004d07	-0.03132346
131	0x3d241d34	0.040066913
132	0xbd4740c1	-0.04864574
133	0x3cac2c05	0.021017084
134	0xbd524c6a	-0.051342405
135	0xbd23c640	-0.039983988
136	0x3ce8851b	0.028383782
137	0xbcb9d37c	-0.022683851
138	0xbd88c1f1	-0.066776164
139	0xbc68d4c9	-0.014210888
140	0xbc86e426	-0.016466212
141	0x3b8bfac4	0.004271837
142	0xbd0eb49c	-0.03484021
143	0xbd526c6e	-0.051372938
144	0x3c64b34b	0.013958762
145	0x3b67dc1e	0.0035379003
146	0xbd0db223	-0.034593713
147	0xbd85df0b	-0.06536683
148	0xbda1c80c	-0.07899484
149	0x3b1b612a	0.0023709037
150	0xbd154440	-0.03644204
151	0xbd9044b8	-0.07044357
152	0xbc9f8671	-0.019473286
153	0xbd4bf850	-0.049797356
154	0xbd4e2bda	-0.05033479
155	0xbd8685c0	-0.065684795
156	0xbd0057b1	-0.03133363
157	0x3cbaa8c5	0.022785554
158	0x3c9ea1ed	0.019364322
159	0x3d117dff	0.03552055
160	0xbd731eb5	-0.059355456
161	0x3c899209	0.016793268
162	0xbd217992	-0.03942258
163	0xbd8fbb3b	-0.07018133
164	0x3d3f8799	0.046760175
165	0x3994d397	0.00028386406
166	0xbd4bcb4c	-0.049754426
167	0x3c11124b	0.008854459
168	0x3c494a6d	0.012285811
169	0x3bbbb273	0.00572806
170	0xbd6e4c4d	-0.058178235
171	0x3c8077e3	0.015682166
172	0xbd42026d	-0.047365595
173	0xbcd63182	-0.026146654
174	0x3d3ecf3a	0.046584345
175	0xbd0ed34f	-0.03486949
176	0xbcb3ad6b	-0.021933278
177	0xbacf9b9a	-0.001583922
178	0xbd5e03a0	-0.054202676
179	0x3c314876	0.010820499
180	0xbb462972	-0.0030237106
181	0xbd06dcc1	-0.03292537
182	0xbbbb757c	-0.0057207923
183	0x3b9238e9	0.0044623506
184	0x3d4127a7	0.047156956
185	0x3d5a47e2	0.05329121
186	0xbc6749e4	-0.014116738
187	0xbd161fcd	-0.03665142
188	0xbda55121	-0.08072115
189	0xbd7d10e1	-0.061783675
190	0x3c9286a4	0.017886467
191	0xbba4fb97	-0.0050348747
192	0xbb620b87	-0.0034491734
193	0xbd803e59	-0.06261892
194	0xbc64ac22	-0.013957055
195	0x3d19f23f	0.03758454
196	0x3d0a3a8a	0.033747233
197	0xbd863157	-0.065523796
198	0xbda33fb9	-0.079711385
199	0xba047c29	-0.00050539017
200	0xbd5193c7	-0.051166322
201	0xbbe8eae1	-0.007108078
202	0x3cf5680c	0.02995684
203	0xbcabe294	-0.020982064
204	0xbd2ac808	-0.04169467
205	0xbd44f4b6	-0.048084937
206	0xbcd7d648	-0.026347294
207	0xbc6ed540	-0.01457721
208	0xbcf8d6a9	-0.030375795
209	0x3bd5ead2	0.006528237
210	0x3c9511e3	0.018197006
211	0xbcadb975	-0.021206597
212	0xbc72f10c	-0.014827978
213	0x3d452ca5	0.04813828
214	0xbd51b62a	-0.051199116
215	0xbc2a6b84	-0.01040161
216	0xbd8b8606	-0.06812672
217	0xbd222874	-0.03958936
218	0xbd57b8e0	-0.052666545
219	0xbd208bb8	-0.039195746
220	0xbbd1c4ed	-0.006401649
221	0xbd33b3b3	-0.043872546
222	0x3bf6c419	0.007530701
223	0xbd4c4105	-0.049866695
224	0xbc29cc1f	-0.010363608
225	0xbd294132	-0.04132194
226	0x3d39e970	0.04538864
227	0xbd046579	-0.032323334
228	0xbccbe4a1	-0.024889292
229	0xbcd09cbe	-0.025465365
230	0xbc54476c	-0.012956481
231	0xbc93c303	-0.018037325
232	0x3c91ae29	0.017783241
233	0x3bdcdd42	0.006740243
234	0xbd110355	-0.03540357
235	0xbc643da8	-0.013930716
236	0xbd181f11	-0.037139002
237	0xbd2692db	-0.040667396
238	0x3d403672	0.046926923
239	0xbd606e21	-0.054792527
240	0x3c09c219	0.008408093
241	0x3cd5ab18	0.02608256
242	0x3c486167	0.012230254
243	0x3c954e66	0.01822586
244	0xbd991982	-0.07475568
245	0xbd3c7cfe	-0.04601764
246	0x3d2f0135	0.04272576
247	0xbd49942f	-0.049213585
248	0xbd1a0918	-0.03760633
249	0xbcdd0aea	-0.026982743
250	0xbd809856	-0.06279056
251	0xbcd43e86	-0.02590872
252	0x3d2710dd	0.040787566
253	0x3ca0aade	0.019612726
254	0x3d4957f1	0.049156133
255	0xbd8536b2	-0.06504573

fc3.bias f4 [100]
0	0xbc031e48	-0.008002825
1	0xbda48f97	-0.080352
2	0xbdb347d2	-0.08753933
3	0x3d082293	0.033236098
4	0xbc9d3e7c	-0.019194834
5	0xbcc93f15	-0.024566213
6	0xbcf7515c	-0.030190162
7	0x3d2e4db0	0.042554557
8	0x3d6bf6a3	0.057608258
9	0x3c5ce98b	0.013483415
10	0x3ca91439	0.020639526
11	0xbd2d4022	-0.04229749
12	0xbcbebff8	-0.023284897
13	0x3c7d7127	0.015468872
14	0xbce2e5e0	-0.027697504
15	0x3cd18e74	0.025580622
16	0x3c9d814b	0.01922669
17	0xbc96e7b6	-0.018421035
18	0x3c186bc8	0.009303041
19	0x3bb1f668	0.0054309852
20	0xbd190cb8	-0.037365645
21	0xbacb0418	-0.0015488891
22	0xbd4db0e0	-0.05021751
23	0xbd08925c	-0.033342704
24	0x3c4638b8	0.012098484
25	0x3cf2da57	0.029645128
26	0x3d15644f	0.036472615
27	0xbdc4848d	-0.095955946
28	0xbc809386	-0.015695345
29	0x3d4d8e0d	0.0501843
30	0xbcf6b63b	-0.030116191
31	0xbca24cde	-0.019812044
32	0x3cebea69	0.028798299
33	0x3a97a701	0.0011570157
34	0xbb77f308	-0.0037834067
35	0xbd7e5d27	-0.062100556
36	0xbd88ed97	-0.06685942
37	0xbb9a9151	-0.00471703
38	0xbcaaa088	-0.0208285
39	0x3d459103	0.048233997
40	0x3bbea18f	0.005817599
41	0x3cc308bb	0.023807874
42	0xbda244bb	-0.079232655
43	0xbd928889	-0.07154948
44	0xbc34fa6e	-0.011046035
45	0xbd90980f	-0.07060253
46	0xbdb93eef	-0.09045207
47	0xbbedffef	-0.0072631757
48	0x3d3a251a	0.04544554
49	0xbc151880	-0.00910008
50	0xbc8af526	-0.016962599
51	0xbca5b12c	-0.020226084
52	0xbd9b3c77	-0.07579892
53	0xbd9cdfa1	-0.07659841
54	0xbd83c648	-0.064343035
55	0x3d4e4c02	0.050365455
56	0xbdc4c0f4	-0.096071154
57	0xbd0216b3	-0.03175993
58	0xbccec68e	-0.025241163
59	0xbe0371c0	-0.12836361
60	0xbd051240	-0.032488108
61	0x3d7bc431	0.0614664
62	0xbcdea54d	-0.02717843
63	0xbd9f8082	-0.07788183
64	0xbc04a7a6	-0.008096611
65	0xbd50ba90	-0.05095917
66	0x3c51f3ca	0.0128144715
67	0x3c9c1db8	0.01905714
68	0xbced3d3b	-0.028959861
69	0xbcf553c8	-0.029947177
70	0xbd5666b9	-0.052344058
71	0xbdac718e	-0.08420096
72	0x3d1a58d1	0.03768236
73	0x3d494d9b	0.049146276
74	0x3d2b2062	0.04177893
75	0xbd0a71d7	-0.033799972
76	0x3d5aff46	0.053466104
77	0x3cdd8db1	0.027045103
78	0xbd866c02	-0.065635696
79	0x3c048806	0.008089071
80	0xbd96635b	-0.07343169
81	0x3b8e1d1d	0.0043369667
82	0xbd9af50c	-0.0756627
83	0xbcbb0a95	-0.022832194
84	0xbcdf68e4	-0.027271695
85	0x3a93a631	0.0011264739
86	0xbd425e16	-0.04745301
87	0x3c0a714c	0.008449864
88	0x3d06689e	0.032814614
89	0xbd69680d	-0.056983996
90	0xbd8453ff	-0.064613335
91	0xbd944e4c	-0.072414964
92	0x3b6356f4	0.003468928
93	0x3d45945b	0.048237186
94	0xbda4795e	-0.080309615
95	0xbc31c83f	-0.010850965
96	0xbd829afb	-0.063772164
97	0x3c866908	0.016407505
98	0x3d3240eb	0.04351894
99	0x3b907dba	0.004409519

fc4.weight f4 [14, 100]
0	0x3ca148ef	0.019688098
1	0x3d5bb6a0	0.05364096
2	0x3a4cdd00	0.0007814914
3	0xbd19a51d	-0.03751098
4	0x39065f6e	0.00012814786
5	0x3c515753	0.012777167
6	0x3c8891ac	0.016671024
7	0xbd7ec11e	-0.06219589
8	0x3cdc2c1f	0.026876507
9	0x3df3addf	0.11898398
10	0x3c8c136c	0.017099105
11	0x3dbc3d26	0.09191351
12	0x3c1883ec	0.009308796
13	0x3c62bcd8	0.013838969
14	0x3d587536	0.052846156
15	0xbda6da72	-0.08147134
16	0x3dcac211	0.099002965
17	0x3cd30561	0.0257594
18	0x3d4f1bac	0.0505635
19	0x3dca2df0	0.09872043
20	0x3d32dd4b	0.043668073
21	0xbe82b7ba	-0.25530797
22	0xbcf73d36	-0.030180555
23	0x3c625080	0.013813138
24	0x3cb958b8	0.022625312
25	0xbc81f72c	-0.015864931
26	0xb90d8f67	-0.0001350023
27	0xbda49de3	-0.08037927
28	0x3bab6c8a	0.0052314447
29	0xbd1436c7	-0.036185052
30	0x3d1ba80f	0.03800207
31	0x3df62676	0.120190546
32	0xbdbd3c48	-0.09240013
33	0x3d4d3812	0.0501023
34	0x3d409670	0.04701847
35	0xbd6094f6	-0.05482956
36	0x3d68dc40	0.05685067
37	0xbd4c1970	-0.049828947
38	0x3dd557ea	0.10417159
39	0x3e8f2d57	0.2796428
40	0x3d82ba83	0.063832305
41	0x3d75c699	0.06000385
42	0xb9b9e800	-0.00035458803
43	0x3eeccbe2	0.462493
44	0xbd042264	-0.03225936
45	0x3cced21b	0.02524667
46	0x3c8f5d8e	0.017500665
47	0xbc215e03	-0.009849074
48	0xbc9d10a8	-0.019172981
49	0xbb4b4cc0	-0.0031021088
50	0xb8ff5177	-0.000121745215
51	0xbd902839	-0.07038922
52	0x3c382227	0.011238611
53	0x3d67044e	0.05640059
54	0xbdb59955	-0.088671364
55	0x3cb74a75	0.022374371
56	0x3db54426	0.08850889
57	0x3d265d22	0.040616162
58	0x3d158cfc	0.036511406
59	0xbdaa0205	-0.083011664
60	0x3cbbe918	0.022938296
61	0x3dc52492	0.09626116
62	0xbc2937da	-0.010328257
63	0x3bc2e491	0.0059476574
64	0x3e184719	0.14870872
65	0x3c80da9a	0.015729237
66	0xbd124746	-0.035712503
67	0xbd4ff7fe	-0.050773613
68	0xbc0ec831	-0.008714722
69	0xbd9e08cc	-0.077165216
70	0x3acd8580	0.0015680045
71	0x3acd9ee9	0.0015687618
72	0xbb44439d	-0.0029947527
73	0x3d953702	0.072858825
74	0x3c442a55	0.011972983
75	0xbe08c5f9	-0.1335677
76	0xbd8c7f22	-0.06860186
77	0x3d1c9e93	0.038237166
78	0x3d8311fe	0.06399916
79	0xbd60e1de	-0.054902904
80	0xbd727593	-0.05919416
81	0x3dc0430c	0.09387788
82	0x3d3443e3	0.044010054
83	0x3c4cabe8	0.0124921575
84	0x3c894030	0.01675424
85	0x3db959c0	0.090503216
86	0x3d28bc11	0.04119498
87	0x3e29cc0f	0.16581748
88	0x3da8a2df	0.0823419
89	0xbb6274b9	-0.0034554435
90	0xbd0fec95	-0.03513773
91	0x3d73d8bd	0.05953287
92	0xbcf1500e	-0.029457118
93	0x3c07cc13	0.008288401
94	0xbe5d10f8	-0.21588504
95	0xbc60b138	-0.013714127
96	0xbd987255	-0.07443682
97	0xbda9eeaf	-0.082974784
98	0x3d51fff5	0.05126949
99	0xbd12d771	-0.035849992
100	0xbb207d95	-0.0024488915
101	0xbb9a33e0	-0.004705891
102	0xbdbd2b8f	-0.09236824
103	0xbd94b86a	-0.07261737
104	0x3c8c3cf2	0.017118905
105	0xbdaa2920	-0.08308625
106	0x3d225a42	0.039636858
107	0xbbf64524	-0.0075155664
108	0x3e046898	0.12930524
109	0x3d50e288	0.050997287
110	0xbd1ff489	-0.039051566
111	0xbd07ae55	-0.03312524
112	0x3a556e10	0.0008141706
113	0x3e2c6297	0.16834484
114	0x3d351fe0	0.04421985
115	0x3b9dd72b	0.00481691
116	0xbd366520	-0.044530034
117	0xbd544beb	-0.051830214
118	0xbc828217	-0.015931172
119	0xbc00420d	-0.007828248
120	0x3d33aa73	0.043863725
121	0xbe0ae60f	-0.13564323
122	0x3da501f7	0.080570154
123	0xbc5f6280	-0.013634324
124	0xbd9d27a2	-0.07673575
125	0x3d1344e3	0.035954367
126	0x3e3185ed	0.17336245
127	0xbdc4032b	-0.09570917
128	0xbcd2728f	-0.025689391
129	0x3d645cfc	0.05575274
130	0xbd7c3990	-0.061578333
131	0x3daf313f	0.08554315
132	0xbd4c2e57	-0.04984888
133	0xbdccdf07	-0.100034766
134	0x3ca25b07	0.019818796
135	0xbd37bf1a	-0.044859983
136	0xbcb4a773	-0.022052502
137	0x3baeb930	0.0053321347
138	0x3e3b66d1	0.1830094
139	0x3e3fc349	0.18726839
140	0xba27f2ae	-0.00064067065
141	0x3da8291a	0.082109645
142	0xbcb54d14	-0.02213148
143	0xbe6d33f0	-0.23164344
144	0x3e0aaae6	0.13541755
145	0x3e0baa75	0.13639243
146	0x3d38d1a3	0.0451218
147	0x3d85f424	0.06540707
148	0xbd2b99a3	-0.041894566
149	0xbc788cb1	-0.015170262
150	0xbc14b78e	-0.009076966
151	0x3d6e8805	0.058235187
152	0xbd4dbc53	-0.050228428
153	0xbd528bba	-0.051402785
154	0x3cbc7280	0.023003817
155	0x3daaa713	0.08332648
156	0xbe2b33ea	-0.16719022
157	0x3cc04319	0.023469495
158	0xbd2dbbe0	-0.0424155
159	0x3d70b328	0.058764607
160	0x3d529c44	0.051418558
161	0x3d1b40f5	0.037903745
162	0x3d24fb68	0.040278822
163	0xbd422063	-0.047394168
164	0x3dfaf237	0.1225323
165	0xbbdce163	-0.0067407354
166	0xbc875003	-0.016517645
167	0xbdd59a6f	-0.104298465
168	0x3bfa3c31	0.00763657
169	0xbd7b7423	-0.061390053
170	0x39b32a00	0.00034172833
171	0x3d22d16e	0.03975051
172	0xbcda7f71	-0.026672097
173	0x3d857244	0.06515935
174	0x3d0f20d3	0.034943413
175	0x3e5d7a2b	0.21628635
176	0x3c404c21	0.011736901
177	0xbd07043d	-0.032963026
178	0x3d9d5ff1	0.07684315
179	0xbbb8248e	-0.005619592
180	0x3ce32314	0.027726687
181	0x3d67ac37	0.05656072
182	0x3c97b370	0.01851818
183	0x3cb1f107	0.021721376
184	0x3c5e12e3	0.013554308
185	0x3d431193	0.047624182
186	0x3d9484ef	0.072519176
187	0x3e3a8eca	0.18218532
188	0x3e114a79	0.14188565
189	0xbd9355df	-0.07194113
190	0x3b6165d1	0.0034392963
191	0xbccdbfd0	-0.025115877
192	0x3e013565	0.12618025
193	0x3da23b6f	0.07921492
194	0x3ce1ec8a	0.02757861
195	0x3c5961f4	0.013267983
196	0xbb1eb940	-0.0024219304
197	0x3c3a75f3	0.01138066
198	0x3d28eaa7	0.041239407
199	0x3c506bcb	0.012721012
200	0xbd19b6f6	-0.037528
201	0xbd8e810d	-0.06958208
202	0xbdb32a8f	-0.08748352
203	0xbd28502d	-0.041092087
204	0x3d416612	0.047216482
205	0xbd64a036	-0.05581685
206	0xbccdf434	-0.02514086
207	0x3d7111f6	0.05885502
208	0x3c8b5825	0.017009804
209	0xbc44a7e8	-0.012002923
210	0x3daaa62b	0.08332475
211	0x3d0bffc5	0.034179468
212	0xbcc5d774	-0.024150588
213	0x3cd3cba2	0.025853936
214	0x3db019db	0.085986815
215	0xbcc67ea8	-0.024230316
216	0x3d074336	0.03302308
217	0x3cbc0a19	0.022954034
218	0xbd9b527c	-0.07584092
219	0x3e431680	0.19051552
220	0x3d07952e	0.033101253
221	0xbead2bfd	-0.33822623
222	0x3cdbd4f7	0.026834948
223	0x3dc32187	0.09527879
224	0xbbdf97d0	-0.0068235174
225	0xbc8ba235	-0.01704512
226	0x3daf07c6	0.085464045
227	0x3da4e829	0.080520935
228	0x3d5e0ec0	0.054213285
229	0x3e2a4f9a	0.16631928
230	0xbde817b8	-0.11332649
231	0xbbbea7c7	-0.0058183405
232	0x3d14bf42	0.03631521
233	0xbd114e07	-0.035474803
234	0xbdb3f6fb	-0.08787342
235	0x3d5149b2	0.051095672
236	0xbd28dc14	-0.041225508
237	0xbd2443ed	-0.04010384
238	0xbc610679	-0.013734453
239	0x3e5dd776	0.21664223
240	0xbc437ee9	-0.011932113
241	0xbc8ce104	-0.01719714
242	0x3d38fd82	0.04516364
243	0xbe86658d	-0.26249352
244	0x3daca441	0.084297664
245	0xbdb4d16c	-0.088290066
246	0x3ddec965	0.10878257
247	0xbdd3dabe	-0.10344456
248	0xbd433e80	-0.047667027
249	0xbd5457cd	-0.051841546
250	0xbd4063ce	-0.04697018
251	0xbd903600	-0.0704155
252	0x3b2f94a6	0.0026791482
253	0xbce93578	-0.028467879
254	0x3d8032bd	0.062596776
255	0x3e30805f	0.1723647

fc4.bias f4 [14]
0	0xbd729a1d	-0.059229005
1	0xbc935ce6	-0.017988633
2	0xbd45a43b	-0.048252326
3	0xbd69e789	-0.057105575
4	0xbce3fb39	-0.027829753
5	0xbd18b357	-0.037280407
6	0xbde308e0	-0.11085677
7	0xbe159f40	-0.1461153
8	0xbe509e55	-0.20372899
9	0xbe0380e2	-0.12842134
10	0xbeedd106	-0.46448535
11	0xbe3bb98e	-0.18332502
12	0xbe1a4d91	-0.15068652
13	0xbd1e92ca	-0.038714208
