act_net.pth (torch, 687247 bytes, 8 tensors)

fc1.weight f4 [512, 24]
0	0xbd65219d	-0.05594026
1	0x3dcb90f2	0.099397555
2	0x3dcb0844	0.09913686
3	0x3e3de490	0.18544221
4	0xbae6f45d	-0.0017620433
5	0xbebd67e4	-0.36993325
6	0x3eceadb7	0.4036691
7	0xbe95d209	-0.29261807
8	0xbe22dc42	-0.15904334
9	0x3eb05188	0.34437203
10	0xbe8e06be	-0.2773952
11	0x3d51c0cb	0.051209252
12	0x3b8fc278	0.004387196
13	0x3e9804bf	0.2969112
14	0x3e1ac49d	0.15114065
15	0xbd3fbe91	-0.046812598
16	0x3e1a8987	0.15091525
17	0xbd384fb3	-0.044997882
18	0x3d8ef3cc	0.06980094
19	0x3e3d65d1	0.18495871
20	0x3e8c3053	0.27380618
21	0xbd5133a0	-0.051074624
22	0x3f03c90b	0.5147864
23	0xbf3853b3	-0.72002715
24	0xbdf82da1	-0.12118078
25	0x3f13eb24	0.5778067
26	0xbecf2a3a	-0.40461904
27	0x3e7b0c53	0.2451642
28	0xbd0afdd7	-0.033933487
29	0x3e6c41ca	0.23071972
30	0xbf02d793	-0.5111019
31	0x3eb399f4	0.35078394
32	0xbeaa36fb	-0.33245072
33	0x3d5c19e0	0.053735614
34	0xbe58bf1a	-0.2116665
35	0x3ee1698a	0.44025832
36	0xbe9ebcc6	-0.31003398
37	0x3ee90865	0.45514217
38	0xbf12a0fc	-0.5727689
39	0x3e529a22	0.2056661
40	0xbe93ffc1	-0.28906062
41	0xbcb3da27	-0.02195461
42	0xbe39a84a	-0.18130603
43	0xbd154388	-0.036441356
44	0x3ded17fa	0.11576839
45	0xbe270cfd	-0.16313548
46	0xbd97d9ea	-0.07414611
47	0xbe6dcbc4	-0.23222262
48	0x3ea05a2e	0.31318802
49	0xbe29ffe2	-0.16601518
50	0xbda2770a	-0.07932861
51	0x3e248485	0.16066177
52	0x3d48fd15	0.049069483
53	0x3d45bb96	0.0482746
54	0xbdfc62e1	-0.12323547
55	0x3e8ae181	0.2712517
56	0x3e0d59eb	0.13803832
57	0x3e090b2f	0.13383172
58	0x3e83120e	0.25599712
59	0xbefd305c	-0.49450958
60	0x3cdc4698	0.02688913
61	0xbeb3a09e	-0.3508348
62	0x3e33352c	0.17500752
63	0xbe707f62	-0.23486093
64	0x3e25d8fb	0.16196053
65	0xbdf8f0a0	-0.121552706
66	0x3eb70b08	0.35750604
67	0xbdabd687	-0.08390527
68	0x3e9ab113	0.30213222
69	0xbe672d5b	-0.22575895
70	0x3d99fc63	0.07518842
71	0x3e4d7869	0.20065464
72	0x3f0b3921	0.54384047
73	0xbcfb2c03	-0.030660635
74	0x3d8dd6eb	0.06925758
75	0x3e3730fe	0.17889783
76	0x3d9a76e6	0.07542209
77	0xbecf2e73	-0.40465125
78	0xbe0dd650	-0.13851285
79	0x3d81a00f	0.06329357
80	0xbdbe7b27	-0.09300833
81	0xbd9101e8	-0.07080442
82	0xbd714d0a	-0.05891136
83	0xbe523061	-0.20526268
84	0x3ee0cb5c	0.4390515
85	0x3d81ff23	0.063474916
86	0x3f1fbcc2	0.62397397
87	0xbedc50b5	-0.43030325
88	0x3e60cbdf	0.2195277
89	0x3e4e4e44	0.20147043
90	0x3e859153	0.26087436
91	0x3d732cd0	0.05936891
92	0x3e57cbd4	0.21073848
93	0x3db6f654	0.08933702
94	0xbe0317ff	-0.12802123
95	0x3e595d28	0.21226943
96	0xbd4f2f09	-0.050581966
97	0x3e23f6a3	0.16012053
98	0x3ddab4bf	0.10679006
99	0x3e179f13	0.14806776
100	0xbd243e51	-0.040098492
101	0x3e579514	0.21052963
102	0xbdcba199	-0.09942932
103	0x3eaa6f22	0.33287913
104	0xb9a964b6	-0.00032309227
105	0xbe8ca1bf	-0.27467152
106	0xbe1c9edc	-0.15294975
107	0x3c9c6d3c	0.019095056
108	0x3a1f9249	0.0006087167
109	0x3cd3cd00	0.025854588
110	0xbeb67fc0	-0.3564434
111	0x3ec384d6	0.38187283
112	0xbd2207b8	-0.039558142
113	0xbdfb6249	-0.12274606
114	0xbe631a7d	-0.22178073
115	0xbc9e34c6	-0.019312274
116	0x3e06b47f	0.13154791
117	0x3e892e77	0.26793262
118	0xbc52b56d	-0.012860638
119	0xbef879a2	-0.48530298
120	0x3d12b704	0.03581907
121	0xbe9212be	-0.28529924
122	0x3d1f9854	0.03896363
123	0x3e52d75c	0.20589966
124	0x3e89ae88	0.2689097
125	0xbf3fb89d	-0.7489107
126	0x3e83253f	0.25614354
127	0x3cf88dd4	0.030341066
128	0x3dd437b8	0.1036219
129	0xbd73062a	-0.05933205
130	0xbc522efd	-0.012828586
131	0xbe303426	-0.17207393
132	0x3e528e24	0.20562035
133	0xbecca66c	-0.3997072
134	0xbd9256f8	-0.07145494
135	0xbc148ca9	-0.009066739
136	0x3e007558	0.12544763
137	0x3e024433	0.12721328
138	0xbcf15477	-0.029459221
139	0x3dbfe07a	0.093689874
140	0xbf02d876	-0.51111543
141	0x3ddc0f12	0.10745062
142	0xbef618a6	-0.4806568
143	0x3f61e350	0.88237476
144	0xbd12b121	-0.035813455
145	0x3ea9bfd7	0.33154175
146	0x3ef7dd8b	0.4841121
147	0xbe23b02c	-0.15985173
148	0x3e5ed303	0.21760182
149	0xbeb71646	-0.3575918
150	0xbdfbdfe4	-0.12298563
151	0xbe65f219	-0.22455634
152	0xbeb2ce91	-0.34923223
153	0x3c6a1a3d	0.014288482
154	0x3e23f796	0.16012415
155	0xbd532035	-0.051544387
156	0xbe4ab199	-0.1979431
157	0xbed4f1ca	-0.4159072
158	0x3e5dabf0	0.2164762
159	0xbebe4e96	-0.3716933
160	0x3cd6104b	0.026130816
161	0xbbc4ab6a	-0.0060018795
162	0x3e39dbd3	0.18150263
163	0xbe70fa5f	-0.23533009
164	0x3e4d3f4b	0.20043676
165	0xbe2f7eff	-0.17138289
166	0xbebb58f4	-0.36591303
167	0xbe8f1916	-0.27948827
168	0xbcb3a7a6	-0.021930527
169	0x3df2ef23	0.11862018
170	0x3e6c33ff	0.2306671
171	0x3e2601e4	0.16211659
172	0x3e2500df	0.16113614
173	0xbed9625a	-0.4245785
174	0xbef74281	-0.48292926
175	0x3ccf3367	0.025293065
176	0xbdbd1668	-0.09232789
177	0x3e4bb199	0.19891967
178	0x3f092cbe	0.53583896
179	0x3d5649e3	0.052316558
180	0x3e11c2e0	0.14234495
181	0x3cf08212	0.029358897
182	0x3d96335d	0.073340155
183	0x3dd576cf	0.104230516
184	0x3fa17172	1.2612746
185	0xbfa28cec	-1.2699256
186	0x3d8a812b	0.06762918
187	0xbdeefd60	-0.11669421
188	0x3cfc89b4	0.03082738
189	0xbe75e38e	-0.24012586
190	0xbe0f263e	-0.13979432
191	0xbe6dee94	-0.23235542
192	0x3d709689	0.05873731
193	0xbe03b3fa	-0.12861624
194	0x3e952a0b	0.2913364
195	0x3e70efde	0.23529002
196	0x3e3773d4	0.17915279
197	0xbd2f5db5	-0.042813975
198	0xbe4eea72	-0.20206621
199	0x3dc45726	0.09586935
200	0x3daaaaf2	0.083333865
201	0xbe89dcff	-0.2692642
202	0x3d2d4e05	0.042310733
203	0xbe15ce6b	-0.14629523
204	0xbea5bda6	-0.32371253
205	0x3f161234	0.58621526
206	0xbe0356cc	-0.12826079
207	0x3e2b69a3	0.16739516
208	0x3dfc0b9e	0.12306903
209	0xbde0c9f7	-0.10976022
210	0xbc592401	-0.013253213
211	0xbd88e0c1	-0.066834934
212	0x3ed5f169	0.41785744
213	0xbf085cdb	-0.53266686
214	0xbcf815d9	-0.030283855
215	0x3f22ff9f	0.63671297
216	0x3dd117f7	0.10209649
217	0xbf23d4c5	-0.63996536
218	0xbe869a90	-0.26289797
219	0xbd3c703f	-0.046005484
220	0x3e6524e2	0.22377351
221	0x3e12c335	0.14332278
222	0x3eb5d488	0.3551371
223	0xbe293d74	-0.16527349
224	0x3ec2db32	0.38057858
225	0xbe90c8f8	-0.28278327
226	0xbeee2b17	-0.4651725
227	0x3f2ed696	0.6829618
228	0x3e0a0dc0	0.13481808
229	0x3c6ab5ec	0.0143256
230	0xbd1c85bd	-0.03821348
231	0x3e36d5ca	0.17854992
232	0xbe3219ea	-0.17392698
233	0x3d1a0df0	0.037610948
234	0x3def7fff	0.11694335
235	0x3d7247d1	0.05915052
236	0x3d18cfd7	0.037307587
237	0xbdd9a020	-0.106262445
238	0x3e060c9e	0.1309075
239	0xbe8d9f0d	-0.2766041
240	0x3e5d151c	0.21590084
241	0xbe996876	-0.2996251
242	0x3dc4a3c5	0.09601549
243	0x3d5cc9df	0.053903457
244	0x3d834786	0.064101264
245	0xbd980280	-0.07422352
246	0x3dc2d11a	0.09512539
247	0x3e96f0ab	0.2948049
248	0xbc83600b	-0.016037008
249	0xbd938560	-0.07203174
250	0x3e796ccd	0.2435791
251	0xbe5a802f	-0.2133796
252	0x3dae1967	0.08500939
253	0xbe1ec63a	-0.15505305
254	0x3eabd151	0.33558133
255	0x3d62fa57	0.055414524

fc1.bias f4 [512]
0	0xbe47d4a2	-0.19514707
1	0x3f23fc9c	0.64057326
2	0xbdbfafa3	-0.09359672
3	0xbe775110	-0.24152017
4	0xbe2ec90d	-0.17068882
5	0xbd7f1691	-0.06227738
6	0x3d8335df	0.064067595
7	0xbc8498f3	-0.016186213
8	0x3e6a721e	0.22895095
9	0x3d14d6e9	0.036337767
10	0x3ed0c2a7	0.40773508
11	0xbda4e14b	-0.08050784
12	0xbd12f7ee	-0.035880975
13	0xbe9f4b1d	-0.31111994
14	0xbd976ced	-0.07393823
15	0x3c765690	0.015035287
16	0xbebe9f80	-0.37231064
17	0x3eb6b6ce	0.35686344
18	0xbe7e9641	-0.24862005
19	0x3e676c03	0.22599797
20	0xbef82e81	-0.4847298
21	0xbd8fc365	-0.070196904
22	0x3f3c7863	0.73621196
23	0xbe484919	-0.19559135
24	0x3e95b0b6	0.29236382
25	0xbd111d0d	-0.035428096
26	0xbddfc0fd	-0.109254815
27	0x3edc732d	0.43056622
28	0xbdc21f50	-0.09478629
29	0x3e9f3acb	0.31099543
30	0x3eb931cf	0.36170813
31	0x3d80b0f0	0.06283748
32	0x3e1a676d	0.15078516
33	0xbe0dbe8a	-0.13842216
34	0xbeadf164	-0.3397323
35	0xbe80fc8c	-0.25192678
36	0xbec3b4bc	-0.38223827
37	0xbe33e55f	-0.17567967
38	0x3db83925	0.089952745
39	0xbe1a3e74	-0.15062886
40	0x3f450d83	0.7697374
41	0x3da51cec	0.08062157
42	0x3e01c4e5	0.12672766
43	0x3dafe2c3	0.08588173
44	0x3e7cdf96	0.24694666
45	0x3e21e3f0	0.15809608
46	0xbee1edfa	-0.44126874
47	0x3dc77053	0.09738221
48	0x3eabb31e	0.33535093
49	0x3f09df3f	0.5385627
50	0x3b13ec00	0.0022571087
51	0xbe01aa74	-0.12662679
52	0x3db39817	0.08769243
53	0x3eadc9e4	0.33943093
54	0xbe735373	-0.23762302
55	0xbe4d9070	-0.2007463
56	0xbe6eca44	-0.23319346
57	0xbdfa4deb	-0.12221893
58	0xbe0f9038	-0.14019859
59	0xbe80e317	-0.25173256
60	0xbd58c46b	-0.052921694
61	0xbde8099f	-0.1132996
62	0x3db31c02	0.087455764
63	0xbe3d7b50	-0.18504071
64	0x3d37bfac	0.044860527
65	0xbf3a6532	-0.7281066
66	0x3ea70b1b	0.3262566
67	0xbdfcb72a	-0.12339623
68	0xbd9a2752	-0.07527031
69	0x3eb95daa	0.36204273
70	0x3ea08187	0.31348822
71	0x3ea7fefe	0.3281173
72	0xbd12d403	-0.03584672
73	0xbd04bd84	-0.0324073
74	0xbb9affc8	-0.0047301985
75	0xbe8b537c	-0.2721213
76	0xbf091406	-0.5354618
77	0xbddc358e	-0.10752402
78	0x3e277ad3	0.16355447
79	0x3e9124f9	0.2834852
80	0x3e8db8a9	0.27679947
81	0xbe2b0880	-0.16702461
82	0xbec7837d	-0.38967505
83	0xbe5c516d	-0.21515436
84	0xbe955be5	-0.29171672
85	0x3ed189a2	0.40925318
86	0x3de919b3	0.11381855
87	0x3e37c830	0.17947459
88	0x3e4b58d6	0.19858107
89	0xbea65617	-0.32487556
90	0xbe3c4ed4	-0.18389446
91	0x3dffa9a7	0.124835305
92	0xbe2bf9f9	-0.16794576
93	0xbd45b534	-0.048268512
94	0xbd378a4c	-0.044809625
95	0xbe5deeff	-0.21673201
96	0xbddce740	-0.10786295
97	0x3e099044	0.13433939
98	0x3e0a9433	0.13533096
99	0xbc924b54	-0.017858185
100	0xbda29faf	-0.079406135
101	0x3edab5ee	0.42716926
102	0x3e3aacf3	0.18230037
103	0xbe57d631	-0.21077801
104	0x3d365e75	0.044523675
105	0x3d9dbfdb	0.07702609
106	0x3e0342f6	0.12818512
107	0x3c78fa34	0.015196372
108	0x3f01e05e	0.5073298
109	0x3ebf8e51	0.37413266
110	0x3ed5cf1b	0.4175957
111	0xbe65317d	-0.2238216
112	0x3e40dc53	0.18834047
113	0x3d411a4a	0.04714421
114	0xbd8c7548	-0.06858307
115	0x3e95574e	0.2916817
116	0x3dab12f6	0.08353226
117	0xbb8f2a00	-0.0043690205
118	0xbede7856	-0.43451184
119	0x3de07c11	0.10961164
120	0xbead56c9	-0.33855274
121	0x3e21ad23	0.15788703
122	0xbebd1bd1	-0.36935285
123	0x3ec4d908	0.38446832
124	0xbc80f375	-0.01574109
125	0x3ceae033	0.02867136
126	0xbeedfcbc	-0.46481884
127	0xbd4a565d	-0.04939877
128	0xbeb6a6f0	-0.35674238
129	0xbe979c74	-0.29611552
130	0x3d1750e3	0.036942374
131	0x3e5c55db	0.21517126
132	0xba9434a3	-0.0011307191
133	0xbeb17329	-0.34658173
134	0xbe96f13b	-0.2948092
135	0xbe2ea0ca	-0.17053524
136	0x3de07de5	0.109615125
137	0xbcd7c6ab	-0.02633985
138	0xbec84981	-0.3911858
139	0xbe7c324d	-0.24628563
140	0x3e9c557c	0.3053397
141	0x3ef96ffa	0.48718244
142	0x3e02325e	0.12714526
143	0xbda8b963	-0.08238485
144	0xbee99f2b	-0.45629248
145	0xbe04e489	-0.12977804
146	0x3ea49099	0.3214157
147	0xbddbfaf5	-0.10741226
148	0xbe96d4d8	-0.29459262
149	0xbde07d94	-0.10961452
150	0xbf054b21	-0.5206776
151	0x3eb72af7	0.35774967
152	0xbf01f1de	-0.50759685
153	0x3cf2b438	0.02962695
154	0xbe4e3a8e	-0.20139524
155	0xbd48813e	-0.04895138
156	0x3ceaba39	0.028653251
157	0xbe1fc2e9	-0.15601696
158	0xbe2d314d	-0.16913338
159	0xbe434633	-0.19069748
160	0xbead1cc3	-0.33811006
161	0x3c395073	0.0113106845
162	0x3d0723b5	0.032993037
163	0x3db45522	0.088053
164	0x3ef13e7d	0.47117987
165	0x3cc19a4e	0.023633149
166	0xbe915317	-0.28383705
167	0xbc4f6672	-0.012658702
168	0xbe391e31	-0.18077923
169	0xbeaf7742	-0.34270674
170	0x3e6b0558	0.22951257
171	0xbf238188	-0.63869524
172	0x3e7d4daf	0.24736665
173	0xbe15528f	-0.14582275
174	0x3d41ec0f	0.047344264
175	0x3e7ad527	0.24495374
176	0xbe116513	-0.14198713
177	0x3e5993fa	0.21247855
178	0x3e3f616d	0.18689509
179	0xbd5974c4	-0.053089872
180	0x3c9ee044	0.019394048
181	0xbdcfb357	-0.10141628
182	0xbe98c379	-0.29836634
183	0xbeea0041	-0.4570332
184	0x3d3fa451	0.046787564
185	0xbe0efc61	-0.13963462
186	0xbe0976f0	-0.13424277
187	0x3ebca324	0.36843216
188	0xbea6d06f	-0.32580897
189	0x3edcc02a	0.4311536
190	0x3e65a059	0.22424449
191	0xbf033f2e	-0.5126828
192	0xbf33ac68	-0.70184946
193	0x3db71683	0.08939841
194	0xbd9403d3	-0.07227292
195	0xbeb05e30	-0.3444686
196	0xbf18c576	-0.596763
197	0xbe8ae959	-0.27131155
198	0xbe1436ba	-0.14474002
199	0x3eeb4af4	0.45955622
200	0x3d2b4560	0.041814208
201	0x3e09b705	0.13448723
202	0x3e7e85df	0.24855755
203	0x3eae5f4a	0.34057075
204	0xbe49e0ae	-0.19714615
205	0x3ec7aeef	0.3900065
206	0xbe9ef9a4	-0.31049836
207	0xbe864b1e	-0.26229185
208	0xbe8e4923	-0.27790174
209	0xbdab5368	-0.08365518
210	0xbcfe2b2d	-0.031026447
211	0xbe0c3f44	-0.13696009
212	0xbf083c6a	-0.53217185
213	0xbe1136ec	-0.14181107
214	0xbd477aeb	-0.048701208
215	0x3ee9214c	0.45533216
216	0xbe0dabbb	-0.13835041
217	0xbf0e14dc	-0.5550058
218	0x3ee23224	0.4417888
219	0xbee65b9c	-0.44991767
220	0x3eb3e9cf	0.3513932
221	0xbe81b4c3	-0.25333223
222	0x3d783c94	0.060604647
223	0xbe49b8ac	-0.19699353
224	0xbddbed40	-0.10738611
225	0x3d0938eb	0.033501547
226	0x3e4d7244	0.2006312
227	0x3cc1af14	0.023643054
228	0x3c686591	0.014184372
229	0xbe0a334b	-0.13496129
230	0xbe7e9cbc	-0.24864477
231	0x3e60e9ce	0.2196419
232	0xbe450d9e	-0.19243476
233	0xbe008c14	-0.12553436
234	0x3e4c7390	0.19965959
235	0x3d9428c1	0.07234336
236	0x3d6497ef	0.055808958
237	0x3ecc5053	0.39905033
238	0x3e745089	0.23858847
239	0xbe29a96c	-0.16568536
240	0xbdd2bdc2	-0.102901
241	0x3eb203f0	0.3476863
242	0x3e852fb9	0.26012972
243	0xbde0689d	-0.109574534
244	0x3e77ae76	0.24187645
245	0xbd9cadc1	-0.076503284
246	0xbd15eea8	-0.036604553
247	0x39fca0bc	0.00048184942
248	0xbe871962	-0.26386553
249	0x3e6c700d	0.23089619
250	0x3c9a04b4	0.01880107
251	0x3e768487	0.24073993
252	0xbdd0c0c2	-0.10193016
253	0xbe5f7bb4	-0.21824533
254	0xbeb9e187	-0.36304876
255	0x3e42fc01	0.19041444

fc2.weight f4 [256, 512]
0	0xbdeb283b	-0.11482283
1	0xbbfa1e64	-0.0076330174
2	0x3e35d1a0	0.17755747
3	0x3d1962d5	0.03744777
4	0x3db508af	0.08839547
5	0xbc8319ab	-0.01600345
6	0x3d7b11e5	0.061296362
7	0xbe0f275d	-0.1397986
8	0xbe35ea68	-0.177652
9	0xbd349da1	-0.04409564
10	0x3cd478c8	0.0259365
11	0x3cb19d51	0.02168146
12	0x3dc0ae10	0.094082
13	0xbe0eeed5	-0.13958295
14	0x3ddd0ba3	0.10793235
15	0x3dc91137	0.098177366
16	0xbe1d0534	-0.15334016
17	0xbcb88efd	-0.02252912
18	0xbd08e8f8	-0.0334253
19	0xbe354d52	-0.17705277
20	0xbb1b2220	-0.0023671463
21	0x3c033e07	0.008010394
22	0xbd9af8ed	-0.0756701
23	0x3e038c1d	0.12846418
24	0x3db656c5	0.08903269
25	0x3d5fef2a	0.054671444
26	0x3ebed008	0.3726809
27	0x3dc1f89e	0.09471248
28	0x3deb0668	0.11475831
29	0x3cf487ab	0.029849848
30	0xbe3245e6	-0.17409477
31	0xbdeb59e2	-0.11491753
32	0xbd9b3711	-0.075788625
33	0x3e4813f7	0.19538866
34	0xbd2ee0c4	-0.042694822
35	0x3d876d88	0.06612688
36	0xbea49aaa	-0.3214925
37	0x3efeb45b	0.49746975
38	0xbd2c1e93	-0.042021345
39	0x3b0dc08e	0.0021629664
40	0xbe2fd610	-0.17171502
41	0x3df0c154	0.117556244
42	0x3df4d8d5	0.1195542
43	0xbd245c4f	-0.040127095
44	0x3db93976	0.09044163
45	0xbe16f141	-0.14740469
46	0xbdaa2c68	-0.08309251
47	0x3daf5490	0.08561051
48	0x3d90b5f6	0.07065956
49	0x3d2561bf	0.04037642
50	0x3dfe0bb0	0.12404573
51	0xbe96f5d9	-0.29484442
52	0xbca4d872	-0.02012274
53	0xbd52e252	-0.051485367
54	0xbd97d730	-0.07414091
55	0xbddb581e	-0.107101664
56	0x3dac17dc	0.08402988
57	0xbd80a3a4	-0.06281212
58	0xbe11e05f	-0.14245747
59	0xbd0df922	-0.03466142
60	0xbeb22f00	-0.34801483
61	0xbdc3acec	-0.095544666
62	0xbe7855dd	-0.24251504
63	0x3f19a5a7	0.6001839
64	0x3e22197c	0.15830034
65	0xbe829a78	-0.25508475
66	0x3c898701	0.016788008
67	0x3dde0162	0.108401075
68	0xbd178f7d	-0.037002075
69	0xbbadf2b5	-0.005308474
70	0xbf033e07	-0.5126652
71	0x3df45308	0.119298995
72	0x3d9e08fb	0.07716557
73	0x3e95a7f8	0.29229712
74	0xbe9e9cf8	-0.30979133
75	0xbe0a19c4	-0.13486391
76	0xbe341b6e	-0.17588589
77	0xbd057830	-0.032585323
78	0x3d018f4c	0.0316308
79	0x3e8c9c9f	0.27463242
80	0x3dad235d	0.08454011
81	0xbbd6ac81	-0.006551326
82	0x3e21e958	0.1581167
83	0x3c46b564	0.012128208
84	0xbdcca8f9	-0.099931665
85	0x3db3b93b	0.08775564
86	0x3d868889	0.06569011
87	0xbdb621a8	-0.08893138
88	0x3d17b2a0	0.037035584
89	0x3d15de81	0.03658915
90	0xbebf3052	-0.37341553
91	0xbd79209a	-0.060822107
92	0x3e0ec771	0.13943268
93	0x3e855b30	0.26046133
94	0xbe1abcb0	-0.15111041
95	0x3cd5ec5c	0.026113681
96	0xbdf4127d	-0.11917589
97	0xbe4ff97b	-0.20310013
98	0xbd2dcdd3	-0.042432617
99	0xbd86b838	-0.06578106
100	0xbdef8956	-0.116961166
101	0x3e4526ab	0.19253032
102	0xbdbe7ce2	-0.09301163
103	0x3e0f0d7c	0.13969988
104	0xbea2b589	-0.31779125
105	0xbe83b270	-0.25722075
106	0x3e8469ee	0.25862068
107	0x3e03b3d4	0.12861568
108	0x3dd53858	0.10411137
109	0x3c7cb291	0.015423433
110	0x3e6d8f39	0.23199166
111	0x3eb94ab4	0.36189806
112	0xbb1c9fd0	-0.0023898967
113	0x3d39c486	0.045353435
114	0x3dcb1bbf	0.099174015
115	0x3d9d54d1	0.07682193
116	0x3ccdc22f	0.025117008
117	0xbe63b1d6	-0.22235808
118	0xbb283c68	-0.002567077
119	0xbe9935b9	-0.299238
120	0xbe2fb7a9	-0.17159905
121	0x3e177728	0.14791548
122	0x3dcff2ee	0.10153757
123	0xbd04dc26	-0.032436512
124	0xbdb4f3de	-0.088355765
125	0x3d7e9e60	0.062162757
126	0xbe0c6602	-0.13710788
127	0xbd45664c	-0.04819326
128	0x3bd9d9dc	0.0066482853
129	0x3e2e6e23	0.17034201
130	0xbee32229	-0.44362
131	0xbd824760	-0.0636127
132	0xbcf062a2	-0.029343907
133	0x3c61c7dd	0.013780561
134	0xbe3c36e6	-0.18380317
135	0xbcbb4e6e	-0.022864547
136	0x3e8b64ce	0.27225345
137	0x3dc4d0ae	0.09610115
138	0x3e28f911	0.16501261
139	0xbd6b77d0	-0.05748731
140	0x3c80fcac	0.015745483
141	0x3d64c44c	0.055851266
142	0x3d41bfd5	0.047302086
143	0xbdc99281	-0.098423965
144	0x3d7eefa2	0.06224025
145	0x3ced3b32	0.02895889
146	0x3e358936	0.17728123
147	0x3e2a692f	0.16641687
148	0x3e18928b	0.14899652
149	0xbed39d61	-0.41331008
150	0x3d1dbe53	0.038511585
151	0xbddd89a9	-0.10817272
152	0x3d97e950	0.07417548
153	0xbe465963	-0.19370036
154	0x3e24e85a	0.1610426
155	0xbc0434e0	-0.008069247
156	0xbe95c0ba	-0.292486
157	0x3cdfe2e8	0.027329877
158	0x3e3d7f7a	0.1850566
159	0x3bc096b4	0.00587734
160	0xbe9023a0	-0.2815218
161	0x3e6c26aa	0.23061624
162	0xbd24e9f9	-0.040262196
163	0xbd93cf00	-0.072172165
164	0xbe01c2b0	-0.12671924
165	0x3e82f34e	0.25576252
166	0x3d10c7a4	0.035346642
167	0x3d73f1bb	0.059556704
168	0xbd48b632	-0.04900188
169	0x3df3d1ac	0.11905226
170	0xbc848971	-0.016178818
171	0x3ce9fdbd	0.028563375
172	0x3e0fc54c	0.14040107
173	0xbc6eb131	-0.014568613
174	0xbc6ae157	-0.014335952
175	0xbccbcb87	-0.024877323
176	0x3e37eb4f	0.17960857
177	0x3e772702	0.24135974
178	0x3d32d7d7	0.043662872
179	0x3d43018d	0.0476089
180	0xbe3caa85	-0.18424423
181	0x3dc86eab	0.09786733
182	0x3e849501	0.2589493
183	0xbef18c7a	-0.47177488
184	0x3a9ebab5	0.0012110086
185	0xbd029bab	-0.031886738
186	0xbe82c1ad	-0.25538388
187	0xbe2ee3d1	-0.17079093
188	0x3e1bd127	0.15216504
189	0x3e0f2bdb	0.13981573
190	0x3dbcabc0	0.09212446
191	0xbbb9b560	-0.0056673735
192	0xbd6bb258	-0.05754313
193	0x3d175e44	0.036955133
194	0x3e4f3219	0.20233954
195	0xbd512d49	-0.051068578
196	0x3d0c659e	0.034276597
197	0x3cecf2a8	0.028924301
198	0x3e0ee3e4	0.13954121
199	0x3d7dcc97	0.06196269
200	0x3d924638	0.071422994
201	0xbd6468cc	-0.055764005
202	0x3ec30ff6	0.38098115
203	0x3c75863e	0.014985619
204	0xbe21f56e	-0.1581628
205	0x3d7cb950	0.061700165
206	0x3cfd42b2	0.030915592
207	0x3e22bb08	0.1589166
208	0xbd1b4eaa	-0.037916817
209	0x3b9567ad	0.0045594783
210	0x3e516736	0.20449528
211	0x3e8d7a74	0.27632487
212	0x3cd59073	0.026069855
213	0x3e706a93	0.23478155
214	0xbe75dddb	-0.24010412
215	0x3e1ebd2d	0.15501852
216	0x3e1835b1	0.14864232
217	0x3e2c6697	0.1683601
218	0xbe23ae6e	-0.15984508
219	0x3e441a7f	0.19150732
220	0xbe433e6e	-0.19066784
221	0xbb6d9934	-0.0036254646
222	0x3e0086d4	0.12551433
223	0xbe5421b6	-0.20715985
224	0xbb9d5940	-0.004801899
225	0x3defcc80	0.11708927
226	0xbd17258c	-0.036901042
227	0xbd42130e	-0.047381453
228	0x3eafc96f	0.3433337
229	0x3e07d84d	0.13266106
230	0x3dfa75d4	0.12229505
231	0x3d487299	0.048937414
232	0xbe8586f0	-0.26079512
233	0xb9eaab93	-0.0004475979
234	0x3ec730d7	0.3890445
235	0x3e0c97b6	0.13729748
236	0x3d776e02	0.060407646
237	0xbe6d6ae9	-0.23185314
238	0x3e35fc35	0.1777199
239	0x3d483e75	0.04888769
240	0xbe385bce	-0.1800377
241	0xbcb88c53	-0.02252785
242	0x3e980e83	0.29698572
243	0x3e673ac6	0.22581014
244	0x3d08f6ad	0.033438373
245	0xbe0f2e96	-0.13982615
246	0x3d369df9	0.04458425
247	0xbdc2c09b	-0.09509393
248	0x3d645bbb	0.055751543
249	0x3db6169d	0.08891032
250	0x3cce04f1	0.02514884
251	0xbdf011d7	-0.11722153
252	0x3cde59c8	0.02714242
253	0xbd659ea4	-0.056059495
254	0x3d1fce2f	0.03901499
255	0xbb62eee9	-0.0034627265

fc2.bias f4 [256]
0	0xbd5f1bb6	-0.054469787
1	0x3cb70845	0.02234281
2	0x3e4c1bd0	0.19932485
3	0xbbb29a25	-0.0054505044
4	0xbcc80adf	-0.024419246
5	0xbe209315	-0.15681107
6	0xbd7d59d3	-0.06185324
7	0xbdc92a62	-0.09822537
8	0xbe4305b0	-0.19045138
9	0x3c03c2eb	0.0080420775
10	0xbe08b3dc	-0.13349861
11	0xbe209ce0	-0.15684843
12	0xbe8db782	-0.27679068
13	0xbd45d54c	-0.04829912
14	0x3c90d08e	0.017677572
15	0xbe5418c2	-0.2071257
16	0xbe75de07	-0.24010478
17	0xbd724717	-0.059149828
18	0xbe40782a	-0.18795839
19	0xbda881bf	-0.08227872
20	0xbcbfba08	-0.023404136
21	0xbdf44e93	-0.11929049
22	0xbe6e8ea8	-0.23296607
23	0xbe8fce3b	-0.2808703
24	0xbe1222d5	-0.142711
25	0xbd7ccbd1	-0.061717812
26	0xbe397600	-0.1811142
27	0xbe8356b0	-0.25652075
28	0xbe0a0652	-0.13478974
29	0x3d8f993c	0.07011649
30	0x3d2422a8	0.040072113
31	0xbe313696	-0.17305979
32	0xbe05ceca	-0.13067165
33	0xbe9bfcc3	-0.3046628
34	0xbda3349a	-0.07969017
35	0xbdc61275	-0.09671489
36	0xbe231180	-0.15924644
37	0xbd9c9faa	-0.07647641
38	0xbca04995	-0.019566337
39	0xbcf22046	-0.029556405
40	0xbe3e2e3f	-0.18572329
41	0xbd969b8b	-0.07353886
42	0xbe6de64a	-0.2323238
43	0xbe2d997f	-0.16953085
44	0xbe4133b2	-0.18867376
45	0xbd95a672	-0.073071375
46	0xbcfb0cd8	-0.030645773
47	0xbe050858	-0.12991464
48	0xbc4afdf5	-0.01238965
49	0xbc68e005	-0.014213567
50	0x3b39f74a	0.0028376156
51	0x3d012e15	0.031538088
52	0xbe192622	-0.14955953
53	0xbd028b4d	-0.03187113
54	0xbd1994a9	-0.03749529
55	0xbc02bab4	-0.007979084
56	0xbd4649b1	-0.04841012
57	0xbd1befe3	-0.03807057
58	0xbdbce9f1	-0.09224308
59	0xbcef5a81	-0.02921796
60	0x3d05d5d1	0.032674614
61	0x3e226bd4	0.15861446
62	0xbe52c098	-0.20581281
63	0xbdaa8737	-0.083265714
64	0xbd47f797	-0.048820104
65	0xbda2d522	-0.07950808
66	0x3e523b89	0.20530523
67	0xbd22a739	-0.039710257
68	0xbdfd4d45	-0.123682536
69	0xbdf26f77	-0.118376665
70	0x3bf6cbf8	0.007531639
71	0xbd5de649	-0.054174695
72	0x3d72eb4d	0.05930643
73	0xbde3f41d	-0.11130545
74	0xbd57753e	-0.052602045
75	0xbc383f24	-0.011245523
76	0xbd9d0fc4	-0.07669023
77	0xbe212302	-0.1573601
78	0xbdc73e77	-0.09728711
79	0xbe123ef2	-0.14281824
80	0xbd8b254d	-0.06794224
81	0xbd981776	-0.0742635
82	0xbe3471dd	-0.1762156
83	0x3e25bb37	0.16184698
84	0xbd4817e2	-0.0488509
85	0xbdf99b5d	-0.12187836
86	0xbd6ad8ed	-0.057335783
87	0xbdcff0ec	-0.10153374
88	0x3cf13d4a	0.02944817
89	0xbe71fdd6	-0.23631987
90	0xbd13db11	-0.03609759
91	0xbe121511	-0.14265849
92	0xbd884dce	-0.06655465
93	0xbe7772b9	-0.24164857
94	0xbcec30f5	-0.028831938
95	0xbde97301	-0.113988884
96	0xbe2cd0c2	-0.1687651
97	0xbe4b8920	-0.19876528
98	0xbd62ed42	-0.055402048
99	0xbe3159c5	-0.173194
100	0x3c7c6129	0.015404024
101	0xbd73844c	-0.05945234
102	0xbe1c088a	-0.15237632
103	0xbe8f10cd	-0.27942505
104	0xbd85ebc9	-0.06539113
105	0x3db09bbe	0.086234555
106	0xbe826910	-0.2547078
107	0xbda6f4da	-0.081521705
108	0xbd3d1b64	-0.0461687
109	0x3c20ca40	0.009813845
110	0x3c23c744	0.009996239
111	0xbdc876d2	-0.09788288
112	0xbdf3504e	-0.11880551
113	0xbe210655	-0.15725072
114	0xbdf2dc4d	-0.11858425
115	0x3d639431	0.05556125
116	0xbe681fa7	-0.22668324
117	0xbd54a7b4	-0.051917747
118	0xbba101a8	-0.0049135275
119	0xbe405f30	-0.18786311
120	0xbd4f3af9	-0.05059335
121	0xbe277388	-0.16352665
122	0xbdd1bf92	-0.10241617
123	0xbe3fd597	-0.18733822
124	0xbdac1b37	-0.08403628
125	0x3e069ea4	0.13146454
126	0xbe6b7fc7	-0.22997962
127	0xbdea332a	-0.1143554
128	0xbd679b47	-0.05654457
129	0xbe576b1d	-0.21036954
130	0x3d8ea624	0.069652826
131	0xbd3ac166	-0.045594595
132	0xbd276248	-0.040865213
133	0xbd97b798	-0.074080646
134	0xbddcaef4	-0.10775557
135	0x3c6a6915	0.01430728
136	0xbcf9aea2	-0.03047878
137	0x3ce2bb06	0.02767707
138	0xbd5fa22d	-0.054598022
139	0xbd6404d3	-0.055668663
140	0xbe37e6db	-0.17959158
141	0xbdf5a582	-0.11994459
142	0xbd02a121	-0.031891946
143	0xbdec77a3	-0.115462564
144	0xbdb06dee	-0.086147174
145	0xbd2cc8a1	-0.042183522
146	0xbe0a91b7	-0.13532148
147	0xbe76e9ea	-0.24112669
148	0x3deee5af	0.116649024
149	0xbe10038e	-0.14063856
150	0xbe9aaa91	-0.30208257
151	0x3b664abd	0.0035139762
152	0xbe0db594	-0.13838798
153	0x3d82505b	0.06362983
154	0xbd894e91	-0.067044385
155	0x3e03d896	0.1287559
156	0x3c012793	0.00788297
157	0xbe05af69	-0.13055195
158	0xbd88ea55	-0.0668532
159	0xbd7622c1	-0.060091738
160	0xbd88a1b9	-0.06671471
161	0x3d4f327a	0.050585248
162	0xbe60a24a	-0.21936908
163	0xbd70f9a9	-0.058831844
164	0xbdb805a2	-0.089854494
165	0x3c1a716b	0.009426455
166	0x3ca2a859	0.019855665
167	0xbe4cb227	-0.19989835
168	0xbd5b4762	-0.053534873
169	0xbe03b9a5	-0.12863787
170	0x3d926727	0.07148581
171	0x3dab50f5	0.08365051
172	0xbb101bdd	-0.0021989264
173	0xbd44c19f	-0.048036214
174	0xbdcc6e57	-0.09981983
175	0xbe6384ef	-0.22218679
176	0xbe71b792	-0.23605183
177	0xbc4dca7d	-0.012560484
178	0xbd9e2c39	-0.077232786
179	0xbd9c7096	-0.076386616
180	0xbd926dd3	-0.071498536
181	0x3b3cea97	0.002882635
182	0xbe0b1895	-0.13583596
183	0xbdb74870	-0.08949363
184	0xbd3e68d1	-0.04648668
185	0xbe77f851	-0.24215819
186	0x3d19dd19	0.03756437
187	0x3e001bf0	0.12510657
188	0x3c04b420	0.008099586
189	0xbde5c8c3	-0.11219933
190	0xbe305386	-0.17219362
191	0xbcb68576	-0.022280436
192	0xbd8f0e07	-0.069850974
193	0xbe077b9e	-0.1323075
194	0xbd645f9c	-0.055755243
195	0xbe88896d	-0.26667348
196	0xbe6bd160	-0.23029089
197	0xbe33bffa	-0.17553702
198	0xbe044823	-0.12918143
199	0x3ccef93b	0.025265327
200	0xbe7b35db	-0.24532263
201	0xbd5b0c8e	-0.05347877
202	0xbe408497	-0.18800579
203	0x3c77634f	0.015099361
204	0xbd7543af	-0.059879
205	0xbe8b6f5f	-0.27233407
206	0x3d48d719	0.049033258
207	0xbda7b60e	-0.08189021
208	0xbd5ff17b	-0.054673653
209	0xbbc95430	-0.006144069
210	0xbe776dbc	-0.24162954
211	0x3bcbef08	0.006223563
212	0xbdefd5cc	-0.117107004
213	0x3d50f02f	0.051010307
214	0x3d0f93be	0.035053007
215	0xbdf2c73b	-0.118544064
216	0xbd65c761	-0.056098346
217	0x3e00d4c8	0.1258117
218	0x3ba08a9a	0.004899335
219	0x3dbce722	0.092237726
220	0x3d9aacf3	0.07552519
221	0xbd97ed61	-0.07418323
222	0xbdd28ba8	-0.102805436
223	0x3c8f4974	0.01749108
224	0xbe8c43d8	-0.2739551
225	0xbce0b039	-0.02742778
226	0xbd9615c4	-0.0732837
227	0x3d92f4aa	0.07175572
228	0x3e5f9f30	0.21838069
229	0xbe530508	-0.20607388
230	0xbe79cf0e	-0.24395391
231	0x3d53cad4	0.051707104
232	0xbe95282a	-0.29132205
233	0xbd116b4c	-0.035502717
234	0xbd9b8c9b	-0.07595178
235	0x3e1db70a	0.15401855
236	0xbe333bf7	-0.17503344
237	0xbd68f06d	-0.056869913
238	0xbe6c5fee	-0.2308347
239	0x3cd03ba8	0.025419071
240	0x3b5b6c4b	0.0033481296
241	0xbd3aadef	-0.045576032
242	0xbe52cfad	-0.20587035
243	0xbdf7cb68	-0.120993435
244	0xbdc2256f	-0.09479796
245	0xbe6a022f	-0.22852395
246	0xbd98b343	-0.074560665
247	0xbe80c727	-0.2515194
248	0xbe589384	-0.21150023
249	0xbe8c618e	-0.27418178
250	0xbe0991b7	-0.13434492
251	0xbe2f78e9	-0.17135967
252	0xbdffdcf5	-0.12493316
253	0x3aef6c88	0.0018266598
254	0xbeb27ba1	-0.34859946
255	0xbe3a6e67	-0.18206178

fc3.weight f4 [100, 256]
0	0xbd07c5af	-0.03314751
1	0xbd82f089	-0.06393535
2	0x3af035bb	0.001832656
3	0xbcebaf45	-0.028770098
4	0xbc8c603a	-0.017135728
5	0xbd01b67a	-0.031668164
6	0x3c8985ef	0.016787497
7	0xbd2b4573	-0.04181428
8	0x3cbeb1b8	0.023278102
9	0xbd02145b	-0.031757694
10	0xbd672e3c	-0.056440577
11	0xbd0f60ae	-0.03500431
12	0x3d006f30	0.031356037
13	0x3bc101d0	0.0058901086
14	0xbd4a79fb	-0.049432736
15	0xbb3d1df5	-0.0028856967
16	0xbd86d79a	-0.065840915
17	0xbc6dc908	-0.014513262
18	0xbcee9306	-0.02912284
19	0x3d557828	0.052116543
20	0x3d0aa2af	0.033846553
21	0xbba0b298	-0.0049041025
22	0x3c7a2483	0.015267494
23	0x3d4885e2	0.048955806
24	0xbc440131	-0.011963175
25	0xbcda61d5	-0.026657978
26	0xbd74d5e7	-0.059774306
27	0xbd0f8716	-0.035040937
28	0xbd8efb37	-0.06981509
29	0x3d21d309	0.0395079
30	0xbd31a621	-0.043371323
31	0xbd7bf30b	-0.06151108
32	0xbd84664b	-0.06464823
33	0xbd2c4ebe	-0.042067282
34	0x3cbec99b	0.023289492
35	0xbd8510ab	-0.0649732
36	0x3d4d8733	0.050177764
37	0xbd223372	-0.039599843
38	0xbd0711e1	-0.032976035
39	0x3b987a6a	0.004653265
40	0xbd1c0d70	-0.038098752
41	0x3b9900c8	0.0046692826
42	0xbd67ab69	-0.056559954
43	0xbd32e936	-0.04367944
44	0xbce60fb5	-0.028083662
45	0xbc85aabc	-0.016316764
46	0xb9859d2a	-0.00025484833
47	0x3c8b9d61	0.017042818
48	0x3d185140	0.03718686
49	0xbd21b93f	-0.039483305
50	0x3b7977f9	0.0038065894
51	0xbd5c0273	-0.053713273
52	0xbc447b81	-0.011992336
53	0xbd556861	-0.052101497
54	0x3d02194c	0.031762406
55	0xbd0da815	-0.034584124
56	0xba8b838c	-0.0010644062
57	0x3c301850	0.010747984
58	0xbd68c53b	-0.05682872
59	0x3ca1197b	0.01966547
60	0xbcb01c2a	-0.021497805
61	0x3b322a43	0.0027185834
62	0xbc36e82d	-0.011163753
63	0xbd164e26	-0.036695622
64	0x39fc0471	0.00048068495
65	0x3bc8484c	0.006112134
66	0x3ad0437b	0.0015889251
67	0x3d248ce6	0.040173434
68	0xbd0c4d80	-0.034253597
69	0xbcded31a	-0.02720027
70	0xbc9ab158	-0.018883392
71	0xbc9d7458	-0.019220516
72	0xbc801437	-0.01563464
73	0xbc548992	-0.012972252
74	0x3d25cf32	0.0404808
75	0xbd1fc1c1	-0.039003137
76	0xbd6d88a2	-0.05799163
77	0x3d436278	0.04770133
78	0xbd3d66e1	-0.04624069
79	0xbb99d183	-0.004694165
80	0x3d3a64bc	0.045506224
81	0x3d1621b7	0.036653247
82	0xbd82e082	-0.06390478
83	0x3d3c2568	0.04593411
84	0xbc1d31e0	-0.009594411
85	0x3ce6dd6e	0.028181758
86	0x3c7023eb	0.014657001
87	0xbc06851f	-0.0082104495
88	0x3cdbc58d	0.026827598
89	0x3c5a7b49	0.0133350575
90	0x3d2c71d9	0.04210076
91	0xbd905365	-0.07047156
92	0xbc82c586	-0.015963327
93	0x3d2620c8	0.040558606
94	0xbc32f1c1	-0.010921896
95	0xbd06a41c	-0.03287135
96	0x3cf1abfe	0.029500958
97	0xbbb7be76	-0.0056074215
98	0xbd7f8db7	-0.06239101
99	0x3cdef657	0.027217073
100	0x3bcd5720	0.0062664896
101	0x3d27bd7e	0.0409522
102	0xbd72c6a8	-0.059271485
103	0xbd351189	-0.044206176
104	0x3d553b38	0.05205843
105	0xbd187855	-0.037224133
106	0x3c61daf5	0.013785114
107	0x3bc52c40	0.006017238
108	0xbbef7e69	-0.0073087704
109	0xbbcd5764	-0.0062665213
110	0xbcc31221	-0.023812355
111	0x3cf2451b	0.029573968
112	0xbd812909	-0.06306655
113	0xbcdc244d	-0.026872778
114	0x3ad6616f	0.0016355942
115	0x3d3325de	0.043737285
116	0xbcd71522	-0.026255194
117	0x3d0dadc1	0.034589533
118	0xbd3be4fe	-0.04587268
119	0xbd0a7e47	-0.033811834
120	0xbd53acb8	-0.05167839
121	0xbd95f216	-0.07321565
122	0xbd8e72d1	-0.06955493
123	0x3d2ebb30	0.042658985
124	0xbca2d805	-0.019878397
125	0x3d282d00	0.04105854
126	0xbd73948d	-0.05946784
127	0xbd24b1bb	-0.04020856
128	0xbcd974b2	-0.026544902
129	0xbd8e27fc	-0.0694122
130	0xbc732110	-0.014839426
131	0x3d401b38	0.046900958
132	0xbd4740c1	-0.04864574
133	0x3cabec96	0.020986836
134	0xbd5f71ce	-0.054551892
135	0xbbcc142e	-0.0062279915
136	0x3d1cd0c1	0.03828502
137	0xbce43be9	-0.027860599
138	0xbd88cb4d	-0.066794015
139	0xbc795958	-0.015219055
140	0xbc86e426	-0.016466212
141	0x3b8bfac4	0.004271837
142	0xbcb6fb81	-0.022336723
143	0xbd5271c4	-0.051378027
144	0x3c651f63	0.013984534
145	0x3b67dc66	0.003537917
146	0xbd0db223	-0.034593713
147	0xbd85df0b	-0.06536683
148	0xbd42fde3	-0.047605406
149	0x3b1b612a	0.0023709037
150	0xbd154440	-0.03644204
151	0xbd3b7aaa	-0.04577128
152	0xbc9f8441	-0.019472243
153	0xbc998f5e	-0.01874512
154	0xbd4e2bda	-0.05033479
155	0xbd92e400	-0.07172394
156	0xbd0064d2	-0.03134615
157	0x3cba9ebd	0.02278077
158	0x3c9f2fba	0.019431937
159	0x3d117dff	0.03552055
160	0xbd424507	-0.04742911
161	0x3ca79cb5	0.020460466
162	0xbd217992	-0.03942258
163	0xbd8fbafc	-0.07018086
164	0x3d3f872e	0.046759777
165	0x3ca89f13	0.020583665
166	0xbd05a260	-0.032625556
167	0x3c11124b	0.008854459
168	0x3c4aa300	0.012367964
169	0x3bbf6df0	0.005841963
170	0xbcda8373	-0.026674008
171	0x3c7d255e	0.015450804
172	0xbd63ab04	-0.055583015
173	0xbd214444	-0.039371744
174	0x3ce17f04	0.027526386
175	0xbd0ed351	-0.034869496
176	0xbcb3ad87	-0.02193333
177	0x3cf42c07	0.02980615
178	0xbd5e0aee	-0.054209642
179	0x3c314873	0.010820496
180	0xbb4577c8	-0.003013121
181	0xbd06dcc1	-0.03292537
182	0xbbbb757c	-0.0057207923
183	0x3b92365a	0.0044620456
184	0x3d40740d	0.046985675
185	0x3d5a47e2	0.05329121
186	0x3c8aa868	0.016926005
187	0xbbabf610	-0.005247839
188	0xbd894ac5	-0.06703714
189	0xbd7d0964	-0.061776534
190	0x3c928686	0.017886411
191	0xbba5b010	-0.0050563887
192	0xba52efdd	-0.00080466067
193	0xbd805158	-0.06265515
194	0x3c412998	0.011789702
195	0x3d19f23f	0.03758454
196	0x3d0a3a8a	0.033747233
197	0xbd863157	-0.065523796
198	0xbda18330	-0.0788635
199	0xba04a485	-0.0005059916
200	0xbd5193cc	-0.05116634
201	0x3cc6e94e	0.02428117
202	0x3cf5680c	0.02995684
203	0xbca47e7e	-0.020079847
204	0xbd2ac5f0	-0.041692674
205	0xbd44f4b6	-0.048084937
206	0xbcd66adb	-0.026174
207	0x3c1d8149	0.0096133435
208	0xbcf9b33d	-0.030480975
209	0x3d1ab0e7	0.037766363
210	0x3c9511e2	0.018197004
211	0xbcadb975	-0.021206597
212	0xbc72f10c	-0.014827978
213	0x3d446c34	0.047954753
214	0xbca23f7e	-0.019805666
215	0xbc2a6b98	-0.010401629
216	0xbd95a68b	-0.07307156
217	0xbc065920	-0.00819996
218	0xbd57b8e0	-0.052666545
219	0xbd1eb1cb	-0.038743775
220	0x3c6a2833	0.014291811
221	0xbd3ad6a7	-0.045614865
222	0x3bf6c419	0.007530701
223	0xbd4c4105	-0.049866695
224	0xbc29cc1f	-0.010363608
225	0xbd296fb8	-0.04136631
226	0x3d39e96f	0.045388635
227	0xbd046449	-0.032322202
228	0x3bd4fed7	0.006500106
229	0xbcd09cbe	-0.025465365
230	0xbc54476c	-0.012956481
231	0x3c5af7f8	0.013364784
232	0x3c91ae29	0.017783241
233	0x3bdcd4e3	0.0067392453
234	0xbbab4c42	-0.0052275965
235	0x3c8f0584	0.017458685
236	0xbd181f11	-0.037139002
237	0xbd269056	-0.040664993
238	0x3d403672	0.046926923
239	0xbd606f7a	-0.054793812
240	0x3c2d20b3	0.010566878
241	0x3c04db4c	0.008108925
242	0x3c48612b	0.012230198
243	0x3c954e66	0.01822586
244	0xbd31a0d2	-0.04336626
245	0xbd3c7cfe	-0.04601764
246	0x3d2f0132	0.04272575
247	0xbd499449	-0.04921368
248	0xbd1a0918	-0.03760633
249	0xbcdd0aea	-0.026982743
250	0xbd809856	-0.06279056
251	0xbcd43e86	-0.02590872
252	0x3d2710dd	0.040787566
253	0x3ca0aade	0.019612726
254	0x3d4957f1	0.049156133
255	0xbd8536b2	-0.06504573

fc3.bias f4 [100]
0	0x3cbf9535	0.023386577
1	0xbd69759f	-0.056996938
2	0xbdb347d2	-0.08753933
3	0x3d082293	0.033236098
4	0xbc9d3e7c	-0.019194834
5	0xbcc93f15	-0.024566213
6	0xbcf7515c	-0.030190162
7	0x3d2e4db0	0.042554557
8	0x3d6bf6a3	0.057608258
9	0x3c8b724b	0.017022273
10	0x3ca91439	0.020639526
11	0xbd2d4022	-0.04229749
12	0xbcbebff8	-0.023284897
13	0x3ce6e68b	0.028186103
14	0x3c819121	0.015816273
15	0x3cd18e74	0.025580622
16	0x3c9d814b	0.01922669
17	0xbc96e7b6	-0.018421035
18	0x3c186bc8	0.009303041
19	0x3ccaa72b	0.024737915
20	0xbd190cb8	-0.037365645
21	0x3cf3be28	0.02975376
22	0xbd4db0e0	-0.05021751
23	0xbd08925c	-0.033342704
24	0x3c4638b8	0.012098484
25	0x3cf2da57	0.029645128
26	0x3d15644f	0.036472615
27	0xbdc4848d	-0.095955946
28	0x3c564618	0.013078235
29	0x3d5876fd	0.05284785
30	0xbcf6b63b	-0.030116191
31	0xbca24cde	-0.019812044
32	0x3cebea69	0.028798299
33	0x3a97a701	0.0011570157
34	0xbb77f308	-0.0037834067
35	0xbd7e5d27	-0.062100556
36	0xbd88ed97	-0.06685942
37	0xbb9a9151	-0.00471703
38	0x3a5745c0	0.00082119927
39	0x3d9aad3a	0.075525716
40	0x3bbea18f	0.005817599
41	0x3cc308bb	0.023807874
42	0xbda244bb	-0.079232655
43	0xbd33c2d1	-0.043886963
44	0xbc34fa6e	-0.011046035
45	0xbd90980f	-0.07060253
46	0xbd89a152	-0.067202225
47	0xbbedffef	-0.0072631757
48	0x3d3a251a	0.04544554
49	0xbc151880	-0.00910008
50	0xbc8af526	-0.016962599
51	0xbca5b12c	-0.020226084
52	0xbd9b3c77	-0.07579892
53	0xbd9cdfa1	-0.07659841
54	0xbd83c648	-0.064343035
55	0x3de12cd7	0.10994881
56	0xbdc4d990	-0.09611809
57	0xbd0216b3	-0.03175993
58	0xbccec68e	-0.025241163
59	0xbe0371c0	-0.12836361
60	0xbd051240	-0.032488108
61	0x3db7ff7a	0.08984275
62	0xbca0ca47	-0.019627703
63	0xbd9f8082	-0.07788183
64	0x3bcbabc9	0.0062155467
65	0xbd674f6b	-0.056472223
66	0x3c51f3ca	0.0128144715
67	0x3c9c1db8	0.01905714
68	0xbced3d3b	-0.028959861
69	0xbcf553c8	-0.029947177
70	0xbd5666b9	-0.052344058
71	0xbdac718e	-0.08420096
72	0x3d1a58d1	0.03768236
73	0x3d58b0fc	0.05290316
74	0x3d2b2062	0.04177893
75	0xbc0b91cd	-0.008518648
76	0x3d5aff46	0.053466104
77	0x3cdd8db1	0.027045103
78	0xbd866c02	-0.065635696
79	0x3c048806	0.008089071
80	0xbd96635b	-0.07343169
81	0x3d0fd55b	0.03511558
82	0xbd9af50c	-0.0756627
83	0xbcbb0a95	-0.022832194
84	0xbd343cea	-0.044003405
85	0x3a93a631	0.0011264739
86	0xbd425e16	-0.04745301
87	0x3c0a714c	0.008449864
88	0x3d5523b3	0.052036
89	0xbc451d94	-0.012030978
90	0xbd8453ff	-0.064613335
91	0xbd944e4c	-0.072414964
92	0x3d0f5922	0.034997113
93	0x3d45945b	0.048237186
94	0xbda4795e	-0.080309615
95	0xbc31c83f	-0.010850965
96	0xbd829afb	-0.063772164
97	0x3c866908	0.016407505
98	0x3d92556d	0.071452
99	0x3b907dba	0.004409519

fc4.weight f4 [14, 100]
0	0x3ca148ef	0.019688098
1	0x3d997031	0.07492102
2	0x3a4cdd00	0.0007814914
3	0xbd19a51d	-0.03751098
4	0x39065f6e	0.00012814786
5	0x3c515753	0.012777167
6	0x3c8891ac	0.016671024
7	0xbd7ec11e	-0.06219589
8	0x3cdc2c1f	0.026876507
9	0x3df3addf	0.11898398
10	0x3c8c136c	0.017099105
11	0x3dbc3d26	0.09191351
12	0x3c1883ec	0.009308796
13	0x3c44cc79	0.012011641
14	0x3d9b454f	0.07581579
15	0xbda6da72	-0.08147134
16	0x3dcac211	0.099002965
17	0x3cd30561	0.0257594
18	0x3d4f1bac	0.0505635
19	0x3dcd4548	0.1002298
20	0x3d32dd4b	0.043668073
21	0xbe82b7ba	-0.25530797
22	0xbcf73d36	-0.030180555
23	0x3c625080	0.013813138
24	0x3cb958b8	0.022625312
25	0xbc81f72c	-0.015864931
26	0xb90d8f67	-0.0001350023
27	0xbda49de3	-0.08037927
28	0x3bab6c8a	0.0052314447
29	0xbd1486dc	-0.036261424
30	0x3d1ba80f	0.03800207
31	0x3df62676	0.120190546
32	0xbdbd3c48	-0.09240013
33	0x3d4d3812	0.0501023
34	0x3d409670	0.04701847
35	0xbd6094f6	-0.05482956
36	0x3d68dc40	0.05685067
37	0xbd4c1970	-0.049828947
38	0x3dd557ea	0.10417159
39	0x3e92d627	0.2867901
40	0x3d82ba83	0.063832305
41	0x3d75c699	0.06000385
42	0xb9b9e800	-0.00035458803
43	0x3eecd183	0.46253595
44	0xbd042264	-0.03225936
45	0x3cced21b	0.02524667
46	0x3d30339c	0.04301797
47	0xbc215e03	-0.009849074
48	0xbc9d10a8	-0.019172981
49	0xbb4b4cc0	-0.0031021088
50	0xb8ff5177	-0.000121745215
51	0xbd902839	-0.07038922
52	0x3c382227	0.011238611
53	0x3d67044e	0.05640059
54	0xbdb59955	-0.088671364
55	0x3ccfdda6	0.025374245
56	0x3db54426	0.08850889
57	0x3d265d22	0.040616162
58	0x3d158cfc	0.036511406
59	0xbdaa0205	-0.083011664
60	0x3cbbe918	0.022938296
61	0x3dd8c2a5	0.105840005
62	0xbcc1d0b5	-0.02365909
63	0x3bc2e491	0.0059476574
64	0x3e1f24f2	0.15541437
65	0x3e4658a0	0.19369745
66	0xbd124746	-0.035712503
67	0xbd4ff7fe	-0.050773613
68	0xbc0ec831	-0.008714722
69	0xbd9e08cc	-0.077165216
70	0x3acd8580	0.0015680045
71	0x3acd9ee9	0.0015687618
72	0xbb44439d	-0.0029947527
73	0x3cbdd9cd	0.023175145
74	0x3c442a55	0.011972983
75	0xbe08c5f9	-0.1335677
76	0xbd8c7f22	-0.06860186
77	0x3d1c9e93	0.038237166
78	0x3d8311fe	0.06399916
79	0xbd60e1de	-0.054902904
80	0xbd727593	-0.05919416
81	0x3e42d08c	0.19024867
82	0x3d3443e3	0.044010054
83	0x3c4cabe8	0.0124921575
84	0xbe778b14	-0.24174148
85	0x3db959c0	0.090503216
86	0x3d28bc11	0.04119498
87	0x3e29cc0f	0.16581748
88	0x3dc8cfcb	0.09805258
89	0x3cd36fbd	0.025810117
90	0xbd0fec95	-0.03513773
91	0x3d73d8bd	0.05953287
92	0xbcea9aa4	-0.028638192
93	0x3c07cc13	0.008288401
94	0xbe5d10f8	-0.21588504
95	0xbc60b138	-0.013714127
96	0xbd987255	-0.07443682
97	0xbda9eeaf	-0.082974784
98	0x3e0572b7	0.13032041
99	0xbd12d771	-0.035849992
100	0x3cea67d9	0.028613972
101	0xbb9a33e0	-0.004705891
102	0xbdbd2b8f	-0.09236824
103	0xbd94b86a	-0.07261737
104	0x3c8c3cf2	0.017118905
105	0xbdaa2920	-0.08308625
106	0x3d225a42	0.039636858
107	0xbbf64524	-0.0075155664
108	0x3e046898	0.12930524
109	0x3d50e288	0.050997287
110	0xbd1ff489	-0.039051566
111	0xbd07ae55	-0.03312524
112	0x3a556e10	0.0008141706
113	0x3d9db907	0.07701307
114	0x3e755ad5	0.23960431
115	0x3b9dd72b	0.00481691
116	0xbd366520	-0.044530034
117	0xbd544beb	-0.051830214
118	0xbc828217	-0.015931172
119	0x3d1b5e37	0.037931647
120	0x3d33aa73	0.043863725
121	0xbe0ae60f	-0.13564323
122	0x3da501f7	0.080570154
123	0xbc5f6280	-0.013634324
124	0xbd9d27a2	-0.07673575
125	0x3d1344e3	0.035954367
126	0x3e3185ed	0.17336245
127	0xbdc4032b	-0.09570917
128	0xbcd2728f	-0.025689391
129	0x3d668cca	0.05628661
130	0xbd7c3990	-0.061578333
131	0x3daf313f	0.08554315
132	0xbd4c2e57	-0.04984888
133	0xbdccdf07	-0.100034766
134	0x3ca25b07	0.019818796
135	0xbd37bf1a	-0.044859983
136	0xbcb4a773	-0.022052502
137	0x3baeb930	0.0053321347
138	0x3e3b66d1	0.1830094
139	0x3e488cd8	0.19584978
140	0xba27f2ae	-0.00064067065
141	0x3da8291a	0.082109645
142	0xbcb54d14	-0.02213148
143	0xbe6d33f0	-0.23164344
144	0x3e0aaae6	0.13541755
145	0x3e0baa75	0.13639243
146	0x3e1aa593	0.15102224
147	0x3d85f424	0.06540707
148	0xbd2b99a3	-0.041894566
149	0xbc788cb1	-0.015170262
150	0xbc14b78e	-0.009076966
151	0x3d6e8805	0.058235187
152	0xbd4dbc53	-0.050228428
153	0xbd528bba	-0.051402785
154	0x3cbc7280	0.023003817
155	0x3dd56be9	0.10420973
156	0xbe2b33ea	-0.16719022
157	0x3cc04319	0.023469495
158	0xbd2dbbe0	-0.0424155
159	0x3d70b328	0.058764607
160	0x3d529c44	0.051418558
161	0x3d92f774	0.07176104
162	0xbbdc5da1	-0.0067250286
163	0xbd422063	-0.047394168
164	0x3dfd583d	0.12370346
165	0xbd7c7936	-0.061639033
166	0xbc875003	-0.016517645
167	0xbdd59a6f	-0.104298465
168	0x3bfa3c31	0.00763657
169	0xbd7b7423	-0.061390053
170	0x39b32a00	0.00034172833
171	0x3d22d16e	0.03975051
172	0xbcda7f71	-0.026672097
173	0x3dfdeb10	0.1239835
174	0x3d0f20d3	0.034943413
175	0x3e5d7a2b	0.21628635
176	0x3c404c21	0.011736901
177	0xbd07043d	-0.032963026
178	0x3d9d5ff1	0.07684315
179	0xbbb8248e	-0.005619592
180	0x3ce32314	0.027726687
181	0x3d9a70de	0.07541059
182	0x3c97b370	0.01851818
183	0x3cb1f107	0.021721376
184	0xbdbfd78f	-0.093672864
185	0x3d431193	0.047624182
186	0x3d9484ef	0.072519176
187	0x3e3a8eca	0.18218532
188	0x3e0f9ce5	0.14024694
189	0xbd9355df	-0.07194113
190	0x3b6165d1	0.0034392963
191	0xbccdbfd0	-0.025115877
192	0x3dce29b3	0.10066547
193	0x3da23b6f	0.07921492
194	0x3ce1ec8a	0.02757861
195	0x3c5961f4	0.013267983
196	0xbb1eb940	-0.0024219304
197	0x3c3a75f3	0.01138066
198	0x3e954b98	0.29159236
199	0x3c506bcb	0.012721012
200	0xbc96d8b5	-0.01841388
201	0xbd8e810d	-0.06958208
202	0xbdb32a8f	-0.08748352
203	0xbd28502d	-0.041092087
204	0x3d416612	0.047216482
205	0xbd64a036	-0.05581685
206	0xbccdf434	-0.02514086
207	0x3d7111f6	0.05885502
208	0x3c8b5825	0.017009804
209	0xbc44a7e8	-0.012002923
210	0x3daaa62b	0.08332475
211	0x3d0bffc5	0.034179468
212	0xbcc5d774	-0.024150588
213	0xbd820499	-0.06348533
214	0x3d333498	0.04375133
215	0xbcc67ea8	-0.024230316
216	0x3d074336	0.03302308
217	0x3cbc0a19	0.022954034
218	0xbd9b527c	-0.07584092
219	0x3e55fd20	0.20897341
220	0x3d07952e	0.033101253
221	0xbead2bfd	-0.33822623
222	0x3cdbd4f7	0.026834948
223	0x3dc32187	0.09527879
224	0xbbdf97d0	-0.0068235174
225	0xbc8ba235	-0.01704512
226	0x3daf07c6	0.085464045
227	0x3da4e829	0.080520935
228	0x3d5e0ec0	0.054213285
229	0x3e2b971c	0.16756862
230	0xbde817b8	-0.11332649
231	0xbbbea7c7	-0.0058183405
232	0x3d14bf42	0.03631521
233	0xbd114e07	-0.035474803
234	0xbdb3f6fb	-0.08787342
235	0x3d5149b2	0.051095672
236	0xbd28dc14	-0.041225508
237	0xbd2443ed	-0.04010384
238	0xbc610679	-0.013734453
239	0x3e50fdc3	0.20409302
240	0xbc437ee9	-0.011932113
241	0xbc8ce104	-0.01719714
242	0x3d38fd82	0.04516364
243	0xbe86658d	-0.26249352
244	0x3daca441	0.084297664
245	0xbdb4d16c	-0.088290066
246	0x3dfb9ff0	0.12286365
247	0xbdd3dabe	-0.10344456
248	0xbd433e80	-0.047667027
249	0xbd5457cd	-0.051841546
250	0xbd4063ce	-0.04697018
251	0xbd903600	-0.0704155
252	0x3b2f94a6	0.0026791482
253	0xbce93578	-0.028467879
254	0x3d8032bd	0.062596776
255	0x3e1cb409	0.15303053

fc4.bias f4 [14]
0	0x3d8a8e85	0.06765465
1	0x3e175c91	0.14781405
2	0x3db9aebf	0.09066533
3	0x3dc4be8b	0.09606656
4	0x3c68a1be	0.014198719
5	0x3e088669	0.13332523
6	0x3dc8a455	0.09796969
7	0x3d44440b	0.047916453
8	0x3ca58956	0.020207088
9	0x3ddf0007	0.10888677
10	0x3e15b60b	0.14620225
11	0x3d9ea033	0.07745399
12	0x3d2dd9bf	0.042443987
13	0x3da106a6	0.07862596
